onboard_codes/test_realsense/saved_models/0414-distill-policy-anti-roll-0.5-alienware/estimator.pth (torch, 66007 bytes, 6 tensors)

weight f4 [128, 53]
0	0x3ea33f03	0.31884012
1	0xbee4f826	-0.44720572
2	0x3e03c3d6	0.12867674
3	0x3f1286ce	0.57236946
4	0x3f352540	0.70759964
5	0x3daaa89b	0.0833294
6	0x3e09a219	0.13440742
7	0xbdbd7f3b	-0.09252783
8	0xbb949b3e	-0.004535108
9	0xbe07ea09	-0.13272871
10	0xbe8c66f2	-0.2742229
11	0xbed6114a	-0.41810066
12	0xbe4b6a75	-0.19864829
13	0x3f887558	1.066081
14	0x3f07d5cf	0.5306062
15	0x3fac6f8a	1.3471539
16	0x3ee23b13	0.44185695
17	0x3db3d06a	0.08779986
18	0x3f59a737	0.85020775
19	0x3f8611e1	1.0474206
20	0x3f6a249f	0.9146213
21	0x3f98a126	1.1924179
22	0x3f86dce9	1.0536166
23	0x40315ba4	2.7712183
24	0x3faec67e	1.3654325
25	0xbe5b24c6	-0.21400747
26	0xbf014ca9	-0.505076
27	0xbe19a86b	-0.15005653
28	0x3e2e6032	0.17028883
29	0xbdc7d88d	-0.09758101
30	0xbe5641cd	-0.20923539
31	0x3d37b452	0.0448497
32	0xbee4384b	-0.44574198
33	0xbe1bdf7d	-0.15221973
34	0xbeaa464a	-0.3325675
35	0xbfa37279	-1.2769309
36	0xbf02a4ce	-0.5103272
37	0xbe3d828e	-0.18506834
38	0x3d031e09	0.032011066
39	0xbe399e4d	-0.18126793
40	0xb98af6cc	-0.0002650529
41	0xbb77b80a	-0.0037798905
42	0xbe3cce2f	-0.18438028
43	0xbd465ce0	-0.048428416
44	0xbd7de624	-0.061987057
45	0xbe2a8d56	-0.16655478
46	0x3d4f45ad	0.050603557
47	0x3cd4ee9f	0.02599269
48	0x3db05de5	0.08611659
49	0xbe02804d	-0.12744255
50	0xbe387be0	-0.18016005
51	0xbea12c03	-0.3147889
52	0x3e8b6864	0.2722808
53	0xbd98ecf8	-0.07467073
54	0x3ee0a192	0.43873268
55	0xbecc3431	-0.3988357
56	0x3f9ab23c	1.2085643
57	0x3e098868	0.13430941
58	0x3d97de23	0.07415416
59	0xbddce92b	-0.10786661
60	0x3d5edbcb	0.05440883
61	0xbd7aff54	-0.061278656
62	0x3ac67bde	0.0015143116
63	0xbda1a38a	-0.07892521
64	0xbed2c597	-0.41166374
65	0xbe94569b	-0.28972325
66	0x3e56aedb	0.2096514
67	0xbee64da5	-0.44981113
68	0xbeb56e39	-0.35435656
69	0x3e77d017	0.24200474
70	0x3dcc751b	0.099832736
71	0x3e1b0cdf	0.15141629
72	0x3ea75e73	0.32689247
73	0x3e706872	0.23477343
74	0x3f251e36	0.64499223
75	0xbdf68226	-0.120365426
76	0x3e11ffdf	0.14257763
77	0xbe96bb8d	-0.29439965
78	0xbe165678	-0.14681423
79	0x3fe50077	1.7890767
80	0xbe433707	-0.1906396
81	0xbe535f6b	-0.20641868
82	0x3dd2e5b0	0.10297716
83	0xbdf347c9	-0.11878926
84	0xbe9db513	-0.3080221
85	0x3e9de004	0.30834973
86	0xbd2e7ba5	-0.042598385
87	0x3e2ec205	0.170662
88	0x3e309bc6	0.17246923
89	0x3d23bf8e	0.039977603
90	0x3dd31d5e	0.10308336
91	0xbe296e6e	-0.16546032
92	0x3e26c386	0.16285524
93	0xbc9037f4	-0.017604806
94	0xbcde2d4b	-0.027121207
95	0xbca81d5c	-0.020521812
96	0x3d03916a	0.0321211
97	0x3cb4b08c	0.02205684
98	0x3c62b52b	0.013837139
99	0xbdb6aa86	-0.089192435
100	0xbce44447	-0.027864588
101	0xbb8a9b92	-0.004229971
102	0x3e8bf7da	0.27337533
103	0x3d6c0f38	0.0576317
104	0xbd214227	-0.03936973
105	0xbde0d06f	-0.109772556
106	0xbec23f81	-0.37939075
107	0xbecbfe8f	-0.3984265
108	0x3e188696	0.1489509
109	0x3e397eca	0.18114772
110	0x3f06b9e2	0.52627385
111	0xbdd208b3	-0.102555655
112	0xbcb1ca68	-0.02170296
113	0x3b8e1041	0.0043354337
114	0x3d6c96c0	0.057760954
115	0x3ca2baeb	0.01986452
116	0x3d8a1878	0.06742948
117	0x3e4143cf	0.18873523
118	0x3e01c82c	0.12674016
119	0x3b94e35e	0.004543706
120	0x3d8b0ecd	0.067899324
121	0xbc19bffb	-0.009384151
122	0xbe1018f0	-0.14072013
123	0x3d8c8ef9	0.06863207
124	0x3d962aad	0.073323585
125	0x3dc38317	0.09546488
126	0xbcb6c86c	-0.022312365
127	0xbe48c6e2	-0.19607118
128	0x3e652140	0.22375965
129	0x3de06a5b	0.10957786
130	0x3d40dafc	0.04708384
131	0x3d9e46ee	0.077283725
132	0x3c82e28f	0.015977172
133	0x3e0557b2	0.13021734
134	0xbdbcc976	-0.09218113
135	0x3d0749ba	0.033029296
136	0x3da6a491	0.08136857
137	0xbf98af7c	-1.1928554
138	0xc0683e72	-3.6288114
139	0xc06871cd	-3.6319458
140	0xbd991d49	-0.07476289
141	0x3d4176bc	0.047232375
142	0x3daf27a5	0.085524835
143	0xba3bcf91	-0.00071644137
144	0xbc6199e5	-0.0137696015
145	0xbc44d413	-0.012013453
146	0x3cd79123	0.026314324
147	0x3c3539ab	0.011061112
148	0xbc44a37a	-0.0120018665
149	0xbba485a3	-0.0050208136
150	0x3cba12f3	0.022714114
151	0xbcb57bb9	-0.022153722
152	0xbce7411f	-0.028229294
153	0xbc893473	-0.016748643
154	0xbc986927	-0.018604828
155	0x3c06f8ec	0.008238059
156	0x3d0b91c4	0.03407456
157	0xbb8173e9	-0.003950585
158	0xbcceb213	-0.025231397
159	0x3eed4fbf	0.46349904
160	0x3ea2f1aa	0.31825
161	0xbea007a9	-0.31255844
162	0xbf52950d	-0.82258683
163	0xbf5288eb	-0.8224017
164	0xbb99a6d8	-0.004689079
165	0x3e29048a	0.16505638
166	0xbe62a971	-0.2213495
167	0xbdadd9bd	-0.08488796
168	0xbda5943b	-0.08084913
169	0xbf0d0960	-0.5509243
170	0xbf80fcd8	-1.0077162
171	0xbf63e684	-0.89023614
172	0xbe500dc3	-0.2031775
173	0xbeb5071a	-0.3535698
174	0x3e502b6b	0.20329063
175	0x3dfb2a9c	0.122639865
176	0xbe51fb9e	-0.2050614
177	0x3df423c4	0.11920884
178	0x3e98a761	0.298152
179	0xbcbbae29	-0.022910194
180	0x3e853cf5	0.2602307
181	0xbde3360f	-0.11094295
182	0xbfab587b	-1.3386377
183	0xbe9179a2	-0.2841311
184	0xbf06500e	-0.52465904
185	0x3e8e307c	0.27771366
186	0xbe4d100b	-0.20025651
187	0xbda4d3c6	-0.08048205
188	0xbc8c36b1	-0.017115923
189	0x3d8552c4	0.06509927
190	0xbd762d92	-0.060102053
191	0xbe16cd80	-0.1472683
192	0xbc09d22a	-0.008411923
193	0x4098d175	4.7755685
194	0x4112205c	9.1329
195	0x4104b36c	8.293804
196	0xbc1f54cd	-0.009724808
197	0x3c21f86f	0.009885891
198	0xbd09d7ba	-0.033653
199	0xbca04ddd	-0.019568378
200	0x3c40ba93	0.011763233
201	0xbcc7f077	-0.024406655
202	0xbdaacc27	-0.0833972
203	0xbc9e68d3	-0.019337093
204	0xbd8e02e1	-0.06934143
205	0xbd6715b8	-0.056417197
206	0xbdd15ad8	-0.10222405
207	0xbbc82118	-0.0061074607
208	0x3df6042b	0.12012514
209	0x3e0e2a08	0.13883221
210	0xbd85278e	-0.06501685
211	0x3ebb7817	0.3661506
212	0xbe37ab47	-0.17936431
213	0x3ecf5e21	0.40501502
214	0xbea70fb9	-0.32629183
215	0x3c602dbe	0.013682781
216	0xbf2fda4b	-0.68692464
217	0xbdb87a47	-0.090076976
218	0xbb8601ba	-0.0040895613
219	0xbd831d42	-0.06402065
220	0xbb7e76f8	-0.0038828235
221	0xbdd1da74	-0.10246745
222	0xbedb3613	-0.42814693
223	0xbec6b233	-0.3880783
224	0xbef1b494	-0.47208083
225	0xbea629a5	-0.32453647
226	0xbe39f950	-0.18161511
227	0x3e752901	0.23941423
228	0x3e1effbc	0.15527242
229	0x3d3778fd	0.044793118
230	0x3e1a050d	0.15040989
231	0xbe49a616	-0.19692263
232	0xbf30ee4e	-0.69113624
233	0xbf1e1333	-0.61748046
234	0xbb97bf1c	-0.0046309363
235	0xbe1efc95	-0.1552604
236	0x3d1b1ed4	0.037871197
237	0xbe33f6b6	-0.17574582
238	0xbdd78596	-0.10523526
239	0xbddb649f	-0.10712551
240	0xbd0c4a5e	-0.03425061
241	0xbe4e71a0	-0.20160532
242	0xbdb25561	-0.08707691
243	0xbf0feb6d	-0.56218606
244	0x40bbdf9f	5.8710475
245	0x40a3ce1a	5.118909
246	0xbe84d71c	-0.25945365
247	0xbe5cf2bb	-0.2157697
248	0xbdc64592	-0.09681238
249	0x3bde13cf	0.0067772637
250	0x3c1c7488	0.009549268
251	0xbd2494db	-0.040181022
252	0x3c6602b9	0.014038735
253	0xbbc9fe79	-0.0061643687
254	0xbd1f28f0	-0.0388574
255	0x3c9555c6	0.018229377

bias f4 [128]
0	0xbf1643a0	-0.5869694
1	0xbef83315	-0.48476472
2	0x3e02871a	0.1274685
3	0xbf54c3c6	-0.83111227
4	0xbea9bdce	-0.33152622
5	0x3e39ecee	0.18156788
6	0x3d1eb909	0.038750682
7	0xbe9fbef1	-0.31200364
8	0xbf30ed23	-0.6911184
9	0x3c9c7502	0.019098762
10	0xbe9e9b57	-0.3097789
11	0x3de04e88	0.10952479
12	0x3ed4a8b1	0.4153495
13	0xbe5f9959	-0.21835841
14	0xbe8d6c6d	-0.27621785
15	0x3cd0fb01	0.025510313
16	0xbe44bfc7	-0.19213782
17	0xbcaf92d1	-0.021432312
18	0x3b3fcdef	0.0029267033
19	0xbec4089c	-0.38287818
20	0x3ec0556e	0.37565178
21	0x3ef64243	0.4809743
22	0xbed926bb	-0.42412362
23	0x3d34df02	0.04415799
24	0x3d1e42e0	0.038637996
25	0x3d45895a	0.04822669
26	0xbed01013	-0.40637264
27	0x3e829286	0.25502414
28	0xbf4fc192	-0.8115474
29	0xbe9ee9b5	-0.3103768
30	0xbe2a7b6c	-0.16648644
31	0x3ebd34fb	0.36954483
32	0xbe037027	-0.12835751
33	0x3e0702e1	0.13184692
34	0xbcfe92ee	-0.03107592
35	0xbc06aee0	-0.008220404
36	0x3e8fbb63	0.28072652
37	0x3d5ee326	0.054415844
38	0x3dbeb823	0.09312465
39	0x3d2baafa	0.041911103
40	0xbf3ae36c	-0.7300327
41	0xbe80e2e1	-0.25173095
42	0xbda93532	-0.08262099
43	0xbf294ad2	-0.6612979
44	0xbeaa222b	-0.33229193
45	0xbe3e165b	-0.18563215
46	0x3ca0aa8b	0.019612571
47	0xbe0b5d31	-0.13609768
48	0x3d960ef6	0.07327072
49	0xbe1ef880	-0.15524483
50	0xbf7fa38d	-0.99858934
51	0x3f182440	0.59430313
52	0xbe4f3096	-0.20233378
53	0x3e906ddb	0.28208813
54	0x3f2c8ab9	0.67399174
55	0xbf41abba	-0.7565266
56	0x3e1a7f64	0.15087658
57	0xbf47c96b	-0.78041714
58	0xbeb9bd35	-0.36277166
59	0x3e871251	0.26381162
60	0x3dcbf62a	0.099590614
61	0xbf362a95	-0.71158725
62	0x3c7a1ee5	0.015266155
63	0x3ea20897	0.3164718
64	0xbd92f0b6	-0.07174818
65	0x3e367ba8	0.17820609
66	0x3e89b55e	0.26896185
67	0xbeaa1f92	-0.3322721
68	0x3e199138	0.14996803
69	0x3dd4edbd	0.103969075
70	0xbe03bae1	-0.12864257
71	0x3dcffc9c	0.10155603
72	0xbf147018	-0.5798354
73	0x3ee5ea04	0.44905102
74	0x3e845924	0.2584926
75	0xbea051ec	-0.313125
76	0xbeadccef	-0.33945414
77	0xbf259c52	-0.6469165
78	0xbebf40a8	-0.37354016
79	0xbeb73d32	-0.35788876
80	0x3d8feddc	0.0702779
81	0x3e9f155a	0.31070977
82	0xbea2d40d	-0.31802407
83	0xbe9176ee	-0.2841105
84	0xbd98a50a	-0.07453354
85	0x3eef86a3	0.46782407
86	0xbf1d63d5	-0.61480457
87	0xbdd2319f	-0.10263371
88	0x3d12d465	0.035847086
89	0x3e5016ef	0.20321248
90	0xbe2752e5	-0.16340216
91	0x3d85663d	0.06513641
92	0xbf1de66a	-0.6167971
93	0x3e05dd23	0.13072638
94	0x3d7b77ea	0.061393656
95	0xbdd81413	-0.10550704
96	0xbd40e951	-0.047097508
97	0xbdf318cf	-0.11869966
98	0xbe9ec159	-0.31006888
99	0xbf1e2f5f	-0.6179103
100	0x3ec73041	0.38904002
101	0xbda90fb5	-0.08254949
102	0x3dfa9f87	0.12237459
103	0x3e4ade24	0.19811302
104	0x3e3b152a	0.18269792
105	0xbe6abeb2	-0.22924307
106	0x3e518e7a	0.20464507
107	0x3f08ec4b	0.53485554
108	0xbe072edf	-0.13201474
109	0x3d39cd77	0.045361962
110	0xbe8b94f4	-0.2726208
111	0xbea81029	-0.3282483
112	0x3e6def9c	0.23235935
113	0x3d880d11	0.06643117
114	0xbe9f8848	-0.31158662
115	0x3e5dd61b	0.21663706
116	0x3e33da94	0.1756385
117	0x3e593056	0.21209845
118	0xbeb0b2e5	-0.34511486
119	0xbee15c26	-0.44015616
120	0x3da91cef	0.08257472
121	0x3ce428d9	0.027851509
122	0xbf09974c	-0.53746486
123	0xbe0a071a	-0.13479272
124	0x3e3e290f	0.1857035
125	0xbe462bdd	-0.1935267
126	0xbeac0f77	-0.3360555
127	0xbe5ef262	-0.21772149

weight f4 [64, 128]
0	0x3d0f7585	0.035024185
1	0x3e8cc0ef	0.27490947
2	0x3fb5316b	1.4155706
3	0x3ccf4390	0.025300771
4	0xbcef1aa7	-0.029187514
5	0xbda1ab53	-0.078940056
6	0xbe3c058d	-0.18361492
7	0xbe08d30b	-0.13361757
8	0x3d843890	0.06456101
9	0x3efd16c9	0.49431446
10	0x3deb7e34	0.11498681
11	0x3e70377e	0.23458669
12	0xbd7dc404	-0.061954513
13	0xbc784035	-0.015152027
14	0xbc4b4633	-0.0124068735
15	0x3f993e18	1.1972075
16	0xbe69a7d5	-0.22817929
17	0xbd74b880	-0.059746265
18	0xbf9193e9	-1.1373264
19	0xbe404ab5	-0.18778498
20	0x3d2ceb3e	0.042216532
21	0x3e112977	0.14175974
22	0xbf55f2ee	-0.83573806
23	0xbde038a5	-0.10948304
24	0x3e06613b	0.13123028
25	0x3c3c36c8	0.01148767
26	0x3cc8956e	0.024485316
27	0x3c2e9f3e	0.0106580835
28	0x3e824208	0.25441003
29	0x3db612c7	0.088903
30	0xbe84b8fc	-0.25922382
31	0xbda93b26	-0.08263235
32	0xbf51ad20	-0.8190479
33	0x3d5123d2	0.05105955
34	0x3e171604	0.14754492
35	0xbe9b2d56	-0.30308026
36	0xbd57f33f	-0.052722212
37	0x3ea220ca	0.3166564
38	0xbc1b4e7a	-0.0094791595
39	0x3c5a733b	0.013333137
40	0x3c424703	0.011857751
41	0xbe21bfe1	-0.15795852
42	0x3d6b92ae	0.05751293
43	0x3c3aa708	0.011392362
44	0xbe90542d	-0.2818922
45	0xbd7a12f2	-0.061053224
46	0xbe3a0c39	-0.18168725
47	0xbdbd9a22	-0.09257914
48	0x3e2d1e8c	0.16906184
49	0xbeb780eb	-0.35840544
50	0xbcd02259	-0.025407003
51	0x3e9dca54	0.30818427
52	0xbe7ff823	-0.24997
53	0xbe4c6ca9	-0.19963326
54	0x3c6c2e19	0.014415287
55	0xbd903807	-0.07041936
56	0xbed9fe4c	-0.42576826
57	0xbd8705b2	-0.06592883
58	0xbdb83617	-0.08994692
59	0xbda5489d	-0.080704905
60	0x3cfb9b40	0.030713677
61	0x3d2013c5	0.039081354
62	0xbe63169d	-0.22176595
63	0x3c172ae0	0.009226531
64	0x3ebb1c6d	0.36545125
65	0x3e297268	0.16547549
66	0x3ea04530	0.31302786
67	0x3e08549c	0.13313526
68	0xbe07c274	-0.13257772
69	0x3d7476d5	0.05968364
70	0xbdade339	-0.08490605
71	0x3d897c2a	0.067131355
72	0x3d62651a	0.0552722
73	0x3d196a63	0.037454974
74	0xbe0a8f82	-0.13531306
75	0xbe4e659d	-0.2015595
76	0x3cd52c18	0.026022002
77	0xbe2b7245	-0.16742809
78	0x3ef089f6	0.46980256
79	0xbe02f430	-0.12788463
80	0xbc7d026c	-0.015442472
81	0x3f35b542	0.709797
82	0x3eaf4290	0.3423047
83	0x3e262d17	0.16228138
84	0x3f95df9a	1.1708863
85	0x3e0d2d08	0.1378671
86	0x3e102856	0.14077887
87	0x3ddbaac6	0.10725932
88	0x3e686b77	0.22697245
89	0xbf1369ab	-0.5758311
90	0xbe05dc09	-0.13072218
91	0xbd3048c0	-0.04303813
92	0x3c6dba35	0.014509727
93	0xbca48547	-0.020083083
94	0x3d020511	0.031743113
95	0x3d50ccb9	0.05097649
96	0xba468dd8	-0.0007574237
97	0x3ed5067a	0.41606504
98	0xbeafc068	-0.34326482
99	0x3e669176	0.22516426
100	0x3f6b5bd0	0.9193697
101	0x3cf75b73	0.030194974
102	0x3e5e0d24	0.216847
103	0xbe1f7b5d	-0.15574403
104	0x3e707d96	0.23485407
105	0xbe20a806	-0.15689096
106	0xbc0eac6f	-0.008708104
107	0xbb2cf237	-0.0026389488
108	0xbd038f38	-0.032119006
109	0xbb3c22ec	-0.0028707338
110	0xbe08b6b9	-0.13350953
111	0xbddc1550	-0.107462525
112	0xbe1b7694	-0.15181953
113	0x3e06fa0d	0.13181324
114	0xbda9f5ba	-0.08298822
115	0x3d818c45	0.063255824
116	0xbdbb696a	-0.091509655
117	0x3e23d463	0.15998988
118	0xbe519cc8	-0.20469964
119	0x3e69513c	0.22784895
120	0x3d8c0b0f	0.06838047
121	0x3e6f848a	0.23390403
122	0x3e657bcd	0.22410508
123	0x3e5d23b2	0.21595648
124	0x3e131156	0.14362082
125	0x3d272246	0.04080417
126	0xbe1d5c36	-0.15367207
127	0x3ced65e1	0.028979244
128	0xbda3055f	-0.07960009
129	0xbdc6b337	-0.09702151
130	0xbe4fabb9	-0.2028035
131	0x3b0d9760	0.002160512
132	0x3d579902	0.052636154
133	0xbcf93589	-0.030421035
134	0xbe0033d5	-0.12519772
135	0xbd85fd73	-0.06542482
136	0xbde3d552	-0.11124672
137	0x3e38be2e	0.18041298
138	0x3e49297e	0.19644734
139	0x3d0b41bf	0.033998247
140	0xbe059a90	-0.13047242
141	0xbd769250	-0.06019813
142	0xbcd1979b	-0.025584986
143	0x3b96f17a	0.004606423
144	0x3df317db	0.118697844
145	0xbcbf717d	-0.023369545
146	0x3e14f33c	0.14545912
147	0xbe9f7fc8	-0.31152177
148	0x3d84fee0	0.06493926
149	0xbe0530d1	-0.13006903
150	0x3c209f9a	0.009803677
151	0xbe2d3086	-0.16913041
152	0x3e7c26d7	0.24624191
153	0xbe07431a	-0.13209191
154	0x3bb40cee	0.0054947054
155	0x3d941a97	0.07231634
156	0x3c27d5de	0.010243861
157	0x3e783a27	0.24240933
158	0xbeb7d576	-0.35905045
159	0xbcf82b52	-0.030294094
160	0x3e0fe9ec	0.14054078
161	0x3dd28f11	0.10281194
162	0x3e1860d1	0.14880683
163	0x3c1144c5	0.008866494
164	0xbe1ee324	-0.15516335
165	0xbdcf8153	-0.101320885
166	0xbd708581	-0.05872107
167	0xbca00a56	-0.019536179
168	0xbe0a5ff9	-0.13513173
169	0x3e07e6be	0.13271615
170	0xbd1b497f	-0.03791189
171	0x3d4afe8a	0.049559154
172	0xbeaaaf76	-0.3333699
173	0xbe8f7e27	-0.28025934
174	0xbbd6a782	-0.00655073
175	0xbb2e0097	-0.0026550645
176	0xbe365d32	-0.17808989
177	0xbdbea8b3	-0.093095206
178	0x3e221f6d	0.158323
179	0xbbbe09ae	-0.0057994938
180	0xbe833dad	-0.25632992
181	0xbcc8e36c	-0.024522506
182	0xbe98e37e	-0.29861063
183	0x3e382b21	0.17985202
184	0x3de60d44	0.11232999
185	0xbc8feaa8	-0.017567948
186	0xbe1e10b8	-0.15436065
187	0xbd8c869f	-0.068616144
188	0xbe94ebfb	-0.2908629
189	0xbe02d106	-0.12775049
190	0xbd320e6b	-0.04347078
191	0xbdb1b8bf	-0.08677816
192	0xbda77f08	-0.08178526
193	0x3d881675	0.06644908
194	0x3d90326c	0.07040867
195	0xbcdba0d3	-0.026810085
196	0xbec976e0	-0.39348507
197	0xbca0ff67	-0.019653035
198	0x3dec1bcb	0.115287386
199	0xbddab6b8	-0.10679382
200	0x3daf02b3	0.08545437
201	0xbd801db4	-0.062556654
202	0xbd638a65	-0.055551905
203	0xbe1f0e82	-0.15532878
204	0xbeb5a02b	-0.3547376
205	0xbed56be8	-0.41683888
206	0xbd7fa1a6	-0.06241002
207	0x3ded43f6	0.11585228
208	0xbd9ce8f9	-0.076616235
209	0xbdb983da	-0.09058352
210	0x3dea2c1d	0.11434195
211	0xbebf53db	-0.37368664
212	0xbcb23e0c	-0.021758102
213	0xbe39a560	-0.18129492
214	0x3c52ad13	0.012858647
215	0xbe2262b4	-0.15857965
216	0xbe31b653	-0.17354707
217	0x3e78d659	0.24300517
218	0x3ed0bbc9	0.4076827
219	0xbdba3292	-0.09091677
220	0x3eb0f109	0.34558895
221	0x3e4f0abc	0.20218939
222	0x3c4f74b7	0.012662104
223	0xbe84a16d	-0.25904408
224	0x3dad6270	0.08466041
225	0xbd4d5ed9	-0.050139282
226	0xbdcb81ae	-0.09936844
227	0xbcd929c6	-0.026509177
228	0x3dafdba8	0.08586818
229	0x3db6ed37	0.08931964
230	0xbe26fb5d	-0.16306825
231	0xbe054d01	-0.13017656
232	0x3e1f6c54	0.15568668
233	0x3ea4c8d5	0.32184473
234	0x3d49216e	0.049104147
235	0x3cdc2a40	0.026875615
236	0xbd17f83a	-0.03710196
237	0xbdb0f10c	-0.08639726
238	0xbc94e333	-0.018174743
239	0xbd840991	-0.06447137
240	0x3e2c59d6	0.16831145
241	0x3e3727f0	0.17886329
242	0x3d6b8449	0.057499204
243	0xbe01a936	-0.12662205
244	0xbe07b399	-0.13252105
245	0xbb9ac5cc	-0.0047232863
246	0xbe372084	-0.17883497
247	0x3e8a89be	0.27058214
248	0x3ce6b7d1	0.028163822
249	0xbdf70b79	-0.12062735
250	0xbe2d2c06	-0.16911325
251	0xbc344ebc	-0.0110051
252	0x3e922b44	0.28548634
253	0x3d4a9942	0.049462564
254	0x3c3f7d63	0.011687609
255	0xbd350f82	-0.044204243

bias f4 [64]
0	0x3e8c3d6b	0.27390608
1	0xbe1a94c1	-0.15095808
2	0xbe71e595	-0.23622735
3	0xbcecc107	-0.028900636
4	0xbdb95a28	-0.09050399
5	0xbe39d7d0	-0.18148732
6	0xbe0c0cc2	-0.13676742
7	0xbddf7d93	-0.10912623
8	0xbe39d09f	-0.18145989
9	0xbe80c611	-0.25151113
10	0xbe99ac65	-0.3001434
11	0xbcbdf7f7	-0.023189528
12	0x3d8cbecf	0.06872331
13	0xbeefcce8	-0.4683602
14	0x3c13f0bb	0.009029563
15	0xbdce746b	-0.10080799
16	0x3e0975a3	0.13423781
17	0xbe334b47	-0.17509185
18	0xbc2eb47f	-0.010663151
19	0xbc9593c9	-0.018258946
20	0xbd50e4e6	-0.050999545
21	0xbdfcc38f	-0.12341987
22	0xbe009345	-0.12556179
23	0x3ba587af	0.005051575
24	0xbdbadd3a	-0.09124227
25	0x3c1ab613	0.009442824
26	0x3daa2764	0.083082944
27	0xbe135344	-0.14387232
28	0xbce6a610	-0.028155357
29	0xbd5413c4	-0.051776662
30	0x3d9dde28	0.077083886
31	0xbd0b61a7	-0.034028675
32	0xbed5246f	-0.4162936
33	0xbe5e190c	-0.21689242
34	0xbe4d7600	-0.20064545
35	0x3db58f60	0.08865237
36	0x3d8c835d	0.06860993
37	0x3d8f3d5d	0.06994126
38	0xbd2930ec	-0.04130642
39	0xbea1eaf8	-0.3162458
40	0xbd5faa91	-0.054606024
41	0xbea2ff4b	-0.31835398
42	0xbe42ac0e	-0.19010946
43	0xbd878d79	-0.06618781
44	0x3c8318f3	0.016003108
45	0x3bc3e876	0.0059786392
46	0x3b8289b2	0.0039836997
47	0xbddb6e88	-0.107144415
48	0xbd111352	-0.035418816
49	0x3d3cbff6	0.046081506
50	0x3d838393	0.0642158
51	0xbd2c532f	-0.042071518
52	0xbd8fc691	-0.070202954
53	0xbdfa0692	-0.122082844
54	0xbd4a7747	-0.049430158
55	0xbe1f1176	-0.15534005
56	0xbdf2ab39	-0.118490644
57	0xbd145a7d	-0.03621911
58	0xbe20ee85	-0.15715988
59	0x3d0cab09	0.0343428
60	0x3dcd0622	0.10010935
61	0xbe008aa3	-0.12552886
62	0x3d0bff51	0.034179036
63	0x3e370caf	0.17875932

weight f4 [9, 64]
0	0xbeda4e3b	-0.4263781
1	0xbf35fec3	-0.7109186
2	0x3f80d7ab	1.0065817
3	0x3f00fb31	0.5038329
4	0xbf315201	-0.69265753
5	0x3ebb9378	0.36635947
6	0x3e45256e	0.1925256
7	0xbf2fa3c6	-0.68609273
8	0x3f83ebb9	1.0306312
9	0xbf29bca1	-0.6630345
10	0xbdaea7af	-0.08528077
11	0xbed41658	-0.41423297
12	0xbf612b63	-0.8795683
13	0x3ef4e5dd	0.47831622
14	0x3f193f76	0.5986246
15	0x3eaa1528	0.33219266
16	0x3f2e1158	0.67995214
17	0xbf0f0c47	-0.5587811
18	0xbeee4355	-0.46535745
19	0x3f33467e	0.7002944
20	0x3d8bcec4	0.06826547
21	0x3e74f76a	0.23922506
22	0x3db6acd8	0.08919686
23	0xbf33c1b9	-0.7021747
24	0xbcc120e1	-0.023575248
25	0xbe3e4d7b	-0.18584244
26	0xbec6be41	-0.38817027
27	0xbf536ee9	-0.8259111
28	0x3ee12f83	0.4398156
29	0x3f04b912	0.51844895
30	0x3d77ffb3	0.06054659
31	0xbe3d19e9	-0.18466915
32	0x3f7f7e2d	0.99801904
33	0xbd5354ee	-0.051594667
34	0xbf0d9fd4	-0.55322003
35	0xbf24aef2	-0.64329445
36	0x3ebdb355	0.37050882
37	0x3efb90f3	0.49134025
38	0xbb154a57	-0.0022779906
39	0x3ec58953	0.38581333
40	0x3f2736df	0.653181
41	0x3f014fc7	0.50512356
42	0x3f863d0f	1.0487384
43	0x3ec80a71	0.39070466
44	0x3f198e71	0.59982973
45	0xbeb53173	-0.3538929
46	0xbf86b8ad	-1.0525109
47	0xbee205e2	-0.44145113
48	0xbeb65775	-0.356136
49	0x3e8ee75e	0.27910894
50	0xbdb0a35e	-0.0862491
51	0x3dc27700	0.09495354
52	0x3ea56307	0.32302114
53	0xbfc0c97b	-1.5061487
54	0x3e39dcf5	0.18150695
55	0x3eaa365c	0.33244598
56	0x3f7ac4f1	0.9795676
57	0xbf015c94	-0.5053189
58	0xbe98acff	-0.29819486
59	0xbe71ebe5	-0.23625143
60	0x3ee410be	0.44544023
61	0xbd05cdc6	-0.032666944
62	0xbeb867c7	-0.36016676
63	0x3f460825	0.7735618
64	0x3ee5536a	0.44790202
65	0x3e8bbc5f	0.27292153
66	0x3ef2074e	0.47271198
67	0x3d59113a	0.052994944
68	0xbe002b96	-0.12516627
69	0x3e68f0db	0.22748129
70	0xbf00a082	-0.50244915
71	0x3e2deb6b	0.16984336
72	0x3f2fe6d2	0.6871158
73	0xbe6f346a	-0.23359838
74	0x3e0207f2	0.12698343
75	0xbf695f64	-0.9116118
76	0x3e3fb46d	0.1872117
77	0xbf127b8b	-0.5721976
78	0xbdc92f8b	-0.09823521
79	0xbe08a77c	-0.1334514
80	0x3e193d51	0.14964797
81	0xbcf6c676	-0.03012393
82	0xbed293be	-0.41128343
83	0x3ebe57b7	0.37176296
84	0x3dea069a	0.114270404
85	0xbfa863e7	-1.3155488
86	0x3992d4d6	0.00028005865
87	0xbe2252d5	-0.1585191
88	0x3f1db79f	0.6160831
89	0xbf39213a	-0.72316325
90	0x3ecc67c8	0.3992293
91	0x3e5b5b0b	0.21421449
92	0x3f258af3	0.64665145
93	0xbf0c00b8	-0.54688597
94	0xbf1c24fb	-0.6099393
95	0xbe257ce0	-0.16160917
96	0x3e687309	0.22700132
97	0xbe1a6f1f	-0.15081452
98	0x3e8dce52	0.27696472
99	0x3dbfce0c	0.09365472
100	0xbf021028	-0.508059
101	0xbecdef35	-0.40221563
102	0xbe31d7fd	-0.17367549
103	0x3f8bc8b0	1.092062
104	0xbf0ebbba	-0.557552
105	0x3f10671d	0.5640734
106	0xbe93bf01	-0.28856662
107	0xbdd57c1c	-0.104240626
108	0x3ee48631	0.4463363
109	0xbe8f2da7	-0.27964517
110	0x3f10bc0b	0.5653693
111	0xbe833226	-0.25624198
112	0x3df1743d	0.11789749
113	0xbd415da4	-0.047208443
114	0x3f3eff9e	0.7460879
115	0xbe421769	-0.18954243
116	0xbdf3349d	-0.118752696
117	0x3f0d79d7	0.5526404
118	0x3e2b1901	0.16708757
119	0xbf6b3e97	-0.9189238
120	0x3e7df086	0.24798784
121	0xbf52dd5f	-0.82369035
122	0xbf84d8a7	-1.0378617
123	0xbebdbde5	-0.3705894
124	0xbd1e28ec	-0.038613245
125	0x3ea021ed	0.31275883
126	0x3f5c1e2c	0.8598354
127	0x3d02c52d	0.031926323
128	0xbdf789b4	-0.12086812
129	0x3ebdac4b	0.37045512
130	0x3eedf229	0.46473816
131	0x3edcd7d8	0.43133426
132	0x3f112f5a	0.5671288
133	0xbf96d46c	-1.1783576
134	0xbeba2f98	-0.36364436
135	0x3e99f7cc	0.30071867
136	0xbea273d7	-0.31729004
137	0xbf733d75	-0.9501565
138	0x3f8da788	1.1066751
139	0xbe9d24bb	-0.30692086
140	0x3e2d6873	0.16934375
141	0xbf158ac5	-0.5841487
142	0x3eb7ba0b	0.35884127
143	0x3f7a0e94	0.97678494
144	0xbe6a4f21	-0.22881748
145	0x3ed9014e	0.42383808
146	0x3ed65cac	0.41867578
147	0x3dce9255	0.10086504
148	0xbf0ec96c	-0.55776095
149	0xbd836bc0	-0.06417036
150	0xbf5412ea	-0.8284136
151	0x3e6e2b3a	0.23258677
152	0x3e5a75cc	0.21333998
153	0xbdd6057c	-0.10450265
154	0xbed2d0be	-0.41174883
155	0x3d2d9622	0.042379506
156	0xbe7e8a68	-0.24857485
157	0x3e20c76b	0.15701072
158	0x3e889caf	0.2668204
159	0xbe1905c5	-0.14943607
160	0x3ec9a52b	0.39383826
161	0xbf9a1571	-1.2037793
162	0xbf5db979	-0.86611134
163	0xbe6dc009	-0.23217787
164	0xbf8a1454	-1.0787454
165	0x3f3d8850	0.7403612
166	0x3f1b3efa	0.6064297
167	0xbe50d3e5	-0.20393331
168	0xbf28d9c9	-0.65957314
169	0x3f41fd62	0.75777256
170	0xbe372c5b	-0.17888014
171	0xbf1e91dc	-0.61941314
172	0x3f4eec10	0.8082895
173	0x3ed40167	0.4140732
174	0xbc0fbeb3	-0.008773494
175	0xbf2f6d5a	-0.6852623
176	0x3d08f7eb	0.033439558
177	0xbd7b264c	-0.06131582
178	0xbd2188f1	-0.039437238
179	0x3f8951d6	1.0728099
180	0x3d7b91d4	0.06141837
181	0x3e403106	0.18768701
182	0x3e02a7dc	0.12759346
183	0x3e8eebce	0.2791428
184	0x3f1ea892	0.6197597
185	0x3f39a14b	0.7251174
186	0x3eb99a27	0.3625042
187	0xbecf462f	-0.40483233
188	0xbe60066d	-0.21877451
189	0xbf2bee20	-0.67160225
190	0x3dadb921	0.08482576
191	0xbdb07c32	-0.086174384
192	0x33db7a84	1.0220268e-07
193	0xb5366e3e	-6.7960707e-07
194	0xb47e1780	-2.3664143e-07
195	0x35d47641	1.5829647e-06
196	0xb595036f	-1.1102364e-06
197	0xb51b83db	-5.7933875e-07
198	0x358c3d58	1.0448666e-06
199	0xb4a48ea2	-3.065116e-07
200	0xb5a7253a	-1.2453304e-06
201	0xb4137ecd	-1.3736572e-07
202	0xb39956a8	-7.1403804e-08
203	0x33c1e67d	9.0291884e-08
204	0x344152a7	1.8004594e-07
205	0xb4b30110	-3.334212e-07
206	0x348799cc	2.5257611e-07
207	0x35220e7c	6.037078e-07
208	0xb580982b	-9.58103e-07
209	0xb44bd7a7	-1.8984302e-07
210	0x35c235e0	1.4469806e-06
211	0x34805006	2.3900083e-07
212	0xb521c0bd	-6.0257645e-07
213	0x348c3d9d	2.6121862e-07
214	0xb559d3ad	-8.114683e-07
215	0xb38f3527	-6.668625e-08
216	0xb53bf880	-7.0024544e-07
217	0x3550a93b	7.77323e-07
218	0x3375337a	5.7090325e-08
219	0xb6723cb8	-3.6096153e-06
220	0xb3ad8833	-8.080715e-08
221	0x3559b423	8.1100933e-07
222	0xb4328283	-1.6625022e-07
223	0x355a1e5a	8.1255496e-07
224	0xb58e1a1e	-1.0587426e-06
225	0xb3b2b9be	-8.322557e-08
226	0xb3cdb15f	-9.57832e-08
227	0x34917e67	2.7100324e-07
228	0x3593a138	1.0999274e-06
229	0x353b05c2	6.967131e-07
230	0xb4a56f4c	-3.0814624e-07
231	0xb4e1973a	-4.2019548e-07
232	0x350b2f69	5.1850526e-07
233	0x34d80b05	4.0241153e-07
234	0xb5546fb7	-7.913872e-07
235	0xb5048323	-4.936466e-07
236	0xb57aa1ed	-9.336789e-07
237	0x33ac9b1e	8.03759e-08
238	0xb574250b	-9.095099e-07
239	0xb5a82b2e	-1.2529542e-06
240	0x34902d54	2.685507e-07
241	0xb3b609c2	-8.4768104e-08
242	0x349f9797	2.9726354e-07
243	0xb4830d87	-2.4410494e-07
244	0x352a1d60	6.337268e-07
245	0x33e2ff35	1.0570367e-07
246	0xb5de23b1	-1.6550676e-06
247	0x351e0b10	5.8875685e-07
248	0xb555d3b3	-7.9656746e-07
249	0xb480a3ae	-2.396095e-07
250	0xb424bcee	-1.5342422e-07
251	0xb27485dc	-1.4233105e-08
252	0x34d6a2dc	3.9979102e-07
253	0xb5a1f409	-1.2066458e-06
254	0xb52c33db	-6.415045e-07
255	0x34c7a260	3.7184782e-07

bias f4 [9]
0	0xbe130dc7	-0.14360724
1	0x3dd2871c	0.10279676
2	0xbe326c00	-0.17424011
3	0xb4278f06	-1.5605119e-07
4	0x3526e38e	6.2170955e-07
5	0xb27efad5	-1.48417785e-08
6	0xb52fc123	-6.547363e-07
7	0xb58af215	-1.0352256e-06
8	0xb6ae803e	-5.2005335e-06
