onboard_codes/test_realsense_new_imu_jit/saved_models/estimator.pth (torch, 65943 bytes, 6 tensors)

weight f4 [128, 53]
000000 96 43 63 3c e9 4e d0 3f 1e a4 00 3e 2b 60 79 3e
       0.013871094 1.6274081 0.12562606 0.24353091
000010 09 8e 71 3f 9b a8 aa 3d 64 ca ef bc a4 0c 7c 3b
       0.94357353 0.0833294 -0.029271312 0.0038459683
000020 3e 9b 94 bb 09 ea 07 be 98 da 12 3e b8 8e af 3e
       -0.004535108 -0.13272871 0.143412 0.34288573
000030 d4 9f c0 3e 9b e4 8a bd 82 79 e5 3a 02 5e 36 bd
       0.3762194 -0.06781884 0.0017507526 -0.044523247
000040 87 e2 d9 3e af ef 0a bd f0 71 95 3c a5 26 af 3d
       0.4255564 -0.033919986 0.018242806 0.08552293
000050 8e 11 00 3e ea 1c dc bd 57 cb e0 3e ea 72 4d 3e
       0.12506697 -0.107477024 0.43905136 0.20063367
000060 43 d2 c2 bd 1d f9 f8 3d 93 c6 35 3e 86 fa b8 3d
       -0.095127605 0.121568896 0.17751531 0.090321586
000070 90 4b 51 be cb 7d 41 3e de 9f 34 3c ea 32 6e be
       -0.20438981 0.18895642 0.011024443 -0.2326161
000080 03 91 ad 3d 10 20 52 3d a6 40 5c 3e 3d 42 b1 3e
       0.084749244 0.05130011 0.21509036 0.34620848
000090 75 7d b3 bd 60 8a f1 b9 3d 40 2d 3b 6d bb db 3c
       -0.087641634 -0.000460702 0.0026435994 0.02682277
0000a0 50 8c ab bd fd 07 7a 3d e4 77 b6 3b b2 14 87 3c
       -0.08376372 0.061042774 0.0055684913 0.01648936
0000b0 ba 94 23 3d 79 e2 4d 3d 78 ad 8c bc 20 01 fc 3b
       0.03993676 0.05026481 -0.01717256 0.007690564
0000c0 19 e0 82 3d 54 3e 01 3e 83 32 54 3d d0 8b a9 3e
       0.063903995 0.12621433 0.051805984 0.3311448
0000d0 e4 6a d7 3e 97 dd 03 40 69 3b a8 3f 2b 19 7b 3e
       0.4207374 2.0603998 1.314313 0.2452132
0000e0 c7 23 53 bf 32 6c 69 be 23 de 97 3d 7b b0 49 3e
       -0.82476467 -0.2279518 0.07415416 0.19696228
0000f0 9e 3c 35 be 54 ff 7a bd de 7b c6 3a 82 62 e6 be
       -0.17698905 -0.061278656 0.0015143116 -0.4499703
000100 9b bc ca be 9a 40 ce be ba 74 89 3d 15 50 97 3e
       -0.3959702 -0.40283662 0.06711717 0.29553285
000110 4a c3 3b 3f 73 d2 7a bd a0 6d 54 bd c1 4f b2 bb
       0.7334486 -0.061235856 -0.05186236 -0.0054416363
000120 5f 80 27 bd f7 c0 d8 bd 87 2a 98 bd 4b 45 7c 3e
       -0.04089391 -0.1058368 -0.074299864 0.24635808
000130 f2 40 39 be cf 3e dc 3d 52 e4 19 41 3a f5 9c 40
       -0.18091181 0.10754167 9.618242 4.904935
000140 bb 93 2b 40 0e ce 99 bd 15 9c d1 bd cd f1 54 bd
       2.6808918 -0.07510005 -0.102348484 -0.05198841
000150 2a 41 12 be 4a be e9 3d 8f 1d bd bc 37 b5 b9 be
       -0.1428267 0.11413248 -0.023085384 -0.36271068
000160 6d fe a5 3d b8 b8 16 bd c7 33 25 bd eb 4c 0b 3d
       0.081051685 -0.036797255 -0.04033258 0.0340089
000170 46 c0 27 3c 01 6b bf 3c bc e1 b9 bb d1 d5 a6 bb
       0.010238713 0.023366453 -0.0056726616 -0.005091407
000180 30 d5 fe 3b 8a d5 5b 3c c7 c2 b5 bc cd 8d 8c bc
       0.007776879 0.013417611 -0.022187604 -0.01715746
000190 05 2a 19 3d b1 d3 a2 3a 8b a1 ae 3e fa 21 60 bd
       0.03739359 0.0012422708 0.34107623 -0.054719903
0001a0 ed ca fa 3d 03 60 6b 3d b8 cf d4 be 88 4b 83 3f
       0.12245736 0.05746461 -0.41564727 1.0257425
0001b0 0d 79 92 bf 63 d1 85 bf aa ad 06 bf b3 08 d2 bd
       -1.1443192 -1.0454525 -0.5260874 -0.102555655
0001c0 81 5b 01 bc 97 a4 a5 3c c0 96 6c 3d eb ba a2 3c
       -0.007895351 0.020220084 0.057760954 0.01986452
0001d0 07 90 03 be 14 e8 5c be ad 42 1b be 3a 40 5e 3e
       -0.12847911 -0.21572906 -0.15162154 0.21704188
0001e0 3c e9 c9 3a 54 77 32 bc 72 b4 66 3e cf ac e8 bd
       0.0015404592 -0.010892708 0.22529772 -0.113610856
0001f0 3b f1 08 be ed c5 2b 3e e3 e0 0c be 6f 02 4a 3c
       -0.13373272 0.16774721 -0.13757662 0.012329682
000200 2f 1a 13 3e 00 50 92 be 1a 4e 41 be a8 51 b6 bd
       0.14365457 -0.2857666 -0.1887745 -0.089022934
000210 5e 6a 36 bd 5c 70 c1 3c bd 52 01 be e1 fc 1d 3d
       -0.044535033 0.023613147 -0.12629218 0.038571242
000220 9a ec 15 3d e1 1e 10 be 9f 6c 95 bb 37 05 60 bc
       0.036602594 -0.1407428 -0.004560068 -0.013673118
000230 82 79 9b bd 6c 28 d0 3d 93 7b a4 3d 53 fd 14 3d
       -0.07591535 0.1016396 0.080313824 0.0363744
000240 73 33 e2 bb dd 79 3f 3c f8 a6 71 3d 65 7b a6 3a
       -0.006903106 0.011686769 0.058997124 0.0012701569
000250 0a 49 40 bc 34 26 74 3d b0 e4 48 3b dd 41 b2 3c
       -0.011736164 0.059606746 0.0030653886 0.021759922
000260 95 5d 36 3d 11 21 18 3c 90 14 0a bd 9e e6 35 3d
       0.04452284 0.009285227 -0.033711016 0.044409387
000270 56 61 e8 3c e7 9f 87 bd b2 c4 4e 3d 14 0c c5 be
       0.028366726 -0.06622296 0.050480552 -0.38485777
000280 3a 02 61 be 03 30 3c 3e 93 d6 83 3d 0b 3d c2 be
       -0.21973506 0.1837769 0.06437411 -0.37937197
000290 d8 a6 99 bb 42 16 9b 3c 62 65 54 3d bd d9 ad bd
       -0.004689079 0.018931512 0.0518545 -0.08488796
0002a0 3b 94 a5 bd bc 02 a6 bd 26 b8 d0 be bf 3d cd be
       -0.08084913 -0.0810599 -0.40765494 -0.4008617
0002b0 f0 cc 5d bd 41 07 76 bd 30 18 e6 3d 6d 77 74 3d
       -0.05415052 -0.06006551 0.11235082 0.059684206
0002c0 2a 38 35 3d a4 27 35 3e 94 df 11 3d 51 63 92 3d
       0.044243015 0.17690903 0.03561361 0.07147849
0002d0 67 17 fa 3c 2e ac 3d 3e 83 6c 79 bf 1c 8c f2 be
       0.030528737 0.18522713 -0.974312 -0.4737252
0002e0 85 c1 34 be b1 43 f6 3d 9b aa 09 be da f2 1a 3e
       -0.17651947 0.1202463 -0.13443987 0.15131703
0002f0 90 fc 40 bd 13 05 36 bd fc 64 00 bd 04 ab 7f 3c
       -0.047115862 -0.044438433 -0.031346306 0.015604738
000300 28 e0 c0 3c 34 d6 2a c0 48 f4 34 40 41 60 82 40
       0.023544386 -2.669324 2.8274097 4.0742497
000310 fc 24 bc bc 8e 41 43 3a 41 e7 5e bc a1 dc 7d 3c
       -0.022966854 0.0007448428 -0.01360494 0.015494497
000320 4d 6a 08 bc 85 c9 9b ba 6e fc a2 bb 2d 1c d5 bb
       -0.008326125 -0.0011885619 -0.0049739396 -0.006503603
000330 24 dd d5 3b da 31 f4 3a 49 4d b6 bc 47 23 54 3c
       0.006526606 0.001863058 -0.02225365 0.012947864
000340 7d ca 60 bd 88 6b 67 bc f0 ce 87 bc 70 ab bb 3d
       -0.054880608 -0.014124759 -0.016578168 0.091635585
000350 73 e4 d6 bf 7f 89 a7 3e a5 e7 9d 3f 59 35 aa 3f
       -1.6788467 0.3272209 1.2336317 1.329753
000360 8b 5a d1 be 47 7a b8 bd 61 3f 69 be 5f d2 a6 3e
       -0.4088939 -0.090076976 -0.22778083 0.32582375
000370 f8 76 7e bb 74 da d1 bd 7b 69 74 be a9 56 18 bf
       -0.0038828235 -0.10246745 -0.23868363 -0.5950723
000380 b8 41 07 bf 8b 8b ae 3e d3 a6 36 be ad 09 ab 3d
       -0.52834654 0.34090838 -0.17837076 0.08351455
000390 47 b2 b3 3e bf b2 99 3d 7f 0d 96 3d c7 75 3a 3f
       0.35096952 0.07504796 0.07326793 0.72835964
0003a0 6e bd 79 bf 67 98 d2 be 17 57 2a 3e d2 87 ce b8
       -0.9755467 -0.411319 0.16634785 -9.848144e-05
0003b0 c2 ce 89 3d 4b 70 91 bd b8 27 78 3d d5 58 1d be
       0.06728889 -0.07101496 0.060584754 -0.15365918
0003c0 45 5a f6 3e db 5d e5 bd d3 29 bc 3d fb dc 26 c1
       0.48115745 -0.11199542 0.09187665 -10.42895
0003d0 e1 e6 72 40 4c a0 60 40 e2 63 41 3e 7e 6e d0 bd
       3.7953417 3.5097837 0.18885759 -0.10177325
0003e0 95 49 7f bc a0 eb 49 bd a4 90 3c bc 37 d6 af bb
       -0.015581508 -0.049296975 -0.011509094 -0.0053661126
0003f0 64 21 d6 3c 41 87 1a 3c 6d 26 1f bd 37 55 ca 3c
       0.026138969 0.009431661 -0.038855005 0.024698837

bias f4 [128]
000000 7d 41 7e 3e 76 a9 f9 be dc b1 93 be 3e e6 44 be
       0.2482967 -0.487621 -0.28846633 -0.19228455
000010 b6 51 0a bf 20 74 6f 3c 4a b3 ef 3e 3b f1 9a be
       -0.5403093 0.014615089 0.46816474 -0.3026217
000020 03 a0 25 bd c6 2c 59 3e d1 d8 03 be 20 17 af bd
       -0.040435802 0.21208486 -0.12875678 -0.085493326
000030 92 e0 53 3e 65 9c 3d 3e 03 b3 78 be e3 79 59 be
       0.20691136 0.18516691 -0.24287038 -0.21237902
000040 51 03 88 3d fc 13 fb 3d 6e 33 09 bd fc 20 d3 bd
       0.066412576 0.12259671 -0.033496313 -0.10309026
000050 85 19 a5 3e 04 a9 ae 3e 32 08 04 bf 84 9a dc bb
       0.32246032 0.34113324 -0.51575005 -0.006732287
000060 47 1a 47 3e 4b ad 41 3e 0b 02 4e be ea 1d 03 3e
       0.19443618 0.18913762 -0.20117967 0.1280438
000070 60 e0 c1 be c7 1b 8a be c6 8d 20 be c8 bd af 3e
       -0.37866497 -0.26974317 -0.15679082 0.3432448
000080 45 ac 78 3d 79 58 eb 3d b7 96 83 3e 3d 02 2e be
       0.060711164 0.11491484 0.25700924 -0.16993041
000090 08 e7 4e 3e cb ea 75 be 1f 46 b9 be 3b de 0f 3e
       0.20205319 -0.24015348 -0.3618631 0.14049618
0000a0 a0 ae 35 bd 3f a1 51 3e bd 0d 00 bd 61 48 84 bb
       -0.04435599 0.20471667 -0.0312631 -0.0040369486
0000b0 a8 8c a3 be 93 f0 b5 be 7b 20 74 be e4 de 1c be
       -0.3194325 -0.35535106 -0.23840515 -0.15319401
0000c0 4d 75 ea bd e1 18 ff be 93 f2 97 be 91 28 48 be
       -0.114481546 -0.4982367 -0.29677257 -0.19546725
0000d0 76 41 da be f5 fa 01 3c 66 3a e0 3e 7f fc b0 be
       -0.42628068 0.007933368 0.43794554 -0.3456764
0000e0 78 c3 1b 3e 3b a2 2d bd 4c 2a a4 be 97 24 86 3f
       0.15211284 -0.042391043 -0.3206352 1.0479916
0000f0 5c 1e f9 be b8 f8 ce 3e 57 f5 05 bf 4a 0b dc 3e
       -0.48655975 0.40424132 -0.52327484 0.42977363
000100 ba bb 9e be fd dc 91 3e 19 91 aa 3e 92 7a 98 3e
       -0.310026 0.28488913 0.33313826 0.29781014
000110 26 00 2a be ea 62 60 be ee 4a 8b be 8a 05 5a bf
       -0.16601619 -0.21912733 -0.27205604 -0.851647
000120 da de 86 bd b1 ec 5e 3e 6d eb 03 3e 45 2f 46 3e
       -0.06585474 0.21769978 0.12882777 0.1935397
000130 05 df 3e 3e 98 25 ea bd 03 a5 08 bf f1 8e db be
       0.18639763 -0.11432952 -0.5337679 -0.42882493
000140 25 63 2d 3e 48 70 34 3e ec 16 ac be 0a 8f 85 be
       0.16932352 0.17620957 -0.33611238 -0.26085693
000150 e7 7a 14 be 38 96 c9 be 41 9c e4 3e ad d8 87 3e
       -0.14500009 -0.3937242 0.44650462 0.26532498
000160 78 20 77 3e c1 40 d5 bd 80 a5 3e be 4b 4c bb be
       0.2413348 -0.104127415 -0.1861782 -0.36581644
000170 bb a6 bb bd 5c 38 23 be 43 83 8a 3c ca 16 35 3e
       -0.09162661 -0.15939468 0.016908294 0.17684475
000180 ac 3e 7c be 1b 44 11 be 0e d0 84 be b1 43 e1 3d
       -0.24633282 -0.14186136 -0.25939983 0.10999239
000190 ba 75 9d 3d 5d b1 a4 3c 28 62 35 bf 31 77 d1 3e
       0.0768847 0.020104105 -0.708529 0.40911248
0001a0 eb 2d f0 bd e9 f3 8b be 02 4b 3e 3f ca a4 0b 3e
       -0.11727508 -0.27334526 0.743332 0.13637081
0001b0 d1 dd 9d be a8 fe 4c bd 0c c4 04 bf d8 fc 50 3e
       -0.30833295 -0.050047547 -0.51861644 0.20408952
0001c0 6e 56 9c 3d 6f 25 11 3e a8 0e 15 be 2b 69 68 3e
       0.07633673 0.14174436 -0.14556372 0.22696368
0001d0 f3 bc 06 bf 31 e1 9e be d3 39 b5 be ce f7 d1 bc
       -0.52632064 -0.31031182 -0.3539568 -0.025630858
0001e0 67 86 39 3f 1c 13 0b 3e f9 cc 81 be 77 bb 26 3e
       0.72470707 0.13581508 -0.25351694 0.1628245
0001f0 94 94 de 3e f6 d5 59 3e c7 85 20 be ab f5 4d 3e
       0.4347273 0.21273026 -0.15676032 0.20113246

weight f4 [64, 128]
000000 57 77 88 bd b2 e8 d1 bb 1c 74 0f bd f0 f0 d8 3c
       -0.06663387 -0.0064059133 -0.03502284 0.026482075
000010 b7 7c c6 bc fc 54 b0 bd ba 8c e8 bd bf ea a6 3d
       -0.02422939 -0.086099595 -0.113549665 0.08150243
000020 0b 39 1e 3b 6e e2 48 3c ad 44 71 be 27 8b b8 be
       0.0024142887 0.012261016 -0.23561354 -0.36043665
000030 af 30 43 be 42 25 c6 bc 73 e4 51 be eb d3 7b 3d
       -0.1906154 -0.024187688 -0.20497303 0.061481398
000040 02 e3 06 be 3a 3a 1f bc cf e5 f9 3d f7 06 94 3d
       -0.13172534 -0.009718472 0.12202036 0.07227891
000050 25 49 35 3d 24 aa dd bd e6 51 54 bc 70 c7 21 be
       0.04425921 -0.108234674 -0.012958979 -0.15798736
000060 01 1e 7f 3d 3b d6 b1 3d 4b b5 89 3d 15 24 70 bb
       0.062284473 0.08683439 0.06724032 -0.00366426
000070 61 e7 4a be 38 a8 2a be 76 5b a8 3e 5b c5 37 be
       -0.19814827 -0.16665733 0.3288228 -0.17946379
000080 32 f3 50 bf 7c b3 0b be e7 26 19 be 82 9b a9 be
       -0.81621087 -0.13642687 -0.14956246 -0.33126456
000090 14 a4 a5 3e f3 56 3c 3b f4 60 40 3e 8b 72 89 3d
       0.32351744 0.002873835 0.18786985 0.067113005
0000a0 ae dc b2 3d fb c5 10 3e 0f ca 77 bd 80 07 4d be
       0.087334976 0.14138024 -0.060495432 -0.20022392
0000b0 60 35 15 3c 26 7f b2 3c c6 64 b0 3e b9 9e fe bc
       0.009106964 0.021789145 0.34451884 -0.031081544
0000c0 30 c8 c1 bc e4 85 2c 3e 61 94 7f bd f2 ac 1d 3d
       -0.023655027 0.1684795 -0.062397365 0.03849501
0000d0 fc 98 63 be 41 cb 1a bd e3 0d 38 be c1 34 a9 be
       -0.22226328 -0.037791494 -0.17974047 -0.3304806
0000e0 74 de 3b bc 31 83 2d be 5d e0 c7 bd a8 1b 5a be
       -0.011466611 -0.16944577 -0.09759591 -0.21299613
0000f0 f4 82 6f 3e 3c 3d 98 bd 1a fe 44 bd e2 d3 ad bd
       0.23389798 -0.074335545 -0.048093893 -0.08487679
000100 3a df b0 3d b8 31 f5 3c 48 45 5c bd e0 a2 e0 bd
       0.08636327 0.029930934 -0.05377701 -0.10968566
000110 09 08 37 be 51 8f 2a 3e 3b 2a 2b be 8c c0 8e 3d
       -0.17874159 0.16656233 -0.16715328 0.06970319
000120 5b f6 05 3e 1a a2 30 be 1a cf 06 3d b4 f7 59 be
       0.13082258 -0.17249337 0.03291235 -0.21285897
000130 80 d9 f2 bc 5b 2c 86 3e ed a4 6c be aa 60 f5 be
       -0.029644728 0.26205716 -0.23109789 -0.4792531
000140 df d2 a5 3d a8 f2 37 be 6a 5f 38 3d 2e 00 c6 bd
       0.08096861 -0.1796366 0.04501287 -0.09668003
000150 d1 bb bb bd 67 88 5b 3d f4 ae ee bd 58 df 6b 3d
       -0.091666825 0.05359688 -0.116544634 0.057586044
000160 ec e8 6d bd 36 89 bb be c0 30 62 3c 8a 68 5c be
       -0.05808346 -0.3662812 0.013805568 -0.21524253
000170 d7 16 1c bd 2a db 4e bc bd f6 20 3e d1 c5 12 3e
       -0.03810772 -0.012625495 0.15719123 0.14333273
000180 c9 23 96 3e 6a b8 2f be 29 24 30 be 7f 6a a5 bd
       0.29324177 -0.17160192 -0.17201294 -0.08076953
000190 c6 c9 ed 3d ae 97 e2 3d db ea 15 3b f1 90 b0 3d
       0.11610751 0.11064087 0.002287558 0.086213954
0001a0 46 f6 6a 3d 89 e9 06 be 33 c4 cd bd 60 b8 03 bd
       0.05736377 -0.13175024 -0.10047188 -0.032158256
0001b0 60 da bb bd 09 58 f8 3c 21 dd 2e bd 76 30 e8 3d
       -0.09172511 0.030315416 -0.042691354 0.11337368
0001c0 60 64 07 3e 85 b7 4c be 66 71 32 3d ea 40 f2 bd
       0.13221884 -0.19991882 0.043565176 -0.118287876
0001d0 20 f7 7d bc 7e 89 4e 3c b5 3f 28 be 14 b6 95 bc
       -0.015500814 0.012606023 -0.16430552 -0.018275298
0001e0 1a c5 a5 3d 22 75 83 bd 9c e6 ac bd c4 70 93 3c
       0.08094235 -0.06418826 -0.08442423 0.017998107
0001f0 b7 9c ea bc 17 fd a9 bc 8b ce 2f 3e ca a9 40 3c
       -0.02863918 -0.020750565 0.17168634 0.011759231
000200 08 2b 25 be 8e b7 52 bf 35 72 b1 bc 00 e5 5f 3d
       -0.16129696 -0.8231133 -0.021660903 0.05466175
000210 89 ae c5 3c be 43 ae be 43 c2 06 be 92 b6 a9 bd
       0.024131076 -0.34036058 -0.13160042 -0.08286776
000220 8f 72 7b bd e0 38 9d be 10 b0 1e 3e dc 1c 51 bd
       -0.06138855 -0.30707455 0.1549685 -0.051052913
000230 b0 89 fd bd e2 4b 45 bd 37 7b c8 be ce a9 93 3e
       -0.123797774 -0.04816807 -0.39156505 0.28840488
000240 79 61 a3 be fe 67 8b bd 22 58 9b 3d 3c bf 0e 3d
       -0.31910303 -0.06806944 0.075851694 0.034850344
000250 06 b4 b4 3b 07 29 1a bf 6c 47 ce 3b f8 32 b2 bd
       0.0055146245 -0.6021885 0.0062951352 -0.08701128
000260 f9 30 2f bd 00 91 9e 3d eb 40 e6 be 51 d4 43 be
       -0.042771313 0.077425 -0.44971403 -0.19123961
000270 eb c4 5d be cf da 49 3e 93 de 04 be 2a d7 b5 3c
       -0.2165715 0.19712375 -0.1297553 0.022197325
000280 00 2c 85 be ff 4a 93 3c 5a d0 75 3e 27 f9 c4 bc
       -0.26010132 0.017980097 0.24005261 -0.024044586
000290 a3 ab 95 be d1 0d 77 3c 77 99 38 bd 1c 91 c7 3c
       -0.2923251 0.015078978 -0.04506823 0.024361186
0002a0 6c 99 04 3e f0 22 30 3d 43 9f d8 bd 9b 31 40 be
       0.12949151 0.04300207 -0.10577252 -0.18768923
0002b0 57 81 0e 3e d3 0c 5c be 90 2c 5d be 0e 88 90 bd
       0.13916527 -0.21489267 -0.2159903 -0.070572
0002c0 65 40 17 3e 84 16 e9 bd 0e ff 7c bc 05 9e 8d bc
       0.14770658 -0.11381248 -0.015441669 -0.017287264
0002d0 90 79 e8 3d d8 2e 03 be 04 ad 66 3b 1f 6d 9a bd
       0.11351311 -0.12810838 0.003519834 -0.075403444
0002e0 8f da ef bc 50 74 3f bd 57 fe fa 3c 37 20 f5 bd
       -0.029279022 -0.046741784 0.030638857 -0.11969035
0002f0 56 c2 36 be 57 b6 70 bd d6 c9 b8 bd 1d 73 cc bd
       -0.17847571 -0.058767643 -0.09022872 -0.099828936
000300 08 3f 2a bd c5 20 e5 bd 07 b9 25 bf 3e 6a 13 3c
       -0.041564018 -0.11187891 -0.64735454 0.008997498
000310 91 26 aa 3d 2f 12 8e 3d 80 5c 09 be 04 a5 12 be
       0.08308137 0.06937062 -0.13414192 -0.14320761
000320 3a 46 1f bc 9d ca 83 bd ea 7a a8 bf d7 b1 37 be
       -0.009721333 -0.0643513 -1.316251 -0.17938934
000330 72 17 10 bd 69 6c 13 be 4d 01 1e bd 22 a4 28 be
       -0.03517861 -0.14396824 -0.03857546 -0.16468862
000340 c7 da 3d bf b9 8c 07 be 26 02 4c 3e 2d d0 21 3e
       -0.7416195 -0.13237275 0.19922695 0.15802069
000350 dc 98 5c 3d fe 02 1c bf 2a 52 03 be f7 ff 58 bd
       0.053856716 -0.60942066 -0.12824312 -0.052978482
000360 02 bf 36 3d 9e 33 1f bd 52 22 86 3d 27 a7 8f 3c
       0.044615753 -0.038867585 0.06549515 0.01753576
000370 f9 cb 64 3d 3a 1a a8 3e 53 97 0d 3e e3 a6 9c bd
       0.055858586 0.3283251 0.13827257 -0.076490186
000380 88 af 28 be 7d 42 25 3e c8 06 87 3d eb a7 e9 bc
       -0.1647321 0.16138645 0.0659309 -0.028522452
000390 bc 93 a7 be fe f9 8e 3d 93 21 32 3d 15 86 83 bd
       -0.327299 0.06981276 0.04348905 -0.064220585
0003a0 a3 44 26 be ea 0c 5d 3e de 48 11 be 4d 05 b8 bd
       -0.1623712 0.21586958 -0.14187953 -0.08985386
0003b0 3f 4a e5 3c 34 28 e6 3d 56 3f 72 bd c5 8f e9 bd
       0.027989505 0.11238137 -0.059142433 -0.11404375
0003c0 15 33 d8 bd 73 eb 89 3c 26 11 fd 3d 8c 84 8a 3e
       -0.10556618 0.016835904 0.123567864 0.2705425
0003d0 17 da 2f bf 08 29 83 3d 4d df cd bd c5 f2 2d 3c
       -0.68692154 0.064043105 -0.10052357 0.010616963
0003e0 e2 f6 17 bd 0f a1 a6 bd 87 cd 1e 3e f5 b9 6f bc
       -0.03710068 -0.08136188 0.1550809 -0.014631738
0003f0 1c 6d 9a bd 55 17 d6 bd e3 2c ab bd 34 03 a4 3d
       -0.07540342 -0.10453669 -0.08358171 0.080084234

bias f4 [64]
000000 41 25 b5 3d 47 b6 fc 3d 2a d6 2c 3d 44 fb 24 3e
       0.08844996 0.12339454 0.04219643 0.16111475
000010 ca 74 fe be fc 43 74 be f1 c4 25 be 5b 16 6b be
       -0.49698478 -0.23854059 -0.16188408 -0.22957747
000020 6e 6a 68 bd e6 b6 13 3d 8d 26 3d bd 46 f0 c6 bc
       -0.056742124 0.036063097 -0.046179343 -0.024284493
000030 a1 28 9a 3d 09 37 a6 3c 8d 0b 61 bd 60 b0 27 be
       0.075272806 0.020289915 -0.054942656 -0.16375875
000040 09 59 68 bd e6 11 c9 be b6 1c d0 3d 2a 41 e2 bd
       -0.056725536 -0.39271468 0.10161726 -0.11047585
000050 90 9a 1b bc 1b 8a 9b be bf 72 bf bd 31 c0 e9 bd
       -0.0094973 -0.30378804 -0.09348058 -0.11413611
000060 74 8f a6 be ae d4 10 bd ec d6 b8 3d 4c 07 c5 be
       -0.3253132 -0.035359077 0.09025368 -0.3848213
000070 c2 ae 8d 3b 83 4b 4d 3d 39 1d 16 bd 27 d1 5b 3d
       0.0043238113 0.05012084 -0.036648963 0.05366626
000080 ad d4 d0 bd eb ad 55 be 94 1b 11 bd 1b e3 b9 3d
       -0.10196815 -0.20867126 -0.03542669 0.0907652
000090 cf c9 62 bd 27 db 8b 3d 95 d0 e9 ba 3c 68 4d bd
       -0.05536824 0.06828909 -0.0017838652 -0.050148234
0000a0 70 75 d7 3d 9e 11 f7 bd 70 38 1a be 89 c1 ff bc
       0.10520446 -0.12063907 -0.15060592 -0.031220214
0000b0 56 2b a8 bd 38 b8 b0 bd 0c 1f b8 bd 99 60 5d be
       -0.08211391 -0.08628887 -0.08990297 -0.2161888
0000c0 0c 1d 8d bd 47 f3 9c bc 7c b4 27 be 64 e6 1e 3d
       -0.06890306 -0.019158972 -0.16377443 0.038793936
0000d0 c1 d2 1a be ac 8d 33 3d 77 68 e5 bd e9 b1 16 be
       -0.15119459 0.04383628 -0.11201566 -0.14716305
0000e0 a7 b0 27 be 01 5d 0e be 89 1d 1c be 4d f1 14 be
       -0.16375981 -0.13902666 -0.15245642 -0.14545174
0000f0 ce 99 0c 3e 89 df 49 bc 2f 16 8f 3d 42 94 18 be
       0.13730547 -0.012321361 0.06986653 -0.14900306

weight f4 [9, 64]
000000 7d da 85 be 17 32 7f bf cd 9a eb 3e 0f 76 7b 3f
       -0.26143256 -0.99685806 0.4601654 0.9822702
000010 2f 89 a5 bf d7 f6 04 3f af 36 6b be e2 52 5f 3e
       -1.293249 0.5193915 -0.22970079 0.21808961
000020 89 1c ab be ca 0e 9c be a7 6a 43 bf 09 25 94 be
       -0.33420208 -0.30480033 -0.76334614 -0.28934506
000030 01 33 1b bf 59 f6 1d be 67 11 0e 3f 8f 0c 34 3d
       -0.606247 -0.15426005 0.55495304 0.04395729
000040 fd 23 4a 3f 02 66 5e bf 81 0d 13 bf 27 bf 3a 3f
       0.78961164 -0.868744 -0.5744248 0.72947925
000050 1f d3 35 bf 6e 3b 8b be aa 4e 40 3f 3e bc 19 bf
       -0.7102527 -0.2719378 0.7512003 -0.6005286
000060 a0 4d 45 bd e3 e7 93 be 72 f4 95 3d a6 3c e1 be
       -0.048169732 -0.28887853 0.07322015 -0.43991584
000070 4d 96 9d 3e 7d a5 0a 3f a1 52 1e 3f f7 2f ca be
       0.30778733 0.54158765 0.6184483 -0.3948972
000080 b9 c7 15 3f c4 d0 bc 3e c7 56 80 3e 89 48 44 bf
       0.5850788 0.36878026 0.25066206 -0.7667318
000090 b2 39 27 3f e3 a5 d0 3e a7 cc c5 be 73 8d 28 3f
       0.6532241 0.40751562 -0.386327 0.65840834
0000a0 ce 97 26 3f 85 1c 05 3f 59 9a 73 3f 80 86 e4 3e
       0.65075386 0.5199664 0.9515739 0.44633865
0000b0 cc 72 72 3f 94 74 09 bf 68 55 b2 be 30 d2 15 bf
       0.94706416 -0.5369351 -0.34830785 -0.58523846
0000c0 07 9f 4c bf 6c bb 5a 3f 8e 7e 81 3d 82 bf 9b be
       -0.79930156 0.85442233 0.063229665 -0.30419546
0000d0 69 ff ea 3e c3 a9 62 bf 4e ad 9e 3e 00 8a 08 be
       0.45897987 -0.88540286 0.30991596 -0.13333893
0000e0 7e 8a 10 3f 5d eb 86 3e 10 64 ca 3c dc fb 62 bf
       0.5646132 0.26351443 0.024705917 -0.88665557
0000f0 14 66 30 3f 7e c6 50 bd 28 72 b6 be 82 5f a7 3f
       0.6890576 -0.050970547 -0.3563397 1.3076022
000100 1a 19 fb 3c 99 bf 78 3e 8a 39 8d 3e 7c ec 6a bd
       0.030651618 0.24291839 0.2758296 -0.057354435
000110 ed 2f 16 3e 7c b5 ee be 8a 1b fb bd a6 ca fe 3e
       0.1466672 -0.46622837 -0.12261112 0.49763983
000120 25 f1 1e 3f 8a d3 44 3d 0b 91 4b 3f 44 c7 ac bd
       0.6208671 0.048053302 0.79518193 -0.084364444
000130 a2 47 6f bd 40 ea 49 be 0f 92 08 3e b6 ea b1 be
       -0.058417924 -0.19718266 0.13336967 -0.34749383
000140 aa 66 70 be 2f ce 51 bf 9e b0 be bd 05 5c 40 3f
       -0.23476663 -0.81955236 -0.09311031 0.7514041
000150 b5 b3 ec 3e 53 82 41 bf 48 da 84 bd 7a b4 96 be
       0.46230856 -0.75589484 -0.06486946 -0.29434568
000160 f7 ef 29 3f 5a 74 8d bf e8 32 9f 3e 3f e8 9d 3e
       0.6638178 -1.1051133 0.31093526 0.30841252
000170 d0 b0 47 3f 58 a2 78 3d a5 b6 77 bf c1 9c eb bd
       0.7800417 0.060701698 -0.9676307 -0.11504508
000180 95 a8 90 be 90 98 ba 3d f2 c0 32 be a3 14 96 3e
       -0.28253618 0.0911113 -0.17456415 0.2931262
000190 28 68 0f 3e d2 7b ab 3e 19 8b 42 3b b7 d4 b5 3e
       0.14004576 0.33492905 0.002968496 0.3551385
0001a0 d0 5d f0 be f2 be d2 be 16 90 11 3d ed e3 16 bf
       -0.46946573 -0.41161305 0.0355378 -0.5894154
0001b0 07 1b 56 3e 15 37 a4 bd 7f 35 08 3e a2 dc 44 be
       0.20908748 -0.080183186 0.13301657 -0.1922479
0001c0 6c cd 42 3d 04 e2 b6 bc 79 99 71 3f 1d 9c eb 3d
       0.047559187 -0.02232457 0.94374806 0.115043856
0001d0 dd 16 62 be 93 50 19 be e9 99 93 3e 29 ee 19 bf
       -0.22079034 -0.14972143 0.28828362 -0.6012903
0001e0 e8 51 88 3e 39 bc ab be 65 49 4e bf 28 bb a8 bd
       0.2662499 -0.3354204 -0.8058074 -0.08238822
0001f0 18 89 f0 bc fa 40 c2 3d b2 b5 01 3f ff c7 2f 3e
       -0.029362246 0.094850495 0.5066787 0.17166136
000200 96 46 33 bf 65 ab 9d be 40 0c da 3e 49 34 a6 3b
       -0.7002958 -0.30794826 0.4258747 0.005072151
000210 c3 2e 22 3e 41 ff 8b bf 5f 38 8a bf 5b 53 86 bf
       0.1583815 -1.0937272 -1.0798453 -1.0494188
000220 65 7b 62 3f 45 89 1b bd fd e8 62 3e f5 37 05 bf
       0.88469535 -0.037972707 0.2215919 -0.5203851
000230 6d 93 4e be 2b 2f 8b be bd 83 ba 3e 76 0c 6b 3f
       -0.20173426 -0.27184424 0.36428633 0.9181589
000240 b5 79 83 3e ea 10 87 3e 72 0c 37 3e 52 8e fa bd
       0.25678793 0.26380092 0.17875841 -0.12234177
000250 64 b2 43 bc 02 8f 5d be 26 59 3e bf 33 4d d2 3d
       -0.011944387 -0.21636584 -0.7435478 0.10268631
000260 5a 20 07 be 53 b1 70 be 51 8c ce be a5 f9 9f 3e
       -0.13195935 -0.23505144 -0.40341428 0.3124515
000270 cb fb 6f be e1 3d bb 3e 2f c9 4c 3e 6c d7 70 3d
       -0.23435895 0.36570647 0.1999862 0.058799192
000280 ae 97 02 3f 57 0c 93 bf 34 fd 0c bf df 22 60 be
       0.51012695 -1.1488141 -0.5507386 -0.21888302
000290 17 41 42 be cf 62 24 3f 1b 85 d8 3e 32 75 5c be
       -0.18970142 0.6421327 0.4228905 -0.21529081
0002a0 0e 7e 12 be 8a 5e 96 3f 02 52 4b 3e eb ac 92 be
       -0.14305899 1.1747601 0.19855502 -0.2864755
0002b0 0b 30 64 3f 80 32 6a 3e 5a 82 14 3f f3 11 49 bf
       0.8913581 0.22870827 0.580114 -0.78543013
0002c0 41 2f 8c bc 79 77 00 3e 63 4a a9 be 7c da 9d 3e
       -0.017112376 0.12545575 -0.33064565 0.30830753
0002d0 e9 c8 08 3e a4 43 80 3e 18 01 0c 3f e9 f0 58 3f
       0.13357891 0.25051606 0.5468917 0.847426
0002e0 f9 38 e2 3e bc 56 2e 3f 37 bb c0 3e f6 73 d4 3e
       0.44184092 0.68101096 0.37642834 0.4149472
0002f0 29 08 b9 be 15 c1 4a bf 40 a5 85 3e 20 05 41 3f
       -0.36139038 -0.7920087 0.26102638 0.75398445
000300 75 ae e1 b3 d5 95 90 35 83 d3 b8 b2 78 e7 01 b3
       -1.05091125e-07 1.0772443e-06 -2.1516604e-08 -3.0245673e-08
000310 1a 93 97 b4 90 e5 95 b4 ff 7f 3f b3 60 57 1f 34
       -2.8232972e-07 -2.7920441e-07 -4.4587065e-08 1.4839816e-07
000320 5c fe b9 b3 4c 39 91 b3 26 fd 83 b3 5e fa 78 33
       -8.6610015e-08 -6.762511e-08 -6.14621e-08 5.7969707e-08
000330 d0 5a 77 32 fd 9d 9c b3 dd 13 1e 34 b7 78 f2 33
       1.4397941e-08 -7.293054e-08 1.4722123e-07 1.1290961e-07
000340 96 66 55 b5 ef e0 b4 34 41 4d 0b 31 77 e9 95 32
       -7.9497966e-07 3.3691273e-07 2.0271076e-09 1.745205e-08
000350 45 38 1f b4 4a 08 bf 32 44 10 d5 34 99 a7 de 33
       -1.48285e-07 2.2239096e-08 3.9686176e-07 1.03681664e-07
000360 13 b4 ce b2 47 3e f8 b3 1f 6a 2b b3 7a 12 8c b3
       -2.4063445e-08 -1.1559728e-07 -3.9910557e-08 -6.522619e-08
000370 dd 6f 55 b4 96 a0 bf 33 5b 04 92 b3 ee fd 01 b3
       -1.9877866e-07 8.923341e-08 -6.799447e-08 -3.02661e-08
000380 15 a0 76 b3 a3 d3 84 33 30 2f 63 b1 e9 8b 17 b4
       -5.7421932e-08 6.1852255e-08 -3.305967e-09 -1.411387e-07
000390 a1 20 49 b2 29 fa c1 b4 f4 11 ce b2 a2 a3 05 b4
       -1.1707159e-08 -3.6131067e-07 -2.398972e-08 -1.244612e-07
0003a0 80 c2 08 34 31 9b 4f 35 d1 25 e7 b1 47 3a 7f 33
       1.2736746e-07 7.733934e-07 -6.727284e-09 5.9424817e-08
0003b0 4b d4 e1 b4 6b b0 0c b3 9a 95 86 b4 9b bd a4 33
       -4.206398e-07 -3.275674e-08 -2.5068294e-07 7.671334e-08
0003c0 c1 c2 b3 32 94 17 2f 34 75 b7 cc 33 a1 91 a5 33
       2.0926906e-08 1.6306723e-07 9.532861e-08 7.709901e-08
0003d0 04 df 0a b5 e4 56 3b 35 88 8f cc b3 3b c8 d7 33
       -5.1733537e-07 6.978937e-07 -9.5255984e-08 1.00481394e-07
0003e0 e0 a4 2e 34 a0 d3 1a 34 b1 4b a7 34 07 01 ae 34
       1.6264994e-07 1.4419356e-07 3.1161247e-07 3.2410773e-07
0003f0 ee 20 c1 33 31 e1 86 34 5d 60 d8 33 ec 3d e1 b4
       8.993253e-08 2.5123293e-07 1.0075812e-07 -4.195457e-07

bias f4 [9]
000000 32 0c 84 3b 3c 03 2b 3e a7 f2 f3 bc c5 60 a5 34
       0.004029774 0.16700453 -0.029778792 3.0804054e-07
000010 2f 82 94 b4 d9 00 ec b2 99 84 af 33 4f db 0e 33
       -2.766187e-07 -2.7474401e-08 8.173192e-08 3.326141e-08
000020 75 4e e6 33
       1.0724481e-07
