onboard_codes/test_realsense/saved_models/estimator.pth (torch, 66007 bytes, 6 tensors)

weight f4 [128, 53]
00000000: 9b79 59be 747f 2b3e c30f 8dbe 3624 b93e
00000010: 8829 193f 9ba8 aa3d b4f3 b0bb 7fdc d23d
00000020: 3e9b 94bb 09ea 07be cb8c ecbd c291 9d3e
00000030: a902 b53e 3f9d 2d3e 3f97 c93e 4f24 0ebe
00000040: 6e67 ac3d be10 e63d 8127 1a3e 8f76 103e
00000050: abd8 7a3e a965 3d3d e8ff 813e 3dab 503f
00000060: 89b0 d23f 984c 0e3c 45a3 ad3c 0afc 5b3e
00000070: d61c a5be 0214 f53d 4685 9bbd 8bb8 13be
00000080: 48bb 19bb 84c5 193c 9e5c 76be b09f 96bd
00000090: 0712 063e 3184 913d 1fe0 03bd 150b af3c
000000a0: d725 cd3d db8b ff3c 7281 ca3c b81a 913d
000000b0: 809a 8c3b 7df8 403d ab74 b13c 861c 583d
000000c0: 7e95 05be 97fe e73d 6b33 e73d 8205 503d
000000d0: 4e37 22bf 4be2 0e3d b3e8 e03f a6ca 22bf
000000e0: adb3 c03e f1cd 49bf 23de 973d 34b1 6a3e
000000f0: 7ae7 4abd 54ff 7abd de7b c63a 00f2 e9be
00000100: 308d 9dbf 001e c2bf c203 fc3d 6979 06bd
00000110: edbc 41be cd82 d23e d6ce 573e 02bc 113d
00000120: 0f03 9b3e 2bee 863e 812f c73f 5e8c 67be
00000130: d963 963e 8a09 2fbf 4468 28bf f227 f53e
00000140: 820d 333e 8295 fa3d c037 093f 0f05 f53e
00000150: a569 3ebd 5636 e0be d3a2 b4be b1f5 8a3e
00000160: c0fc 75be a76f 9d3e 372e 2d3e 34d2 393d
00000170: 0cfc cf3c a8c6 9a39 e2f0 af3c ba98 49bd
00000180: a79c 3dbd 8abe 92bd 5ed1 a1bc 273d 8dbc
00000190: 4c74 903d ad7c 4abd 2889 723e 4301 d33e
000001a0: 7793 823d 5c5e acbc a2a5 f83f 4771 b4be
000001b0: 6628 10bf 9fdd 86bf 3df5 993e b308 d2bd
000001c0: 0568 6d3e 6b3b 43be c096 6c3d ebba a23c
000001d0: b48b b83e 918e 1a3e bc1d aa3d 3cb8 03be
000001e0: 2479 dcba 21ca 78bc 09dd 0dbf f1ea bb3c
000001f0: 04b2 713e 897a 96bf 3f9c 433e 0af0 063f
00000200: cb5c 3cbe 7663 103e 799c 2abe 4d75 43bd
00000210: fffc 04bd eb4e f63d 01dc cdbe a86a 543e
00000220: 0d01 debc 3086 3041 bc64 66c0 1a35 0bc0
00000230: 079e 473c 719d 5f3e faf8 40bd 4e62 abbc
00000240: 3889 5d3c ffff fbbc 2adf 02bd 261f 00bd
00000250: a62c 52bb 6221 5f3c 58be 9abc 4c6b 94bd
00000260: aeb0 55bc ae76 12bc 909f f13c 88ca 67bd
00000270: 17e5 62be 8695 96be 86d6 11bd d339 7abe
00000280: ffe6 973e eec9 5b3f 2b69 a33e 47d4 a9bc
00000290: d8a6 99bb 4bb3 7b3d 5339 46bb bdd9 adbd
000002a0: 3b94 a5bd 2784 70bc 0e0e b8bd 52ad eebd
000002b0: 9fc5 1fbe 508e 173e 2f8a 1b3d f96f 82bf
000002c0: dacb 30bf dbbd 30bf 879b 913c 7d6d c03d
000002d0: 5693 b0bc 6a59 41be 526f 183e d66b 953d
000002e0: 9ecc 003d 4919 ec3d 0093 2cbd ff13 09bf
000002f0: 59ea 7cbf 2a29 b8bf fa12 27be 5dbb 4e3d
00000300: 5268 b43c 8a06 463e bc4b c93d d011 b5bc
00000310: f880 66bb 5c49 0abd ccbd 32bc 9404 e43b
00000320: 2be6 14bc 1e49 8ebc 396a 153d f7de 48bc
00000330: 27b0 abbb 8a8f 84bc ebbc 01bd af33 66bb
00000340: 5e54 fbbc e2f2 7ebf 8eb9 1ebd 6b7c 44bd
00000350: 4935 2cbe e006 773e 50f3 47bd 2591 21be
00000360: b433 e93b 477a b8bd f748 813a 4b7b b8bb
00000370: f876 7ebb 74da d1bd fde3 713d b904 0d3c
00000380: 4b54 093d 1b8b 1e3e 1b0b d0be 33a0 8c3e
00000390: 6e84 02bd c400 a63c 1727 a8bc 90f9 8fbb
000003a0: 37e4 58bd 4d30 6fbc 5e9e 4cbb 73c4 043d
000003b0: da09 b63c e616 80bf 9d05 c63f 98fb 83be
000003c0: a37c 293d 613f 743c 89a4 efba d4c1 db3b
000003d0: a7d8 203c 280e 783b 9fe0 ee3c 1842 f9bc
000003e0: b610 e53a 03f6 9abc aa66 943c 51ec 3fbd
000003f0: d56f b4bc aa58 5abc 962a 073b ec7a b53b
-0.21237795 0.16747838 -0.27551088 0.3616044 0.59828997 0.0833294 -0.0054001454 0.102959625
-0.004535108 -0.13272871 -0.11550292 0.30775267 0.35353592 0.16954516 0.39373204 -0.13881038
0.08418165 0.11233662 0.15054132 0.14107727 0.24496715 0.04623953 0.25390553 0.8151129
1.6460124 0.008685254 0.021196017 0.21482864 -0.32248563 0.11966707 -0.07593779 -0.14425866
-0.0023457576 0.00938547 -0.24058768 -0.07354677 0.13092814 0.07105292 -0.03219616 0.021367589
0.10016983 0.031194618 0.024719927 0.07085174 0.004290879 0.047111977 0.021662077 0.052761577
-0.13045308 0.11327856 0.11289104 0.050786503 -0.6336564 0.03488378 1.7571014 -0.63590467
0.37637082 -0.78829867 0.07415416 0.2291916 -0.04953716 -0.061278656 0.0015143116 -0.45692444
-1.2308712 -1.5165405 0.12305404 -0.03283063 -0.18919726 0.41115418 0.21074995 0.03557969
0.3027577 0.26353583 1.5561372 -0.2261214 0.29373053 -0.6837393 -0.65784097 0.47882038
0.17485622 0.122355476 0.5360069 0.47855422 -0.04648747 -0.43791455 -0.35280475 0.27140573
-0.24022198 0.30749246 0.16912161 0.04536648 0.02538874 0.0002952118 0.021477167 -0.049217917
-0.046291973 -0.07165249 -0.019753154 -0.017241074 0.07053432 -0.049435306 0.23685133 0.412119
0.06375783 -0.021041088 1.9425547 -0.35242674 -0.56311643 -1.0536383 0.30069914 -0.102555655
0.23184212 -0.19065635 0.057760954 0.01986452 0.36044085 0.15093447 0.08306453 -0.12863249
-0.0016820771 -0.01518491 -0.554154 0.022939177 0.23603064 -1.1756145 0.19102572 0.5271002
-0.18394773 0.14100441 -0.16661252 -0.04771929 -0.03246784 0.12026771 -0.40206912 0.20743811
-0.02710011 11.032761 -3.5998983 -2.175116 0.012183673 0.21837403 -0.047112443 -0.020920899
0.013521485 -0.030761717 -0.031951107 -0.031279705 -0.003207007 0.013618799 -0.018889591 -0.07247028
-0.013042612 -0.008939428 0.02949503 -0.056589633 -0.22157703 -0.29410952 -0.035604976 -0.2443612
0.29668424 0.85854995 0.31916174 -0.020731105 -0.004689079 0.061450284 -0.003024657 -0.08488796
-0.08084913 -0.014679945 -0.08987056 -0.11654152 -0.1560273 0.14800382 0.03797358 -1.0190421
-0.6906105 -0.69039696 0.017774357 0.09395883 -0.02155463 -0.18881765 0.14886215 0.07295959
0.03144514 0.1152826 -0.042132378 -0.53546137 -0.98795086 -1.4387562 -0.16315833 0.050471652
0.0220224 0.19338432 0.09828898 -0.02210322 -0.0035172086 -0.033761367 -0.010909509 0.0069585536
-0.009088079 -0.01736885 0.036478255 -0.01226019 -0.005239505 -0.016181726 -0.031674307 -0.003512602
-0.030679878 -0.9958936 -0.038751177 -0.047970217 -0.16817202 0.24123716 -0.048816025 -0.15778024
0.007116759 -0.090076976 0.0009863664 -0.005629932 -0.0038828235 -0.10246745 0.059055317 0.008607083
0.033527654 0.15482752 -0.40633473 0.27465972 -0.031864576 0.020264037 -0.020526452 -0.004393764
-0.052952018 -0.014598918 -0.0031222324 0.03241391 0.022221494 -1.0006988 1.5470463 -0.25777888
0.04137863 0.014907689 -0.0018283288 0.0067064557 0.009817279 0.0037850235 0.029159842 -0.030427024
0.0017476294 -0.018916136 0.01811536 -0.04685623 -0.022025982 -0.013326803 0.0020624748 0.005538335

bias f4 [128]
00000000: c3fc 5d3e 2e2a b7bf 392b a73d 665c 0c3e
00000010: 67d2 df3d bcd6 62be adae 3abe 1b93 84be
00000020: 614f 5a3f 63a7 c73c e5c8 7d3e b69e c6be
00000030: 2806 3abe 529c 70bd f16e 96bd 11c9 793e
00000040: 9e2d 4fbe 6fe7 8abd ce1c 01bf 3659 1bbf
00000050: 9a9a af3e e05c 8c3d cb9b 65bf fc69 0d3e
00000060: fb09 ff3e 2fdf b8be b837 2fbe e279 9e3e
00000070: ee35 8abe 7c03 50be a6c6 31bf 1772 0b3f
00000080: 071d 0abf 949f be3d fcdd 833e 5155 12be
00000090: 25b3 273e ee4d 6fbe 713e c03c 948f 98bf
000000a0: 4e42 423e bb14 f03d c6b2 7ebf 6b85 c7be
000000b0: 7d1e 89be 8513 cabe 5047 463d 3ad9 b43c
000000c0: 757a 86bf e5f2 25bc 49c5 36bf dd62 793e
000000d0: 8920 853e c9be dd3d de94 ee3e d4ca c7be
000000e0: b891 683d 1560 8fbe 1b46 eabe 5377 663f
000000f0: 9a0d b8be 3886 843e a4e9 aa3d 3e4b c8bd
00000100: f1d0 06be f4b1 893e 812a f13d e3f6 f83e
00000110: 7d64 4cbf ee00 f2be c51a 74be ec77 b9be
00000120: f22d acbe 22a4 ce3d 7b46 323e 7a45 d7be
00000130: 84c8 99bd 8b17 90bd 6f25 9dbe e14f 6abd
00000140: 2c8a a0bd 59ae 6e3e c3a9 eebe ef07 74be
00000150: 46d7 51be ded3 d0be d4f1 963e 808c 113f
00000160: d83d 183e 6223 dabe f81b 09bf bf41 0bbf
00000170: 16c5 f5bb 35ca 303e d9b2 a7bd ec2f a73d
00000180: 74d6 0dbd abfe 9fbe e100 82be baba 4ebf
00000190: b6ac 9a3e d2c9 dabd b1bd 04bf 7ec4 853e
000001a0: 3f13 c8bd caf6 23bf 1e3c af3f 9357 9cbd
000001b0: aa37 52be 310c c4bd afe7 01bf 7991 683e
000001c0: 6794 7c3f e17a b13c 983e 983d 0d2d 41be
000001d0: 1f78 2dbf 51ca 923d cc3a ffbe f8f4 61be
000001e0: 9254 b4be 5904 443e 7fef 7d3e a8f3 b5be
000001f0: 7f92 0e3f 97d2 8b3e ba70 9bbe dacb 59bd
0.21678452 -1.4309747 0.08162541 0.13707122 0.10928803 -0.22152227 -0.18230696 -0.25893483
0.8527737 0.024371808 0.24783666 -0.38792962 -0.18166411 -0.05874283 -0.07345379 0.24393107
-0.20232245 -0.06782424 -0.5043458 -0.60683 0.3429764 0.06853652 -0.89690846 0.13809961
0.49812302 -0.36107776 -0.17111099 0.30952364 -0.2699427 -0.20313829 -0.6944374 0.5447096
-0.5395054 0.09307781 0.25755298 -0.14290358 0.16376932 -0.23369572 0.023467274 -1.1918817
0.18970606 0.11722704 -0.99491537 -0.38968977 -0.26781073 -0.39468017 0.048407853 0.022076238
-1.0506121 -0.010128711 -0.71394783 0.2435412 0.26001385 0.10827405 0.46597952 -0.39021933
0.056779593 -0.28002992 -0.4575661 0.90025824 -0.35947877 0.2588365 0.08345345 -0.09779976
-0.13165642 0.2689358 0.11775685 0.4862586 -0.7984083 -0.47266334 -0.23838337 -0.36224306
-0.33628803 0.100898996 0.17409699 -0.42045194 -0.075089484 -0.070357405 -0.30692622 -0.057205085
-0.07838854 0.23308696 -0.46613893 -0.23831151 -0.20492277 -0.40786642 0.29481375 0.5685501
0.14867342 -0.4260512 -0.535583 -0.54397196 -0.007500301 0.17264636 -0.08188409 0.08163437
-0.034628347 -0.31248984 -0.25391296 -0.8075367 0.30209893 -0.106830254 -0.51851946 0.26126474
-0.09769296 -0.64048445 1.3690221 -0.07633891 -0.20529047 -0.09572638 -0.50744146 0.22711743
0.98663944 0.021665039 0.07433814 -0.18864842 -0.67761415 0.07167495 -0.49849546 -0.22066104
-0.35220772 0.19142283 0.24798392 -0.35537457 0.55692285 0.27309105 -0.3035944 -0.053172924

weight f4 [64, 128]
00000000: 2868 bbbd 60b7 34be fd34 ecbc fd05 b3bc
00000010: 1241 893e b495 e5bd 050c febd 628d fcbd
00000020: b60c 823c 3a03 a33d ddc7 20be fa7c be3d
00000030: 4d3c d13e 5c7f 4bbe 11d6 3cbd 7791 9ebe
00000040: 0263 e9bc 413e 1a3d 0e15 0bbe eb26 acbe
00000050: 7521 a33d 35af 1c3c 279c 763c 2632 85bd
00000060: 85dd 0ebe 7917 9d3c 82e2 6c3e 79a4 553e
00000070: 2265 4e3e 1abb 9e3d c461 c83d ac44 37bd
00000080: 1a99 b5bc ebd5 17be b30d 363e 49b3 5bbd
00000090: 1b43 823d a9b8 873d 0cef 9d3e 3b8f c0be
000000a0: 118b 6c3c bc0f 80bd 9fdf d23e 4a7a 583e
000000b0: 9248 88be 02f1 083b 2368 5bbd 002a 77be
000000c0: 7a70 ffbc bf73 803d 87f5 72be 6a41 07bd
000000d0: 7c9a 54bd f351 6bbd 6690 c2be 72c6 b3bd
000000e0: 1ec7 febb 673c b5be 7c0e 48be 7e2e 4ebe
000000f0: fcf4 d5bd b80a b0bd 1ca6 7cbd 6ca4 80bd
00000100: 3642 31bf 879a abbb edb1 b93c d47e 4dbe
00000110: 03ff 0b3b 2e76 6abe 4677 99bb 6a32 ce3d
00000120: d5bc 89bd 2933 a03d 29ff bebc 6bae eb3a
00000130: 1838 adbd 4382 abbe 02c0 86bb c905 a9be
00000140: ad5b e8bd af55 643d 1b3b 683d 0d78 a0be
00000150: 9c5e 913e a529 ecbc a848 4f3d ad1e 62be
00000160: f725 96bd 8137 803d ef12 5f3e 358e 95bd
00000170: 6791 e6be 0830 e4bd ea38 0a3d 69f3 8f3d
00000180: 4118 ac3e e65a ecbe 4126 75bd 06b2 8b3d
00000190: e510 f83d a28d 10bf 329d 6ebe 956d 873e
000001a0: f9e5 4e3e 7f97 903d d890 57bd 0416 403d
000001b0: 9a3a c8b8 1208 7bbd d36e a93d 39cb abbc
000001c0: 2d3d 893b c401 cabe aaed 1dbc b37d 16be
000001d0: 51cd 40bc a98f c83e 880e 243d 85ce 29bd
000001e0: 4946 193d 030e 54be 4b13 2e3b 7be4 c13a
000001f0: 4e77 83be 3ce7 59be 5fd8 4fbe 4338 433c
00000200: fb8e 14be 7952 f3bc 9484 abbb a215 27be
00000210: b2e6 c5bd 412a f1bb 0204 a63b 56d0 6d3b
00000220: d33e 253e 9560 72bd c5fa 51be 4e32 543d
00000230: 5220 243b c648 ce3d 7ec2 94bd 56ad 583e
00000240: db15 a93b d193 813d 8347 c13e 0114 bcbd
00000250: 0953 31be a7f7 43bd 81aa fd3b af22 d73d
00000260: cb16 9c3d 575a 6d3d 3891 89bd d4a0 b83e
00000270: 24be 9d3d bf23 f53d 436b 673e bf9c 5b3e
00000280: d173 163e 347a 31be 287c 5bbd db6d 423e
00000290: c1d6 91bc f4c8 533e d139 19be 6365 ca3d
000002a0: 1f2b 27bd 7dbf 0c3e 51ce b4bd 0235 86bd
000002b0: d5d3 4fbd 76fa 1cbd 298b bfbd 38b9 6a3e
000002c0: 94c9 273d 89d6 ab3c 5aa0 3fbe d82d e7bd
000002d0: 070a 3dbb f731 9d3d 24c1 133e 3b72 04be
000002e0: 34d8 093e c5ab b2bd 2102 a73a d19e e83d
000002f0: 0ee3 623d 8e80 093f e9a7 473d 696c 68bc
00000300: 78b7 033e 6d9e 103b db94 3abe 264b 8c3e
00000310: 0f30 053f a963 863d 9e50 403f 04fb aabe
00000320: 80c8 a83d 92a7 04bd c52f f23d f139 cebd
00000330: c53a 79be 0d06 3e3e c503 d73b 936f 94bd
00000340: 4133 f33d 4814 553e e9cd a4bd c360 c3bc
00000350: ac2e 7abe 6467 b5bc 4319 a8bd 695d 8ebc
00000360: ff0e bc3d c633 5a3e a8a1 6b39 df66 563b
00000370: dc48 4c3d 4dd5 00be 64cd 883f 59bd c63d
00000380: 5300 1f3d a754 e43d ae9d 99be 1caa bc3f
00000390: a7d9 db3e b1e0 a43d d5d2 84bc c87d d4bc
000003a0: 2d91 8f3b 1bda 243e e742 363e b554 1f3f
000003b0: a8c6 da3d 61b7 933d 7cbb d43c b552 f73d
000003c0: 8bdd 063e 59fb 993f 2a80 60bd ab15 a2be
000003d0: 3567 b2bd 448d c9bc 1729 14be 5579 a53d
000003e0: 2d83 73bc 8743 64be 81ba 1fbe a217 79bd
000003f0: f627 3c3e f2f1 01bd f0c1 6ebd 4587 69be
-0.091507256 -0.17648077 -0.02883386 -0.021853441 0.26807457 -0.11210194 -0.12404636 -0.12331654
0.015875202 0.079596 -0.15701242 0.09301181 0.40866318 -0.19872802 -0.046102587 -0.30970356
-0.028489593 0.037657026 -0.1358225 -0.33623442 0.07965366 0.009563257 0.015051878 -0.06503706
-0.1395169 0.019176232 0.23133281 0.20863523 0.20155767 0.077505305 0.09784272 -0.044743225
-0.022167731 -0.14827697 0.17778663 -0.053637777 0.063604556 0.06627018 0.3084644 -0.37609276
0.014437453 -0.06253001 0.41186234 0.211404 -0.26617867 0.0020895605 -0.05356611 -0.24137115
-0.031181563 0.06272077 -0.23726474 -0.033021368 -0.05190514 -0.0574512 -0.38000792 -0.08778085
-0.0077752015 -0.35397646 -0.19536775 -0.20134923 -0.10447118 -0.085957944 -0.06168185 -0.06281361
-0.69241655 -0.005236927 0.02266785 -0.20067912 0.0021361716 -0.22896644 -0.004683408 0.100682095
-0.0672547 0.07822258 -0.02331503 0.0017981058 -0.08457965 -0.3349782 -0.0041122446 -0.33012226
-0.11345611 0.055745777 0.056696992 -0.3134159 0.28392494 -0.028828451 0.0506064 -0.22082014
-0.0733146 0.062605865 0.21784566 -0.073025145 -0.45032808 -0.11141974 0.033745684 0.07028849
0.33612254 -0.461631 -0.059850935 0.06821065 0.121125974 -0.56466115 -0.23302153 0.26450792
0.20204915 0.070601456 -0.05262837 0.046895996 -9.5476586e-05 -0.061286993 0.08273091 -0.020970928
0.004188201 -0.39454472 -0.009639183 -0.14696388 -0.011767701 0.39172104 0.04005292 -0.041456718
0.037420545 -0.2070847 0.0026561792 0.0014792824 -0.2567696 -0.21279615 -0.20297383 0.011915269
-0.14507668 -0.029702412 -0.0052343104 -0.16316846 -0.09663142 -0.0073597734 0.0050663957 0.0036287508
0.16137247 -0.05917414 -0.20505817 0.051805787 0.0025043678 0.10072474 -0.07263659 0.21159872
0.005160076 0.06327022 0.37749872 -0.09183503 -0.17316832 -0.0478436 0.007741273 0.10504662
0.07621535 0.057947483 -0.067171514 0.36060202 0.07702282 0.11969709 0.22599511 0.21446513
0.14692618 -0.17331773 -0.0535852 0.18987219 -0.017802598 0.20682126 -0.14963461 0.09882619
-0.040812608 0.13744922 -0.08828414 -0.06553079 -0.05073913 -0.038324796 -0.093527146 0.22922218
0.040963724 0.020976322 -0.18713513 -0.11288041 -0.0028845088 0.07675546 0.14429146 -0.129342
0.13461381 -0.08724169 0.0012741723 0.11358417 0.055392317 0.53711784 0.048744116 -0.014186003
0.12862957 0.0022067085 -0.18220846 0.27401084 0.52026457 0.065619774 0.7512301 -0.33394635
0.08241367 -0.03238637 0.118255176 -0.10069645 -0.24338825 0.18556996 0.0065617287 -0.072478436
0.1187501 0.20808518 -0.08047087 -0.02384985 -0.24431866 -0.022144027 -0.08207943 -0.017378526
0.09182548 0.21308812 0.00022471568 0.0032715125 0.04987417 -0.12581368 1.068768 0.09704084
0.03881867 0.11148959 -0.30003113 1.4739413 0.42939493 0.08050669 -0.016213814 -0.025938883
0.00438132 0.16098826 0.17798959 0.6223863 0.10682422 0.07212711 0.025968306 0.12076322
0.1317045 1.202983 -0.054809727 -0.31657156 -0.087110914 -0.024603494 -0.144688 0.08079783
-0.014862818 -0.22291385 -0.1559849 -0.060813554 0.18374619 -0.031724878 -0.058290422 -0.22805507

bias f4 [64]
00000000: d815 7f3d 6054 e33b 0403 7e3d 9d34 383e
00000010: 8beb fbbe a0be 75be 71d8 22bd 68a4 a0bd
00000020: 6496 c7bc a8c4 f8bd 968f 183e d1e5 14bd
00000030: 9e7c 2e3e d995 d9be a6c9 9d3d 619d 1d3e
00000040: 1c7a 383e d290 3cbe b733 a7bd 3ab5 22be
00000050: 673c 523d 518d 53be 6514 043e b78f dabd
00000060: 81d9 abbe 11a6 c63b f048 e73c 71da d7be
00000070: 3735 14be 57c2 4a3e 4f0a 17be 6d77 0dbd
00000080: c294 0dbe 7cca 80be 6925 7a3b e48d 53be
00000090: 37f2 6f3d 4c54 a9be 6d19 ddbc b62b e4be
000000a0: 0e2a fa3d fd6f d5bb bd02 10bd 5a88 913e
000000b0: ff3f 6bb9 5206 77be df90 39bd 2f67 41be
000000c0: 094b 83be 8f77 cb3d ff65 13be 4ae5 ccbe
000000d0: dcb5 073e 58c5 5dbe ec15 23be 84b4 36bc
000000e0: 427e 4bbd a9e0 fa3c 6125 bf3d bf44 53be
000000f0: 7774 543e dd78 183e 6023 2c3d 8493 a63e
0.06227669 0.0069375485 0.062014595 0.1798882 -0.49203143 -0.23998499 -0.039757196 -0.07843858
-0.024363704 -0.12146884 0.14898524 -0.036351983 0.17039725 -0.42497137 0.07704477 0.15392067
0.18015331 -0.1841462 -0.08164161 -0.15889445 0.051327135 -0.20659377 0.12898405 -0.10671943
-0.3356438 0.006062277 0.028233021 -0.42158845 -0.14473425 0.19800697 -0.14750026 -0.03453772
-0.13826278 -0.25154483 0.003816927 -0.20659596 0.058580603 -0.33072126 -0.026989663 -0.445646
0.122150525 -0.006513594 -0.03515886 0.2842434 -0.00022435187 -0.24123505 -0.045304175 -0.18887018
-0.25643185 0.09934913 -0.14394377 -0.40018684 0.13252968 -0.21657312 -0.15926331 -0.011151437
-0.049680956 0.030624704 0.09333301 -0.20631693 0.20747553 0.14889856 0.042025924 0.3253442

weight f4 [9, 64]
00000000: 08b6 d03d b1c5 b6bf d43b 493f 10cb 1f3f
00000010: 0abb 0fbf 5df2 abbd 7fee 7dbd 11af 02bf
00000020: cf5e 893e 76aa 60bf 79f8 29be 80b3 89be
00000030: 0f89 07bf 5ac9 28be fa60 d53e 8a2d 863d
00000040: bd37 053f 0af0 f5be 6e8d 8cbf fc27 453f
00000050: 6f90 5c3e 362b 963d 98d8 403f 479b 96bf
00000060: a860 1fbd ad29 dcbe 8f83 9f3e 02ed 9bbf
00000070: 6d8c 9a3e 4aa9 4c3f 15b9 203f 2a18 adbe
00000080: e39f 713f 635d 92bc 66ce c23e 6a6e 77bf
00000090: b43b 083f 7a99 7d3f 51ac 983e f70a 4c3d
000000a0: 83e5 563f f593 0f3f a898 423f 407d e83e
000000b0: 2eb7 523f 0793 91be 3ae4 673b ec0d efbe
000000c0: 4af4 04bf 623e 823f 4fc2 6abe 1d8b 00be
000000d0: 4f40 dd3e 3ab1 dcbf 9861 363e bbb7 4e3f
000000e0: 0e19 873f b8a2 e0be 5f5e 34bf a956 00bf
000000f0: 6dd9 b53d cad1 e93e 5dbb 1cbf 4b97 053f
00000100: 56e0 8e3e c098 e73e ce10 a73e 79f0 983c
00000110: 3709 3a3d 536a 913d 6536 9fbe f057 273f
00000120: c738 e53c 5e12 72bb 7bf9 3d3f 3345 16bf
00000130: bfc5 0a3d 7571 29bf fc20 ef3d f81d a1bd
00000140: 2d37 573c 8c46 a13e 3aee adbe b76f 873f
00000150: 03ad 613f 5987 5fbd 5e23 02bf 7c84 90be
00000160: e866 533f 0297 32be 3ef4 703f 5a18 473e
00000170: a25d 923f 8dc7 37be 6dd7 7dbf 1158 12bf
00000180: f863 20bd 5a3a 4fbf 8155 c23d 4c4e 08bf
00000190: 37d2 933d 75ea 17be aa3d 06bf 3cc7 9e3d
000001a0: 78d0 02bf 0cad 883e 04ad e5bc 58cc a9be
000001b0: 6d0d 86be 0808 fdbe 7357 ba3e 6ecc 27be
000001c0: dc4c 873f 87b0 a6bd 3292 4b3f 12aa f9bd
000001d0: 04bf cbbe e11f 23bd 0ea3 2c3e a38f 56bf
000001e0: d666 0d3f 6af6 32bf eb7c c0bd 403a 74bf
000001f0: f558 67bf 161c e33e 7c21 713f e0a3 d13e
00000200: 5a3e 83bf 6477 7cbe 6867 1e3f 8256 273e
00000210: 168e bd3d e9f1 55bf 2999 59bf cd81 93be
00000220: efd4 8e3f 809d 19be 7ca5 b23e aaa1 26be
00000230: 9c32 04be 47a3 8dbf d261 9ebe 13c2 523f
00000240: 4ea2 183f 09c7 b03e 0c0a 2e3c 0906 b4bd
00000250: ab12 16be 0640 cabf b61d 04bf efa5 883d
00000260: 13ce e1bd bec8 e83d 1d1a 25bf 54be a2be
00000270: 14e3 b83d f0c5 103f 9fdf 813d 0c6a 21bf
00000280: 7c84 a13f 473a a2bf bda9 74bf 3cce dcbe
00000290: 9ff6 d2be 07a1 bf3d a0fc 4e3f 1b14 53bf
000002a0: 6e18 64bf 0c45 593f 8311 dc3d af45 65bf
000002b0: ca79 2a3f 078f f03e dca4 963f 16ab 09be
000002c0: c211 ae3d 9a12 2fbd 2710 abbd dda1 4c3f
000002d0: 019d e53e 0c53 eb3e d8a1 a73f 4d9d 4b3e
000002e0: 8b8d db3e 3677 313f 13d0 273f ec6a b53e
000002f0: 45d9 36bf 107c 97bd 7667 da3c 5969 25bf
00000300: d29e 2035 62d7 fcb3 cafb 45b1 37e3 3234
00000310: 7a8c 6f34 b575 f133 cecb 87b4 6d8a 7734
00000320: aeb7 a034 f6b3 e4b3 feb9 1433 383b 8834
00000330: 48af 2db3 bb89 5135 cf8d 93b4 59a1 aeb3
00000340: 0f9d 2a31 dbff 3a34 ab79 b531 3d01 6035
00000350: 99cf d932 e145 b8b5 0768 2db4 6619 2eb3
00000360: 2777 be33 1651 3f34 8462 13b4 090b 4d34
00000370: ccbd 39b4 af4a 2b34 150b 1034 9e96 1eb4
00000380: 7c64 a532 cf19 bd34 c0b1 f134 9084 feb4
00000390: 517a 19b4 ec2d e9b5 e0d7 8a33 fb08 a135
000003a0: d0a2 55b4 f004 60b2 75ab 8831 262f 42b4
000003b0: 35e7 30b5 dbb0 94b4 a745 deb4 68e8 8932
000003c0: a67b b0b4 fb46 48b3 d62e 8fb1 63d8 99b4
000003d0: a711 7fb3 8f85 ef34 e6bf da34 2f4f 88b3
000003e0: 4cef 1635 a671 0e34 f0a9 60b4 505d bc33
000003f0: 57a6 83b4 4561 abb3 df53 ee33 5e98 1cb4
0.1019097 -1.4279081 0.78606915 0.62419224 -0.56144774 -0.083958365 -0.061995026 -0.5104838
0.26830146 -0.877601 -0.16598691 -0.2689476 -0.5294351 -0.1648306 0.4167555 0.06551655
0.52038175 -0.48034698 -1.0980661 0.77014136 0.21539472 0.073324606 0.75330496 -1.1766137
-0.038910538 -0.43000546 0.3115506 -1.2181704 0.3018526 0.79945815 0.6278241 -0.33807498
0.9438459 -0.017866796 0.38048095 -0.96652853 0.532161 0.9906231 0.29818967 0.049815144
0.8394396 0.5608514 0.76014185 0.45408058 0.8231076 -0.28432485 0.0035383836 -0.4669031
-0.51935256 1.0175288 -0.22925685 -0.12553068 0.43213126 -1.7241585 0.17810667 0.807491
1.0554521 -0.43874145 -0.704565 -0.5013223 0.08879361 0.4566787 -0.61223394 0.5218398
0.2790553 0.45233727 0.32630008 0.018669354 0.045418944 0.07100358 -0.31096187 0.65368557
0.027981175 -0.0036937217 0.742088 -0.5869934 0.03387999 -0.66188747 0.11676213 -0.07867044
0.0131357135 0.31499135 -0.33970815 1.0580968 0.8815462 -0.054572437 -0.50835216 -0.28226078
0.825789 -0.17440417 0.94122684 0.19442883 1.1434824 -0.17947216 -0.9915684 -0.5716563
-0.039157838 -0.8094841 0.09488965 -0.5324447 0.0721783 -0.14835532 -0.5243784 0.07752845
-0.5109935 0.26694524 -0.028036602 -0.33163714 -0.26182118 -0.4942019 0.36394843 -0.16386577
1.0570331 -0.08139139 0.7951995 -0.121906415 -0.3979417 -0.039825324 0.16859075 -0.8381292
0.5523504 -0.6990725 -0.09398826 -0.9540138 -0.9037011 0.44357365 0.9419172 0.4094534
-1.0253403 -0.24654919 0.61876535 0.16341594 0.09255616 -0.8357225 -0.8499933 -0.28809968
1.1158732 -0.15001488 0.3489188 -0.16272607 -0.12909931 -1.1065453 -0.30934006 0.82327384
0.5962266 0.34526852 0.010622513 -0.087902136 -0.14655559 -1.5800788 -0.51607835 0.06672274
-0.11025634 0.113664135 -0.6449297 -0.31785834 0.09027687 0.5655203 0.063414805 -0.6305244
1.2618556 -1.2674035 -0.955715 -0.43126094 -0.41203782 0.093568854 0.80854225 -0.82452554
-0.89099777 0.8487098 0.107455276 -0.89559454 0.66592085 0.4698412 1.1769061 -0.1344417
0.08499481 -0.04274235 -0.0835269 0.79934484 0.44846347 0.45961797 1.3096266 0.19884224
0.42881426 0.69322526 0.6555187 0.35433137 -0.71425277 -0.0739671 0.026660662 -0.6461387
5.983576e-07 -1.1773842e-07 -2.8810399e-09 1.6660202e-07 2.2309715e-07 1.1243848e-07 -2.5293997e-07 2.3054027e-07
2.9935967e-07 -1.0649812e-07 3.4628094e-08 2.537506e-07 -4.043912e-08 7.805899e-07 -2.7484063e-07 -8.1318554e-08
2.4827533e-09 1.741568e-07 5.2816254e-09 8.3448305e-07 2.535653e-08 -1.3729406e-06 -1.6149725e-07 -4.053563e-08
8.869238e-08 1.781776e-07 -1.3726282e-07 1.9096127e-07 -1.7298515e-07 1.5952786e-07 1.3415077e-07 -1.4769691e-07
1.9254223e-08 3.5222772e-07 4.5019078e-07 -4.740764e-07 -1.4293734e-07 -1.7373218e-06 6.465393e-08 1.1998048e-06
-1.9896402e-07 -1.3039639e-08 3.9776133e-09 -1.808481e-07 -6.590156e-07 -2.7695827e-07 -4.14014e-07 1.6054585e-08
-3.287252e-07 -4.6630685e-08 -4.1671724e-09 -2.8655913e-07 -5.938787e-08 4.4614396e-07 4.074529e-07 -6.347397e-08
5.622758e-07 1.3266126e-07 -2.0923449e-07 8.771406e-08 -2.452168e-07 -7.980501e-08 1.1097995e-07 -1.4584063e-07

bias f4 [9]
00000000: a6eb 48bd 4db9 053e f9cc 3bbe e033 9035
00000010: a0f2 e8b4 ec6c 5335 77b3 8d34 57f4 1937
00000020: 294f beb5
-0.049052857 0.13058968 -0.1833991 1.0743934e-06 -4.33899e-07 7.876213e-07 2.6393874e-07 9.1764e-06
-1.4179142e-06
