onboard_codes/test_realsense/saved_models/estimator.pth (torch, 66007 bytes, 6 tensors)

weight f4 [128, 53]
000000 2b 30 88 3e f9 25 a6 3e 2b 69 20 3e 3c 38 94 3e
       0.2659925 0.32450846 0.15665118 0.28949153
000010 90 87 45 3f 9b a8 aa 3d 5a 45 5f 3e 59 e9 07 bd
       0.77159977 0.0833294 0.218038 -0.033181522
000020 3e 9b 94 bb 09 ea 07 be 97 4d 92 bd fd 5f 2e be
       -0.004535108 -0.13272871 -0.07143705 -0.17028804
000030 06 5b 1b be f3 1e 38 be 83 eb 35 3f 6a 46 4d 3f
       -0.15171441 -0.17980556 0.7106249 0.8018557
000040 a2 94 d8 3e 5a c1 a8 be bb a4 2b 3d 53 b4 5e 3e
       0.42300898 -0.32960016 0.041905146 0.21748476
000050 20 11 b9 3d c5 27 c9 3c e1 72 0c 3f 9c 85 2d 3e
       0.090364695 0.024555096 0.5486279 0.16945499
000060 8b 1d 43 3e a9 c6 e1 3e 4c 63 0b be 51 1d 95 bd
       0.19054238 0.44096878 -0.13612098 -0.07280982
000070 a4 bb d3 3d 17 d9 82 3e d4 4d 74 bd d5 20 83 be
       0.10338524 0.2555625 -0.059644535 -0.25610986
000080 22 37 1b 3e a0 b6 9c 3c 78 d6 10 be 08 7a 08 3e
       0.1515775 0.019130051 -0.14144313 0.13327801
000090 ad f0 f9 3b fd d5 92 bc 1c 20 41 bd 84 f8 f3 bc
       0.0076275677 -0.017924303 -0.047149763 -0.029781587
0000a0 b4 f0 a2 3c d0 b5 7f ba 14 11 0f bc e7 8e 8c 3d
       0.019890167 -0.000975457 -0.008732099 0.06863194
0000b0 24 3d 51 bd 52 a7 19 bb 40 f5 3b 3c d4 fc be bc
       -0.0510837 -0.0023445678 0.011472046 -0.023313917
0000c0 09 cd 4d b7 37 20 ae 3d 32 df 1f 3d 2e de 87 be
       -1.2266691e-05 0.08502238 0.039031215 -0.26536697
0000d0 ac 73 b0 bd 42 2b 8d 3e 87 ba 25 be 24 72 61 bd
       -0.08615813 0.27572066 -0.16184436 -0.055040494
0000e0 90 a7 25 bf f6 ea 0f bf 23 de 97 3d 06 02 0a 3e
       -0.64708805 -0.56217897 0.07415416 0.13477334
0000f0 c8 42 8d bb 54 ff 7a bd de 7b c6 3a d4 3c 4a bf
       -0.0043109395 -0.061278656 0.0015143116 -0.78999066
000100 47 00 2a bf 66 2b f5 bf 7e ed 53 be 51 45 79 bf
       -0.66406673 -1.9153869 -0.20696065 -0.97371393
000110 ab a4 09 be bd 55 c6 be d4 6f ab be 95 c0 1c bf
       -0.13441722 -0.38737288 -0.33483756 -0.61231357
000120 27 40 05 bd 1f 16 79 bd f8 98 49 bc 99 ac 03 bf
       -0.032531884 -0.060812112 -0.012304537 -0.5143524
000130 89 de a1 3f d2 8c 27 40 2f ff e4 be 46 50 b4 3f
       1.2646037 2.61797 -0.4472594 1.4086998
000140 85 2c 9b be e6 c1 2f 3f 87 7a 8b 3e c6 8d 8f 3e
       -0.30307403 0.6865524 0.27241918 0.28037852
000150 dd 50 72 be 28 c7 31 bf c4 02 2f be a1 f3 f3 3c
       -0.2366366 -0.69444513 -0.17090899 0.029779257
000160 96 0a c3 bf 0b 63 f6 be 77 3b c0 3d 42 a2 26 3d
       -1.5237606 -0.4812244 0.09386342 0.040682085
000170 e1 cf f9 ba cc 9d 16 be 54 5b 3b bd 52 b5 02 3e
       -0.0019059145 -0.14708632 -0.045741394 0.1276448
000180 f9 fc 70 3e 52 7b 19 3c 7a b0 53 3d cf 69 cd bc
       0.23534001 0.009367781 0.051681973 -0.025074868
000190 1a 08 91 3d a8 57 1b 3e 7c 3e 3a be 42 58 8d bd
       0.070816234 0.15170157 -0.18187898 -0.069015995
0001a0 67 20 af be 3d f7 ee b9 46 d8 a1 bd c6 6d 0c bf
       -0.3420441 -0.00045579104 -0.07902579 -0.54855
0001b0 f9 85 c4 be 02 5c ce 3e 53 e2 cc 3e b3 08 d2 bd
       -0.38383463 0.4030457 0.40016422 -0.102555655
0001c0 41 72 8e be 8b 9e cb 3d c0 96 6c 3d eb ba a2 3c
       -0.27821544 0.09942349 0.057760954 0.01986452
0001d0 ee b5 64 be 22 c1 90 bd fc 96 8f be b1 ca 7c be
       -0.22335026 -0.07068087 -0.2804488 -0.24686696
0001e0 a8 4b 9e 3d 42 0c 1c be 67 9b 8c 3f 47 34 f7 3e
       0.07729274 -0.15239051 1.0984925 0.48282072
0001f0 32 f4 ad 3f 32 72 09 3f bb 26 89 3e cc 1d e4 3e
       1.3590147 0.53689873 0.26787362 0.44553983
000200 c5 e0 62 3e c2 0a e1 bd 1d da 31 be c3 57 05 bd
       0.22156055 -0.1098838 -0.1736836 -0.0325544
000210 03 b9 6c bc 40 d2 fb bd e8 ca 40 bf ce 54 9f be
       -0.014448407 -0.122959614 -0.7530961 -0.31119388
000220 bf 94 0b bf d2 7f 74 3e c4 e5 be 3d 65 04 d4 bd
       -0.54523844 0.23876885 0.09321168 -0.10352401
000230 c3 74 c4 3d 8d d3 e8 bd 6f 62 7c 3d 24 31 32 bd
       0.09592583 -0.11368475 0.06161731 -0.043503895
000240 24 0f c4 bc 5a 0c 94 bc 8d ef d0 3d 0f bd ed 3c
       -0.023933 -0.018072296 0.10201941 0.029020814
000250 c2 ea fc 3b 66 68 05 be 7d 25 18 bc 4f 17 14 bd
       0.007718415 -0.13028106 -0.009286282 -0.03615504
000260 7f 74 82 bd 52 8e 5e 3b 2d c7 87 bd 8f 42 42 be
       -0.06369876 0.0033959341 -0.06629787 -0.18970703
000270 1c 0d a6 3d e3 ac 16 3e 5c 9a ab bd c5 27 6b 3d
       0.08107969 0.14714389 -0.08379051 0.057410974
000280 bf ed a1 bf 76 c2 95 be c4 07 d9 3d 0d 58 34 40
       -1.2650679 -0.29249924 0.10597184 2.8178742
000290 d8 a6 99 bb 97 14 cc 3c 0c 2e 39 bd bd d9 ad bd
       -0.004689079 0.024912162 -0.04520993 -0.08488796
0002a0 3b 94 a5 bd 86 28 9b b8 0b 33 d3 3e f4 17 d3 3e
       -0.08084913 -7.398524e-05 0.4124988 0.41229212
0002b0 8c 60 84 3f 0f 30 34 3e 51 bf 60 3e b7 4a 7b be
       1.0341964 0.17596458 0.21947981 -0.2454022
0002c0 13 70 43 3e 2c 89 31 bf e9 99 0a 3f 84 a0 11 3e
       0.19085722 -0.6934993 0.541411 0.14221388
0002d0 b3 82 6e 3e 7c c3 db be 1d 42 1b 3b fb 51 0b c0
       0.23292045 -0.4292258 0.002369053 -2.1768787
0002e0 71 22 d0 be bc 60 8c bd 66 26 3f 3d dd d3 57 3e
       -0.40651277 -0.06854388 0.04666748 0.21076913
0002f0 54 25 cf be 43 98 48 3d 01 ca fd 3e 7c 93 9a be
       -0.40458167 0.048973333 0.4956818 -0.30190647
000300 63 7d 63 bd d1 4d bb bd ae 3e d3 be 5f 82 23 3f
       -0.0555395 -0.09145702 -0.41258758 0.63870806
000310 33 dd 95 3c 6c 85 29 3c 24 04 a8 bd 3c 55 4a 3c
       0.018293953 0.010346752 -0.08203915 0.012349423
000320 b2 40 9a ba 46 41 97 bc 5c 49 7b bd 3b 7e 2d 3c
       -0.0011768548 -0.018463742 -0.061349258 0.010589178
000330 08 66 08 3c 0f a4 7e bc 6c 28 e3 3c d7 1a 25 3c
       0.008325107 -0.015542044 0.027729236 0.0100772
000340 79 9c 58 be 75 df 83 be d8 0e 72 3e 3a 82 08 3e
       -0.2115344 -0.25756422 0.23638475 0.13330927
000350 81 59 d9 3e 0e 52 41 3e 58 15 0c 3e 35 93 5f bd
       0.424511 0.18878958 0.13680017 -0.054583747
000360 d5 b5 47 3c 47 7a b8 bd 4f e5 13 bc df 4e e3 bc
       0.012189348 -0.090076976 -0.009026839 -0.02774757
000370 f8 76 7e bb 74 da d1 bd ae 47 92 3d f6 00 45 3e
       -0.0038828235 -0.10246745 0.07142578 0.19238648
000380 25 06 5c 3e d5 9c 87 bc f1 a7 6f bf 24 ac a1 be
       0.21486719 -0.016554276 -0.93615633 -0.31576645
000390 a1 66 f6 bd e6 a0 68 be 41 66 cc bd 60 e5 9b be
       -0.12031294 -0.22717628 -0.09980441 -0.30448437
0003a0 68 cd 1f 3d a4 92 c2 bc 94 31 81 3d ea 86 22 3d
       0.03901425 -0.023751564 0.063082844 0.039679445
0003b0 3b 14 ea 3d 1a a9 64 3f 6a a2 ef bf d9 61 62 bf
       0.1142964 0.8932053 -1.872144 -0.88430554
0003c0 c9 72 8a 3d e5 a4 27 3d 6f dc b5 bd a5 0e 78 be
       0.06760175 0.04092874 -0.08879935 -0.24224336
0003d0 95 27 d4 bd d9 ed 94 bd cf d3 7d 3e e3 3f 33 3d
       -0.10359112 -0.07271928 0.2478783 0.0437621
0003e0 27 8f 8e bd 96 b1 3b bd 17 aa 2c bc 81 95 21 be
       -0.06960898 -0.045823656 -0.010538599 -0.15779687
0003f0 d5 ec 38 bc 6e 07 13 3d 29 da 99 3c 46 48 cc 3d
       -0.011286934 0.035895757 0.018780785 0.099747226

bias f4 [128]
000000 87 a3 a2 be e5 94 60 bf 93 e4 7c be c8 dd 2f 3f
       -0.31765386 -0.87727195 -0.24696569 0.68697786
000010 05 55 9a 3e e1 bb 62 3f 92 f9 54 bd a0 b5 5b bf
       0.3014299 0.8856793 -0.05199582 -0.8582401
000020 ca 42 d6 bd a0 91 57 3d 9b 0a eb 3e ff f3 3c be
       -0.10461958 0.052629113 0.4590653 -0.18452452
000030 43 4f d3 3d b5 c3 87 3d bd 05 3d be 14 4e de be
       0.10317852 0.06629125 -0.1845922 -0.43418944
000040 f7 bd 1e 3e 09 f2 0e 3e a1 7d 90 bd e4 f0 58 bf
       0.15502153 0.13959517 -0.07055212 -0.8474257
000050 5f 1c df 3e aa 4c bb 3e 86 66 b4 be 53 2b 8a 3f
       0.43576333 0.36581928 -0.3523447 1.0794472
000060 be 91 bc be cf 5d 1b bf 96 68 80 be 78 69 88 be
       -0.36829942 -0.60690016 -0.25079793 -0.26642966
000070 2e 54 88 be c8 65 60 be 36 e1 61 3e 02 68 0f bf
       -0.26626724 -0.21913826 0.22058567 -0.5601808
000080 70 c1 db 3e a6 a4 47 3d 30 c8 13 3f 10 f1 e8 3e
       0.4292102 0.048741005 0.57727337 0.45496416
000090 a4 0f eb be 15 ca 87 3e 38 bc 4e 3e 77 42 dd 3e
       -0.4591037 0.26521364 0.20188987 0.4321477
0000a0 2d 77 84 3d 70 67 02 bf 7f a4 36 be c3 26 0a be
       0.064680435 -0.50939083 -0.17836188 -0.13491349
0000b0 ed af bf be f7 fa bb 3d b6 bb 51 bf 0d 28 57 be
       -0.37438908 0.09178727 -0.8192705 -0.21011372
0000c0 0b c5 cb 3d 0f cd ce 3e d2 92 31 bf 75 db d7 3d
       0.09949692 0.40390822 -0.69364655 0.10539905
0000d0 42 2a 3e be 3a 7d 9e be 69 e2 0a 3f 38 a9 27 bf
       -0.18570808 -0.30954915 0.54251724 -0.6549258
0000e0 28 d8 0b 3f fc af a8 3e 8b ad 9d 3d 3d d5 22 bf
       0.54626703 0.32946765 0.07699116 -0.63606626
0000f0 7d 55 b9 3e f3 f5 f2 3e 8b ae 87 bf cc 01 61 3d
       0.36198035 0.4745327 -1.0600141 0.054933354
000100 2d 72 28 be 09 0f b3 3e 24 5a 0f 3e e2 b3 55 3f
       -0.16449805 0.34972408 0.1399923 0.83477604
000110 60 a7 8c be 50 64 6d bf e3 f3 da bb c8 8a 96 be
       -0.27471447 -0.9273119 -0.0066819056 -0.29402757
000120 48 37 c9 be cd a6 c5 be 35 00 4d be 42 5e 9d 3e
       -0.3929999 -0.3860382 -0.2001961 0.30735976
000130 19 be 4b bf 88 02 9d bf fe 88 28 bf 73 4c 5e be
       -0.7958694 -1.2266397 -0.65834033 -0.2170885
000140 8b 55 9b 3e 47 96 5d bd 8c 18 d0 be 64 5d 81 be
       0.30338702 -0.054098394 -0.40643728 -0.25266564
000150 93 77 63 3c 96 63 1b bf 42 93 ad be d3 1d 63 3e
       0.013883489 -0.6069883 -0.3390141 0.22179346
000160 8b ab 80 be 80 61 2a 3f 46 62 21 be e5 5e 9d be
       -0.25130877 0.66555023 -0.15760145 -0.3073646
000170 f4 ed 43 3e d2 95 ce be 3d 26 20 bf 90 99 6a bf
       0.1913374 -0.4034868 -0.62558347 -0.9164057
000180 eb fd 09 bd 5c 77 e4 bd 58 27 a8 3e 97 0b 56 bf
       -0.03368942 -0.111555785 0.32842517 -0.83611435
000190 eb 7e 3e 3e 8a 7b 89 be af 73 4a bf 14 11 18 bf
       0.18603103 -0.26852065 -0.7908277 -0.5940106
0001a0 19 18 b5 bc 31 64 fb be 52 ba 92 3e 3e 31 98 be
       -0.022106217 -0.49099877 0.28657776 -0.2972507
0001b0 46 10 5c bd bf f2 40 bf 41 ba 10 bd 81 ea 62 bf
       -0.053726457 -0.753704 -0.035333876 -0.88639075
0001c0 28 24 35 3e 18 47 27 3f 10 90 69 3d e1 6a 2b 3f
       0.17689574 0.65342855 0.057022154 0.6695996
0001d0 8f 37 be be 62 d2 8c bf 9a 8d d4 3d d9 1c ff bd
       -0.37151763 -1.1001704 0.10378571 -0.12456674
0001e0 6c f9 38 3f df 28 b6 be 7a 86 87 3d 0b 73 01 bf
       0.7225559 -0.35578057 0.06617446 -0.50566167
0001f0 3a d4 36 bf 07 75 06 3e 4c 84 f1 be c3 c1 20 3f
       -0.7141758 0.1313058 -0.47171247 0.62795657

weight f4 [64, 128]
000000 f5 dd 9b 3e 1f 8f 09 3d 96 30 17 3c 1c f5 a5 bd
       0.30442777 0.033583757 0.009227892 -0.081033915
000010 5d c6 60 3d da 02 6a bd ad 09 55 be c0 1f 97 3d
       0.054876674 -0.057131626 -0.20804472 0.07379103
000020 77 38 88 3d e0 4e a2 bc 54 b6 7a 3e 47 89 c2 bd
       0.06651395 -0.019813001 0.24483615 -0.0949884
000030 fd f4 83 3e d1 7e bd bd 28 6d b8 bb 9b 36 8a 3d
       0.2577285 -0.09252704 -0.005628247 0.067486964
000040 d1 c3 f3 bd af b2 64 3e d7 3d 9c 3d bb c1 c6 3e
       -0.119025834 0.22333787 0.076289825 0.3881968
000050 61 19 18 be bd 69 01 3d 2f cd 69 3e f7 e4 5c 3e
       -0.14853431 0.03159498 0.22832178 0.21571718
000060 ad fc 70 3e 17 79 9d 3d c5 13 a3 bd f1 d9 83 bd
       0.23533888 0.07689112 -0.07962755 -0.064380534
000070 58 5a 92 bd da 6e 0f be 5f 24 b8 bd fc 82 ab bd
       -0.07146138 -0.1400713 -0.08991312 -0.08374593
000080 da e3 e6 bc 29 24 98 3d 85 2a 31 bd d7 65 0a 3d
       -0.02818482 0.07428772 -0.04325344 0.03378853
000090 71 d9 a2 bc dd 6d a3 3c ae 11 32 3e f9 10 d3 bd
       -0.019879075 0.019949848 0.17389557 -0.10305972
0000a0 ad c7 73 bd 27 97 3a 3e e0 8f 44 3e be 28 70 3e
       -0.059516598 0.18221723 0.19195509 0.23453042
0000b0 48 06 02 3e 80 89 9f bc 83 a9 58 3e 32 04 33 3d
       0.12697709 -0.019474745 0.21158414 0.043705173
0000c0 0c e7 35 3b 22 6b 5f be 56 db db 3d e1 eb 7c 3e
       0.0027756123 -0.21818212 0.107351944 0.24699356
0000d0 89 52 95 bc 83 f1 78 3e 25 66 9b 3e 60 be b0 3d
       -0.018227832 0.2431088 0.30351368 0.08630061
0000e0 68 db 3f 3d 6d 48 1d 3e cc f7 e8 be cd 38 36 bd
       0.0468401 0.1535966 -0.45501554 -0.044487763
0000f0 87 81 0f 3e be ac 0f 3e 3d 83 5c 3d b6 ea ac 3c
       0.14014255 0.1403074 0.053836096 0.021108013
000100 df da 0e 3e 75 37 9f 3e f8 77 c9 bd 95 75 12 bd
       0.1395068 0.31096998 -0.09837335 -0.035756666
000110 61 b7 05 3c 82 12 e1 3c 81 2b cb 3d ed ba 31 3d
       0.008161397 0.027474646 0.09920407 0.043391157
000120 84 c5 0b bd d1 02 45 3d 40 61 65 3d 2b b7 11 3e
       -0.034123912 0.04809839 0.056000948 0.1423003
000130 51 57 31 3e 6f 9f 88 3e fe 44 f5 bd f6 79 fc 3d
       0.17318465 0.26684138 -0.1197605 0.1232795
000140 23 fd 48 3e 24 c9 aa bd 69 26 fc 3d 0d b4 fc 3d
       0.19627814 -0.08339146 0.12312014 0.123390295
000150 d0 09 87 3d 4e a4 31 3e 9e b7 a3 bd 18 f0 73 3e
       0.065936685 0.17347834 -0.079940066 0.23822057
000160 87 cf f1 3d 7f 54 8c bd 0f 7b 07 3e d9 1b 18 3c
       0.11807161 -0.06852054 0.13230537 0.009283983
000170 ff f5 7a 3e 3e ea 25 be 2e ac 2e be 02 8a f3 bc
       0.24507903 -0.16202638 -0.17057869 -0.029728893
000180 11 90 bd 3c e9 aa 84 bd 9d 7a 6e 3d 18 23 f8 3d
       0.023139985 -0.06477911 0.058222402 0.121160686
000190 be 67 40 3e 21 34 bc 3e 3f 73 34 3e 13 24 63 3e
       0.18789575 0.3675852 0.17622088 0.2218173
0001a0 c2 b0 87 3e 94 bc c0 bd d1 0f a0 3e fe 3b fb bb
       0.26502043 -0.094109684 0.31262067 -0.0076670637
0001b0 1e 6c 03 be 29 0d 56 3d a0 31 f5 3d 2a 86 45 be
       -0.12834212 0.052258644 0.11972356 -0.19289461
0001c0 be ef 48 3e 8d a6 ab 3c 5f ba bb be c2 2d 2a bd
       0.19622704 0.020953441 -0.36665627 -0.041547544
0001d0 9a 72 2a bd e3 90 6f 3d 96 4a 4e 3a b9 20 1e 3d
       -0.0416132 0.058487784 0.00078693905 0.038605426
0001e0 ea ca 3d bc fa 5e 2b 3c 25 1c 2a be af 7c f3 be
       -0.011584023 0.010459656 -0.16612299 -0.47556064
0001f0 da cc 3a 3c 66 1a 2d be 0c bd 53 3e 08 e9 e1 3d
       0.0114013795 -0.16904601 0.20677584 0.11030775
000200 4d 33 b7 3d 82 27 86 3e d4 77 1a 3d 2d 9d 12 3e
       0.08945332 0.26202017 0.037711933 0.1431777
000210 25 8c 08 3d 65 81 4a 3e 49 fc 22 3d 41 79 56 3e
       0.033336777 0.19775923 0.03979138 0.20944692
000220 f2 32 f6 bd ab 3f 4b bc 62 21 51 be 1e 13 49 3e
       -0.12021436 -0.012405316 -0.20422891 0.19636199
000230 2d 56 23 3d c8 15 89 3b b9 0c 2b 3f 87 bf a1 bd
       0.039877106 0.0041835047 0.6681629 -0.07897859
000240 0c 47 b3 bd bf 5a a5 bd e9 8c 15 3e b8 86 1e be
       -0.087537855 -0.08073949 0.14604534 -0.15481079
000250 d5 9d c7 bc cf 04 de 3c 55 2b 94 3d bf a2 f6 3d
       -0.024367252 0.027101902 0.072348274 0.1204276
000260 b7 71 03 be 78 d3 77 bb dc b2 a5 bd fd d9 13 bd
       -0.12836348 -0.0037815254 -0.08090755 -0.03609656
000270 2d d2 b5 3e c2 ae 8d be 1e 96 17 3d 5b ea 01 3d
       0.35511914 -0.27672392 0.037008397 0.03171764
000280 88 da 33 3e 1f d2 18 be 23 fe b2 bd b8 10 2e 3e
       0.17563832 -0.14923905 -0.08739879 0.16998565
000290 17 0b 8d bc da 56 56 3d a5 6f e3 bc 44 4a 53 3c
       -0.017217202 0.05232892 -0.027763197 0.012896124
0002a0 aa ea 81 bc 29 b9 a7 be 90 85 a0 3d 87 d8 0e bf
       -0.015858967 -0.32758453 0.07837975 -0.55799145
0002b0 e3 a9 2b bf 55 4d 99 3e e4 e1 aa bd ff 46 b6 3d
       -0.670561 0.29941812 -0.083438665 0.0890026
0002c0 c7 64 34 bd fc 9a 23 bc 41 bb 52 bd c7 29 0c bd
       -0.04404142 -0.009985682 -0.05144811 -0.03421953
0002d0 01 ac 41 bc 60 32 19 3e c0 51 7d bb b8 83 c4 bc
       -0.011820794 0.14960623 -0.0038653463 -0.02398859
0002e0 ca e0 cf 3b ba 33 0d 3e ff 1d 84 b9 97 56 55 3c
       0.0063439356 0.13789263 -0.0002519935 0.013021133
0002f0 78 a9 c8 3d 8c 74 01 bd 01 dc ed bc b5 3c b1 3f
       0.097979486 -0.03160529 -0.02903557 1.3846651
000300 49 09 8b be 23 89 b9 3c a6 fc 13 3e ac 2f 85 bd
       -0.27155522 0.0226484 0.14451846 -0.06503233
000310 16 a0 9c be 67 82 26 be a1 28 2d be 05 ec 5d bb
       -0.30590886 -0.16260682 -0.1691003 -0.0033862602
000320 e0 4f 85 3e 38 d5 5f 3e c6 a7 71 bd e3 4b 10 be
       0.26037502 0.2185868 -0.05899789 -0.14091448
000330 87 2b b2 bd 91 59 5e bb b2 ac cb 3d c1 73 c1 3d
       -0.086997084 -0.0033927897 0.099450484 0.094459064
000340 67 2e a5 bd 78 3e 7f be 02 80 17 be 97 f7 13 be
       -0.08065491 -0.24926174 -0.14794925 -0.14449917
000350 6a d2 a8 3e b7 35 bf bd 88 5a f2 bd 0d 68 d5 bd
       0.32973033 -0.09336417 -0.11833674 -0.10420237
000360 d9 50 01 3e 45 d0 e0 3e 74 21 d8 bd 29 fb 0c bd
       0.12628497 0.43908897 -0.10553256 -0.034419212
000370 0e 55 20 3e be ac 1e 3d c6 d1 d5 bd 66 aa 2c 3c
       0.15657446 0.03873896 -0.10440402 0.010538673
000380 a7 5d a2 bd 90 80 8f 3c dd 80 14 bd 19 86 2a 3e
       -0.07928019 0.017517358 -0.036255706 0.16652717
000390 74 83 f3 3c 87 2e 76 be 0a db d1 bd 49 be d5 3d
       0.029725768 -0.24041186 -0.102468565 0.10436685
0003a0 e9 fb 21 3d 27 40 84 3f 8f cb 74 3c 87 32 54 3d
       0.03954688 1.0332078 0.01494111 0.051806
0003b0 15 54 a0 bd 84 dc 56 3d 4d df a1 3d 75 56 88 bb
       -0.078285374 0.052456394 0.07903919 -0.004160697
0003c0 3f 96 5a bd 24 6b e3 3e 1d 15 56 bd 10 03 ec bc
       -0.053365942 0.4441768 -0.05226623 -0.028810054
0003d0 e5 0e 87 bb e7 6e a8 be 7b 4c 86 be 55 4a af bc
       -0.0041216486 -0.32897112 -0.26230225 -0.021397749
0003e0 0b 6f 3a 3e b8 56 b5 bc 82 d3 82 3d 6d c8 1b be
       0.18206422 -0.022136077 0.06387998 -0.15213175
0003f0 53 f0 66 3f f0 20 c2 bc a3 31 00 be 0e 15 c5 bc
       0.90210456 -0.023697346 -0.12518935 -0.024057891

bias f4 [64]
000000 43 6b 0f 3b d6 5c 23 bd 45 17 8b be 26 7e 1a 3e
       0.0021884001 -0.039883457 -0.2716619 0.15087184
000010 8b bf 0c 3b 24 f6 c6 bd 3d 8a be 3c cb 49 93 3d
       0.0021476473 -0.09714916 0.023259277 0.07191809
000020 3f 17 57 3e d0 5d 78 be 06 9d 13 bf 44 62 ff be
       0.21004961 -0.24254537 -0.57661474 -0.49879658
000030 41 2b 7d 3d 23 3b df be 44 e1 90 3e c2 53 5c be
       0.06180883 -0.43599805 0.28296864 -0.21516326
000040 ba d7 94 3d 87 e7 eb bd 44 aa 16 bf 04 b0 29 3e
       0.07267709 -0.1151877 -0.58853555 0.16571051
000050 26 18 d1 bd 1c e6 92 be cc df b7 bd e0 bf d7 be
       -0.10209684 -0.28691185 -0.08978233 -0.42138577
000060 38 03 ac be 0b db cd be 03 87 ab be a2 e3 62 be
       -0.33596206 -0.4020618 -0.33501443 -0.22157148
000070 8b ef 0e 3e d1 fb 27 bd c5 15 46 3e 6b 13 21 3c
       0.13958566 -0.041011635 0.19344242 0.00983129
000080 e3 5a bf 3d d7 da 7d bd 0a c0 e5 bd 32 0d 3d 3d
       0.09343507 -0.06197628 -0.11218269 0.046155162
000090 fa 90 89 3e 96 fc ff bd 8c 04 10 be 78 b6 81 3d
       0.2686842 -0.12499349 -0.14064234 0.06333631
0000a0 5c fd 36 bd c1 e5 1f be 02 d7 fc be 36 c3 26 3e
       -0.044675216 -0.15614988 -0.49382788 0.16285405
0000b0 c9 1b 03 be 3e 71 44 be 8e 76 4d be e3 32 72 be
       -0.12803568 -0.19183823 -0.20064756 -0.23652224
0000c0 d6 0d c2 3c 31 4f 6b be 4f 72 7d be 54 9b d2 be
       0.023688238 -0.22979428 -0.24750637 -0.4113413
0000d0 af fb 1e 3e 55 47 0f bf 9a 81 61 be ce 0d fb be
       0.15525697 -0.5596822 -0.22022095 -0.4903397
0000e0 00 fa b9 bd 80 a8 37 3d d4 3c 8b 3d 05 d5 33 bf
       -0.09080887 0.04483843 0.067987114 -0.70246917
0000f0 85 c1 11 ba 44 8f 4c 3d a7 dd 4f 3e b8 0c d3 3e
       -0.00055601477 0.049941316 0.20299397 0.4122064

weight f4 [9, 64]
000000 25 24 08 bf 60 d7 09 bf 7b 4f 2d 3d 2f 26 81 3f
       -0.5318015 -0.5384426 0.042312127 1.0089778
000010 8d 95 82 bf bc 69 a7 3e 9c 62 84 bd 66 5d 09 bf
       -1.0201889 0.32697856 -0.06464121 -0.5365814
000020 d6 38 1c 3f 0c 36 e8 be e6 fb 0c bf e5 f5 12 bf
       0.61024225 -0.45353734 -0.55071867 -0.57406455
000030 20 d7 73 bf 8f fc 94 be 2f 17 6b 3e cb f3 a7 bf
       -0.9525013 -0.29098937 0.22958063 -1.3121275
000040 31 ac a6 3f 7c 45 22 bf 09 9d 6c bf ae d4 39 3f
       1.3021299 -0.63387275 -0.92427117 0.7259015
000050 75 44 22 be 3d 81 08 be 1d 3e 84 3f b6 59 83 bf
       -0.15846427 -0.1333055 1.0331455 -1.0261753
000060 99 5e d5 bd 04 6c 89 3d e3 d2 0a be 13 f0 09 bf
       -0.10418434 0.067100555 -0.1355701 -0.5388195
000070 50 41 15 3f 41 38 93 3f d9 53 c1 bb 3f 6e 26 bf
       0.58302784 1.1501542 -0.005899888 -0.6501197
000080 11 75 03 3f 21 a8 4d 3f 21 3a 33 be b3 62 f4 be
       0.51350504 0.8033467 -0.17502643 -0.47731552
000090 8e 5c 97 3e c6 1a 13 3f 07 2e 0d bf 82 c8 b1 bd
       0.295628 0.5746273 -0.5514836 -0.08680822
0000a0 c1 1d f1 3e 6c b7 4d 3d c7 08 70 3f f3 1b 1a 3f
       0.47093013 0.050223753 0.93763393 0.601989
0000b0 dc 17 e0 3d 87 58 80 bf ac 55 ae be ad c7 6c 3e
       0.10942051 -1.0027016 -0.34049737 0.23123045
0000c0 57 81 76 be 3f 02 3e 3f d6 de 5a bf 9c c7 14 3e
       -0.24072777 0.7422218 -0.8549627 0.1452927
0000d0 5a 88 82 3f 14 51 06 3f 77 04 31 bf 52 80 2a 3f
       1.0197861 0.52467465 -0.6914744 0.6660205
0000e0 3d 29 19 3e c5 55 7d bf 65 a9 89 3b 6b e7 2b be
       0.14957137 -0.98959 0.0042011016 -0.16787498
0000f0 91 3d fa 3f 23 1c c6 3d b5 ea 13 be 8e 08 19 3f
       1.9550039 0.096733354 -0.14445002 0.5977868
000100 c8 6a 3d 3e d6 a2 9a 3e b7 d4 2e 3f a2 cb 05 3d
       0.18497765 0.3020236 0.6829333 0.032664903
000110 0d 2a 94 be 3f 82 e1 3b 25 0e 40 bf df b4 83 3f
       -0.28938332 0.0068819816 -0.7502158 1.0289572
000120 39 ba c6 bd 31 86 0c 3e 62 d6 cd 3e df e3 8a bf
       -0.09703488 0.13723065 0.40202624 -1.0850791
000130 09 42 44 3e 40 48 48 bf 43 0e b5 bd 75 c5 5b bf
       0.19165815 -0.78235245 -0.08840611 -0.8584817
000140 90 3a 84 be 37 96 5f bf e5 c9 b2 3e 0b 2b 41 bd
       -0.2582593 -0.87338585 0.34919658 -0.04716019
000150 1d e6 45 3f ff 57 87 bf 41 0f b2 3d 6e 31 8f 3e
       0.7730425 -1.0573729 0.08694316 0.279674
000160 01 c7 89 3e 7c 19 1a bf dd 7a 4f be 1f 5a ba 3e
       0.2690964 -0.60195136 -0.20261712 0.36396882
000170 02 ff cd 3e bf 78 fe be 90 d7 cb be 68 35 26 3e
       0.40233618 -0.49701497 -0.398129 0.1623131
000180 29 ac 05 bf 6a d2 82 bd 7d 68 03 3e ff 04 c8 bd
       -0.5221582 -0.063877895 0.12832828 -0.09766578
000190 c4 fc df bc c4 6b 1c be 8b b1 0f 3d d0 9b ca 3e
       -0.027342208 -0.15275484 0.035081428 0.39572
0001a0 e6 a7 c3 bc 44 1b 0f bd ee 14 f7 3e ce d1 34 bf
       -0.023883771 -0.034938112 0.48258156 -0.70632637
0001b0 e9 5b 72 3d 72 18 dc 3c 00 e7 6a bd 6d fb 14 bc
       0.059169684 0.026867125 -0.057349205 -0.009093148
0001c0 26 a0 a7 bc 21 66 52 bd 83 22 f0 3e fb a7 e3 bd
       -0.020462107 -0.05136693 0.4690133 -0.11116024
0001d0 46 0d 9a 3e 41 dc b9 3e 70 93 50 3d 3f 71 24 bf
       0.30088252 0.36300853 0.050921857 -0.642353
0001e0 b5 57 34 3e 94 b1 ec 3d 3a bd 16 3f 65 b9 55 bf
       0.17611583 0.11557308 0.58882487 -0.83486015
0001f0 b4 6d 95 3e ce 63 60 3f 2d 2e 1e 3f a6 c4 fa 3d
       0.2918526 0.8765229 0.6178921 0.12244539
000200 2e d4 08 bf f1 5a 74 be 6d a8 6b bd dd 27 13 be
       -0.5344876 -0.23862816 -0.05753367 -0.14370675
000210 91 ec 93 3e d2 73 02 bf 71 7a c0 be 53 70 08 bf
       0.28891423 -0.5095798 -0.37593415 -0.53296393
000220 ba 54 1a 3f f8 f0 f9 be c5 eb 1a 3f 56 a9 bb 3e
       0.6028553 -0.48816657 0.60516006 0.3665263
000230 88 b2 07 be ea b2 47 be 1e b6 e4 bc f4 38 9e be
       -0.13251698 -0.19501844 -0.027918871 -0.30902827
000240 85 84 f7 3e 88 6a b3 be ca 68 19 3e 06 6b 36 3e
       0.48343292 -0.35042214 0.1498138 0.17814264
000250 19 79 5f 3b 6d a5 46 be b0 1c 0d bf 9a 7b 18 3e
       0.003409928 -0.19399042 -0.551219 0.148909
000260 ab 17 f1 bc 47 dc 8e bc a5 0a 4d bf 5e 48 5a 3e
       -0.029430231 -0.01743902 -0.8009437 0.21316668
000270 d7 19 03 3d 96 54 78 3e ee 73 17 3e 06 1b 21 bf
       0.032007065 0.24251017 0.14790317 -0.6293186
000280 2c 31 38 3e 58 e3 85 bf 81 bc 7e bf 18 7e 35 3e
       0.17987508 -1.0460005 -0.99506384 0.17723882
000290 3e c3 1a bf 94 f2 7a 3e a0 d2 f8 3e 00 b4 28 bf
       -0.60454166 0.24506599 0.48598194 -0.6589966
0002a0 01 b6 f2 3e 25 01 13 3f ca 19 02 bf 1d e0 a3 3e
       0.47404483 0.5742362 -0.508206 0.32006922
0002b0 da 90 87 3f 1e ab c3 3d c6 3b 9f bd 39 61 4c bf
       1.059108 0.095541224 -0.07775073 -0.7983585
0002c0 3a 65 ef 3e e6 93 8e 3e 0c 72 3a be c8 aa 7f 3f
       0.46756917 0.27847213 -0.18207568 0.99869967
0002d0 54 20 a0 be a6 f2 55 3f a7 1f 3f 3f f7 cb f6 3e
       -0.31274664 0.8357338 0.7465767 0.48202488
0002e0 10 bd 9f 3f 3c 78 66 be fc 3e e3 3f 05 1f ac bc
       1.2479572 -0.22506803 1.7753596 -0.021010885
0002f0 b3 2f dd be a3 ad 4b bf 66 80 ac 3d 5b 23 57 bf
       -0.43200454 -0.79561824 0.084229276 -0.84038323
000300 26 35 38 b4 ed 37 e0 b3 53 18 bb 34 ce 72 be 32
       -1.715567e-07 -1.0440986e-07 3.4849162e-07 2.2171118e-08
000310 66 16 13 34 b3 69 04 b4 21 0e 30 b2 11 ec cf b5
       1.369859e-07 -1.2331911e-07 -1.0247761e-08 -1.5491406e-06
000320 0e 16 19 34 b1 f2 ad 33 f7 9c 50 b5 48 cb 4e 35
       1.4257259e-07 8.1000856e-08 -7.771445e-07 7.7036793e-07
000330 9b 0f 18 35 e9 a0 b9 34 3e ad b2 b3 68 c3 a8 b3
       5.664712e-07 3.4576013e-07 -8.3202835e-08 -7.858654e-08
000340 79 0b 6d b5 1e 86 b3 33 90 34 e7 b4 8e 37 e2 32
       -8.8306075e-07 8.359733e-08 -4.3065347e-07 2.6335126e-08
000350 99 d5 82 33 ee 8f 07 35 d6 88 3d b4 09 2c 47 b4
       6.09245e-08 5.0500864e-07 -1.7651777e-07 -1.8549339e-07
000360 fd 59 8c 34 66 e1 35 34 fb 4c 33 34 75 b6 12 30
       2.6142507e-07 1.6938938e-07 1.669868e-07 5.337378e-10
000370 c1 f2 10 35 a9 a9 89 34 24 e4 69 b4 ab 52 11 b4
       5.3997434e-07 2.5641683e-07 -2.1782813e-07 -1.3534252e-07
000380 7d 8a b5 b3 95 53 55 34 2a 6b 38 33 3e db 14 b5
       -8.45366e-08 1.9867578e-07 4.2938304e-08 -5.5453336e-07
000390 bd 04 04 b4 c3 00 ab 33 d3 59 01 34 c2 56 ec 33
       -1.2295182e-07 7.9629466e-08 1.2046739e-07 1.10053875e-07
0003a0 2c 41 fb 33 90 f5 a1 b4 fa 7b b1 b4 47 e9 0b b4
       1.1699953e-07 -3.0167257e-07 -3.3059024e-07 -1.303025e-07
0003b0 26 b6 d2 b3 2a d5 e3 b4 68 95 cf b3 99 8d 85 b4
       -9.8120196e-08 -4.2437142e-07 -9.6663655e-08 -2.4876206e-07
0003c0 ca 8d 10 33 30 ea 57 b3 16 a8 25 b5 d4 84 87 35
       3.365657e-08 -5.027158e-08 -6.1711887e-07 1.0096942e-06
0003d0 e6 dc f9 b3 4b a1 50 35 96 cf 5b 35 9c e6 a8 33
       -1.1635147e-07 7.772075e-07 8.1885935e-07 7.865057e-08
0003e0 ca 62 46 34 10 eb db 35 fa bb e5 34 5c 8a 95 b4
       1.8476126e-07 1.6385184e-06 4.2791345e-07 -2.7854082e-07
0003f0 80 5f 02 b5 59 08 35 b5 8d c0 c5 33 0f e9 a6 34
       -4.8567745e-07 -6.74399e-07 9.208552e-08 3.1089482e-07

bias f4 [9]
000000 a9 1d f3 3d 1e 29 cc 3e 3e 0f dd be 57 e4 a6 35
       0.118708916 0.3987512 -0.4317569 1.243442e-06
000010 26 55 e7 34 76 52 c9 b4 bc 96 4e 34 c3 b9 96 35
       4.3089057e-07 -3.7499166e-07 1.9240082e-07 1.1229935e-06
000020 ab d1 2d b5
       -6.475263e-07
