onboard_codes/test_realsense/saved_models/0414-distill-base-policy-raico/estimator.pth (torch, 66007 bytes, 6 tensors)

weight f4 [128, 53]
0	0x3f863b60	1.048687
1	0x3fd22740	1.6418228
2	0xbd8993c7	-0.067176394
3	0x3e8c3bde	0.27389425
4	0xbdfeb077	-0.12436002
5	0x3daaa89b	0.0833294
6	0xbdb8411f	-0.08996796
7	0x3d6a867c	0.05725716
8	0xbb949b3e	-0.004535108
9	0xbe07ea09	-0.13272871
10	0x3d274ddb	0.040845733
11	0x3d4accb7	0.049511638
12	0x3dd2a2c9	0.10284955
13	0xbd839f33	-0.06426849
14	0x3d57e9c9	0.05271319
15	0x3e12cc08	0.14335644
16	0xbe0537d5	-0.1300958
17	0x3d9b90fd	0.07596014
18	0x3d519ae4	0.051173106
19	0xbe5c237c	-0.21497911
20	0xbe082bc2	-0.13297942
21	0x3e31d87b	0.17367737
22	0x3dafac58	0.08577794
23	0x3e2f38b7	0.17111479
24	0x3e89c5da	0.2690876
25	0x3e1e71bb	0.15473072
26	0xbe1017d6	-0.14071593
27	0xbd391343	-0.045184385
28	0xbcaff6a2	-0.021479908
29	0xbcf6628b	-0.030076286
30	0x3dbca709	0.09211547
31	0x3e8303b6	0.2558877
32	0xbdc5721e	-0.09640907
33	0x3c65e442	0.014031472
34	0x3ed45690	0.41472292
35	0x3d67bb08	0.05657485
36	0xbda416c4	-0.08012155
37	0x3cd057d7	0.02543251
38	0xbca2d0fb	-0.01987504
39	0xbd23d7f5	-0.040000875
40	0x3d8e5b28	0.069509804
41	0xbd2ae8f0	-0.041726053
42	0xbd32fd2b	-0.04369847
43	0xbd65a21c	-0.056062803
44	0x3c3298a2	0.010900648
45	0xbc9ae2a5	-0.0189069
46	0xbb5d098b	-0.0033727612
47	0x3c865830	0.016399473
48	0xbd34388a	-0.043999232
49	0x3d538369	0.051638994
50	0x3c6e73de	0.014553992
51	0xbd176293	-0.036959242
52	0xbb917abf	-0.0044396813
53	0xbe86335e	-0.26211065
54	0x3d8b91cb	0.06814917
55	0xbeca287e	-0.39484018
56	0xbe3a2487	-0.18177997
57	0xbfa24080	-1.2675934
58	0x3d97de23	0.07415416
59	0x3e1e47bf	0.15457056
60	0x3c3398a9	0.01096169
61	0xbd7aff54	-0.061278656
62	0x3ac67bde	0.0015143116
63	0xbd7c5cab	-0.061611813
64	0xbf4da187	-0.80324596
65	0xbf821b9b	-1.0164675
66	0x3c72be49	0.014815875
67	0xbe7091a1	-0.23493053
68	0xbf63f014	-0.89038205
69	0x3eecf027	0.46276972
70	0xbe0cd580	-0.13753319
71	0xbd778b31	-0.060435478
72	0x3e09d0b1	0.13458516
73	0x3e824f45	0.25451103
74	0x3f67fb09	0.90617424
75	0xbf488f31	-0.7834349
76	0x3f2e094e	0.6798295
77	0x3ef9c5fb	0.4878386
78	0xbf12da36	-0.57364213
79	0x3e87a97a	0.26496488
80	0x3e9c04cb	0.30472407
81	0xbd87679f	-0.06611561
82	0x3dd91dc4	0.106013805
83	0x3e0bfbec	0.1367032
84	0x3d9f1955	0.077685036
85	0xbe5637f5	-0.20919783
86	0x3d24017b	0.040040474
87	0xbe8bc4ce	-0.27298588
88	0xbef4b0e0	-0.47791195
89	0xbe480c6b	-0.19535987
90	0x3e458896	0.19290385
91	0xbcadb9f6	-0.021206837
92	0xbd21221b	-0.039339166
93	0x3cb057ca	0.021526236
94	0x3d67af55	0.056563694
95	0xbd251f4c	-0.04031305
96	0x3d4a6cc4	0.049420133
97	0x3a8f40fd	0.0010929402
98	0x3d008a23	0.031381737
99	0x3d9ce544	0.076609164
100	0x3d5bc1c4	0.053651586
101	0xbbb5aaa8	-0.0055440255
102	0x3e337eaa	0.17528787
103	0x3e204b77	0.15653788
104	0x3e9f8a05	0.31159988
105	0xbe4f879f	-0.20266579
106	0x3ee3bf39	0.4448183
107	0xbef6e8f5	-0.48224607
108	0x3d0f8b2f	0.035044845
109	0xbe6dbad2	-0.23215798
110	0x3dea2407	0.11432653
111	0xbdd208b3	-0.102555655
112	0x3dcc2ca4	0.09969452
113	0xbdc35173	-0.095370196
114	0x3d6c96c0	0.057760954
115	0x3ca2baeb	0.01986452
116	0x3ea0e1be	0.31422228
117	0x3e8352b0	0.25649023
118	0x3e3d867e	0.18508336
119	0xbe044aed	-0.12919207
120	0xbd1c83f4	-0.038211778
121	0x3da09808	0.07841498
122	0xbc3bbead	-0.011459035
123	0xbe56ef71	-0.20989777
124	0x3dbe105e	0.092804655
125	0xbe5aec3e	-0.21379182
126	0x3eaaf0ca	0.33386832
127	0xbf10273d	-0.5630987
128	0xbf0420c6	-0.5161251
129	0x3d9e0835	0.07716409
130	0x3d871b53	0.065970086
131	0xbe239b68	-0.15977252
132	0xbb91dd85	-0.004451456
133	0x3d354bee	0.044261865
134	0xbf10a928	-0.5650811
135	0xbb9ef4b2	-0.0048509473
136	0xbe003706	-0.1252099
137	0x40738d10	3.8054848
138	0xc0987e53	-4.7654204
139	0xc03fa156	-2.9942222
140	0xbe0253b0	-0.12727237
141	0xbd465a76	-0.048426114
142	0xbbcaad2c	-0.0061851945
143	0xbba1e1ec	-0.004940262
144	0x3cae1b6b	0.021253308
145	0xbc325fb8	-0.010887079
146	0x3c2d39a5	0.010572826
147	0x3d041e5e	0.032255523
148	0x3c03312d	0.00800733
149	0x3da058de	0.0782945
150	0xbd42a7a8	-0.04752317
151	0x3db0ef5b	0.086394034
152	0x3d06ad21	0.032879952
153	0x3d9e0a49	0.077168055
154	0xbbf4e208	-0.007473234
155	0xbdebc6bf	-0.11512517
156	0xbe17e2c8	-0.14832604
157	0xbdf7d225	-0.12100629
158	0xbda2bf33	-0.079466246
159	0x3f566aa6	0.8375648
160	0x3f249aa6	0.64298475
161	0xbed866a3	-0.42265806
162	0xbf6cd200	-0.92507935
163	0xbf740f1d	-0.9533556
164	0xbb99a6d8	-0.004689079
165	0x3e892b0c	0.26790655
166	0xbe13d23e	-0.1443567
167	0xbdadd9bd	-0.08488796
168	0xbda5943b	-0.08084913
169	0xbf324163	-0.6963102
170	0xbf9b62dc	-1.2139544
171	0xbf854db5	-1.0414339
172	0xbe8907fb	-0.267639
173	0xbe34a0ee	-0.17639515
174	0x3e092adb	0.13395254
175	0x3ef3d6a0	0.47624683
176	0xbe0c974c	-0.1372959
177	0x3f07ff71	0.5312415
178	0xbd0ae98f	-0.033914145
179	0xbde0ebd7	-0.10982483
180	0x3da2a869	0.07942278
181	0x3de73234	0.11288872
182	0xbf89f2a2	-1.0777171
183	0x3e9e5972	0.30927616
184	0xbecc5b53	-0.39913425
185	0x3ebd094d	0.36921158
186	0xbd4d45bc	-0.050115332
187	0x3bac64a7	0.005261022
188	0xbaa9c379	-0.0012951932
189	0x3d66899c	0.05628358
190	0xbdc8d373	-0.09805956
191	0xbe909a92	-0.28242928
192	0xbd8ff908	-0.07029921
193	0x40c01996	6.0031233
194	0x412c8bf4	10.784168
195	0x410789ba	8.471125
196	0xbd07b9ae	-0.033136062
197	0x3c8a265a	0.01686399
198	0xbd1bb40a	-0.038013496
199	0xbcb815cf	-0.022471337
200	0x3cc6e974	0.024281241
201	0xbdba480a	-0.090957716
202	0xb9c3f406	-0.0003737511
203	0x3cbae7ee	0.02281567
204	0xbc95765e	-0.018244918
205	0xbdc2ccf4	-0.09511748
206	0xbe1b034e	-0.1513798
207	0xbda15376	-0.07877247
208	0x3e01df72	0.12682894
209	0x3e4e12f2	0.20124415
210	0xbd208393	-0.03918798
211	0x3f51f6aa	0.82017004
212	0x3e1d4b84	0.15360838
213	0x3f0cf2d4	0.55058026
214	0x3cf1d5eb	0.02952095
215	0x3ecc8cd3	0.3995119
216	0x3ea9675a	0.33086663
217	0xbdb87a47	-0.090076976
218	0x3cc5692d	0.024098003
219	0xbc4c5122	-0.012470515
220	0xbb7e76f8	-0.0038828235
221	0xbdd1da74	-0.10246745
222	0x3d63339c	0.05546914
223	0x3ddea174	0.108706385
224	0x3e2e9827	0.17050229
225	0xbdf7f75e	-0.121077284
226	0x3dacd939	0.084398694
227	0xbe9bbcd0	-0.3041749
228	0xbb06ea81	-0.0020586553
229	0xbc900a8d	-0.017583156
230	0xbecb0601	-0.39653018
231	0xbe8f87b4	-0.2803322
232	0xbbf4b179	-0.0074674455
233	0xbed7ede7	-0.42173693
234	0x3bad2d1a	0.0052849175
235	0x3f4aeabc	0.79264426
236	0x3f41b5bc	0.7566793
237	0x3e7e8a5b	0.24857466
238	0x3dad8255	0.084721245
239	0x3de01f66	0.10943489
240	0xbea46e74	-0.3211552
241	0x3e38bcdb	0.18040793
242	0x3c688c74	0.014193643
243	0x3d8e0763	0.06935003
244	0x3c79501f	0.015216856
245	0xbbea9c84	-0.0071597714
246	0xbe3e466d	-0.18581553
247	0xbe7c4c1d	-0.2463841
248	0x3cec41c6	0.028839957
249	0x3d1292b4	0.03578444
250	0xbcfbce94	-0.030738153
251	0x3d4f08da	0.05054555
252	0x3d320178	0.043458432
253	0xbca7e8f0	-0.020496815
254	0x3daf6cc4	0.08565667
255	0x3d72e6b8	0.05930206

bias f4 [128]
0	0xbd6574e3	-0.056019675
1	0xbf77b887	-0.9676594
2	0x3e34e156	0.17664084
3	0xbf85595a	-1.0417893
4	0x3e529ade	0.2056689
5	0xbece5c55	-0.4030482
6	0x3f477bbc	0.7792318
7	0xbcb18dc7	-0.02167405
8	0x3f1d0591	0.6133662
9	0x3b3bdc6b	0.0028665315
10	0x3eade30f	0.33962294
11	0x3da9a6f1	0.08283795
12	0xbdb4391e	-0.08799957
13	0x3ee4e582	0.4470635
14	0xbf056066	-0.5210022
15	0xbea0fa05	-0.3144075
16	0x3e12f06d	0.14349528
17	0x3ea7df94	0.32787764
18	0xbef5d0ee	-0.48010963
19	0xbf625ce9	-0.8842302
20	0xbe42a263	-0.19007258
21	0x3f1a38c4	0.6024287
22	0xbd87dcd6	-0.06633918
23	0x3e3c5fb5	0.18395884
24	0xbd78f4a5	-0.060780186
25	0xbed56d1e	-0.41684812
26	0xbea6ccfa	-0.3257826
27	0x3e5b5088	0.21417439
28	0xbeced69d	-0.40398112
29	0xbe857787	-0.26067755
30	0xbb6bd501	-0.0035985115
31	0x3e1bfd39	0.15233316
32	0xbf000b71	-0.5001746
33	0x3df50343	0.11963513
34	0x3ea6aed9	0.32555273
35	0x3dca30cd	0.09872589
36	0x3dfb54f5	0.12272064
37	0xbf09d2f3	-0.5383751
38	0x3dcac411	0.09900678
39	0xbdc2a660	-0.0950439
40	0xbf0a0800	-0.5391846
41	0x3d0b0ea5	0.033949513
42	0xbe43d4c2	-0.1912413
43	0xbf4ac466	-0.7920593
44	0xbf37b0e0	-0.71754265
45	0x3e2edada	0.17075673
46	0xbe3f0c2e	-0.1865699
47	0xbe8389a4	-0.2569095
48	0x3e892d16	0.2679221
49	0xbf3bdd8c	-0.7338493
50	0xbf65fa72	-0.89835274
51	0xbd5e2090	-0.054230273
52	0xbeca4499	-0.3950546
53	0x3e25177b	0.16122238
54	0xbdf07e40	-0.1174283
55	0x3e03ee30	0.1288383
56	0xbd780dac	-0.060559914
57	0xbe3d1e3c	-0.18468565
58	0xbeebe317	-0.46071693
59	0x3f31ed14	0.6950238
60	0x3e910b81	0.2832909
61	0xbf651e30	-0.8949919
62	0xbf024229	-0.508822
63	0x3e2f66dd	0.17129083
64	0xbe01debe	-0.12682626
65	0x3df5270d	0.11970339
66	0x3ec18e85	0.37804046
67	0x3f1afd50	0.60542774
68	0xbe92ec96	-0.28696126
69	0xbf6fe3ec	-0.93707156
70	0xbe27473c	-0.16335768
71	0xbed82825	-0.42218128
72	0xbe8b155a	-0.27164727
73	0x3f15f169	0.5857149
74	0x3e8109ba	0.25202733
75	0xbdd87a74	-0.10570231
76	0xbf10ff56	-0.5663961
77	0xbee0c1ff	-0.43898007
78	0xbf1bbf69	-0.60838944
79	0xbbd375e2	-0.0064532617
80	0x3eb59213	0.35463008
81	0xbba01bae	-0.004886112
82	0xbf0568ca	-0.5211302
83	0xbe712053	-0.23547487
84	0xbe5055e2	-0.20345262
85	0xbdb7af75	-0.08969013
86	0x3ee9eda1	0.4568911
87	0x3da00209	0.07812888
88	0x3e400971	0.18753602
89	0xbed67eb3	-0.4189354
90	0x3eac198d	0.33613244
91	0x3c0b04f0	0.008485064
92	0x3dc87171	0.09787262
93	0x3dd92958	0.10603589
94	0xbdd31b00	-0.10307884
95	0xbdbe0feb	-0.0928038
96	0xbe60216c	-0.2188775
97	0xbeb1c9a6	-0.34724158
98	0x3ea57f0c	0.32323492
99	0x3c3859ad	0.011251849
100	0x3ddc2b2f	0.10750424
101	0x3f056743	0.5211069
102	0xbebb73ea	-0.36611873
103	0x3e9bf351	0.30459073
104	0x3eff92ac	0.4991659
105	0xbe8c903f	-0.274538
106	0x3f63c971	0.8897925
107	0x3e0af07a	0.13568297
108	0xbf042a8b	-0.51627415
109	0xbbc5bed6	-0.0060347123
110	0xbf08834d	-0.5332535
111	0xbf852398	-1.0401487
112	0x3e80473a	0.25054342
113	0x3dde7d72	0.108637705
114	0xbdb95b8d	-0.09050665
115	0x3d97e984	0.074175864
116	0xbfb6f7e6	-1.4294403
117	0xbf506f23	-0.8141958
118	0xbe8e0f0f	-0.27745864
119	0xbe41b5a0	-0.1891694
120	0x3e5f5c36	0.2181252
121	0xbdbf9885	-0.09355263
122	0x3e56a5a2	0.20961621
123	0xbef13157	-0.47107956
124	0xbea739e8	-0.32661366
125	0xbe1ccc23	-0.15312247
126	0xbebef479	-0.37295893
127	0x3e203753	0.15646105

weight f4 [64, 128]
0	0x3e4a40c0	0.19751263
1	0x3ee29e3b	0.44261345
2	0xbf1a34c7	-0.6023678
3	0x3b60dde6	0.003431195
4	0xbe2febe5	-0.1717983
5	0xbd6e3e78	-0.058165044
6	0x3e2a99f3	0.1666029
7	0x3db8300e	0.08993541
8	0xbd33b289	-0.043871436
9	0xbe1b716c	-0.15179986
10	0xbf56df39	-0.8393436
11	0xbda95639	-0.08268399
12	0xbe676f34	-0.22601014
13	0x3e97d669	0.2965577
14	0x3c4b2bad	0.01240055
15	0x3dc9eede	0.098600134
16	0x3e4d2ec9	0.20037378
17	0xbc9fe38b	-0.01951768
18	0x3e95769a	0.29192048
19	0xbe17b220	-0.14814043
20	0xbcfb4824	-0.030674048
21	0xbda7d7f5	-0.081954874
22	0xbcf4c49b	-0.029878905
23	0xbe956731	-0.2918029
24	0xbe82c46c	-0.25540483
25	0x3d80902b	0.06277498
26	0x3e55990d	0.20859165
27	0x3e2077fa	0.15670767
28	0x3e0ba762	0.1363807
29	0x3da57d63	0.08080556
30	0xbf314276	-0.69242036
31	0x3d562c3d	0.052288283
32	0xbdb6525a	-0.08902426
33	0xbf4f9667	-0.8108887
34	0x3e3d72e9	0.18500866
35	0xbedaced1	-0.42735913
36	0x3d6247a3	0.0552441
37	0x3cb4bad2	0.02206174
38	0xbbe8fb41	-0.00711003
39	0x3ce2600f	0.027633695
40	0x3d1c40a7	0.038147595
41	0xbd40fa51	-0.04711372
42	0x3de8c738	0.11366123
43	0xbc9df481	-0.019281628
44	0xbe1a7bba	-0.1508626
45	0xbdc5829a	-0.09644051
46	0x3df70a18	0.12062472
47	0x3df7b979	0.12095923
48	0xbd3a8c1d	-0.04554378
49	0xbde9b668	-0.11411744
50	0xbda084c9	-0.07837827
51	0x3d11309d	0.035446752
52	0x3e0febbb	0.14054768
53	0x3d1b2974	0.03788133
54	0x3e2edf38	0.17077339
55	0xbf427227	-0.7595543
56	0x3e8743ad	0.2641882
57	0x3ca10115	0.019653836
58	0xbdebc6d8	-0.11512536
59	0xbe8f4be5	-0.2798759
60	0xbdcd26e7	-0.10017186
61	0xbcadb790	-0.021205693
62	0xbf71745c	-0.94318175
63	0xba45777e	-0.00075327593
64	0x3de2883d	0.11061142
65	0x3cc65d43	0.024214393
66	0x3e00dae5	0.12583502
67	0xbbb2a581	-0.0054518585
68	0xbde5428d	-0.11194334
69	0xbdd873b6	-0.10568945
70	0x3e0a5b9e	0.13511512
71	0x3eb74c91	0.35800603
72	0xbe67fd97	-0.2265533
73	0xbe2926a8	-0.16518652
74	0xbe4fa111	-0.20276286
75	0x3e1aaa6f	0.15104078
76	0x3d0f1d5e	0.034940116
77	0xbe23bd1b	-0.15990107
78	0xbfcc9ac9	-1.5984737
79	0x3d3e039d	0.046390165
80	0x3dd74bfd	0.105125405
81	0x3d9618c9	0.07328946
82	0x3c0b0874	0.008485902
83	0x3d927138	0.07150501
84	0x3e81b840	0.25335884
85	0x3de1ab4c	0.110190004
86	0x3e4ce6f1	0.20009972
87	0xbdf88df8	-0.121364534
88	0xbe930627	-0.2871563
89	0xbcfb0aae	-0.03064474
90	0xbe1d77fb	-0.153778
91	0xbdb846ea	-0.08997901
92	0xbe5c83d3	-0.21534662
93	0x3d43c6b6	0.047796927
94	0x3e0a6d44	0.13518244
95	0x3e836fa4	0.25671113
96	0x3e7552cc	0.23957366
97	0x3ccf9638	0.025340185
98	0xbe129cb4	-0.1431759
99	0xbe8c78de	-0.27435964
100	0x3e2cdfcf	0.16882251
101	0x3d372411	0.04471213
102	0x3ca0c1af	0.019623606
103	0xbe5a27fb	-0.21304314
104	0xbd4d98e7	-0.050194647
105	0xbd55ac63	-0.052166354
106	0xbd9508b4	-0.072770506
107	0xbdc1a19f	-0.09454655
108	0x3edfa898	0.43683314
109	0x3d52eb6e	0.051494054
110	0x3de6638f	0.11249458
111	0xbe1e16b8	-0.15438354
112	0xbf3831ba	-0.71950877
113	0x3e834f37	0.25646374
114	0xbddb9b70	-0.10723007
115	0x3e1c2251	0.15247466
116	0x3d755a4b	0.059900563
117	0x3ce525a0	0.027972043
118	0x3c5a08bd	0.013307747
119	0xbd9b9ffd	-0.07598875
120	0xbf0dcdfb	-0.55392426
121	0x3e79789d	0.24362417
122	0x3bb3c816	0.0054864986
123	0x3e9d6d48	0.30747437
124	0xbf1e0d8f	-0.6173944
125	0xbda77a54	-0.08177629
126	0x3e223637	0.15840994
127	0xbde2b958	-0.11070508
128	0xbea66fb2	-0.32507092
129	0x3f1f3984	0.62197137
130	0xbcd6e30a	-0.026231308
131	0x3d804132	0.06262435
132	0x3f178d13	0.5919964
133	0xbf449936	-0.7679628
134	0xbd9881a6	-0.074466035
135	0x3cf7c50f	0.030245332
136	0xbdeccee3	-0.11562898
137	0xbda39e7d	-0.079892136
138	0x3d159fc3	0.036529314
139	0x3e5373d8	0.2064966
140	0xbd4de18c	-0.050263926
141	0x3e8dd19d	0.27698985
142	0xbeb10fe1	-0.34582427
143	0xbdf183cc	-0.117927164
144	0xbfb6decf	-1.4286746
145	0x3cd9df16	0.026595633
146	0x3e1ac63a	0.1511468
147	0xbc93c220	-0.018036902
148	0xbd96a1ab	-0.073550545
149	0xbeed2a1f	-0.46321198
150	0xbf070bb3	-0.52752227
151	0xbec01474	-0.37515604
152	0xbf063747	-0.52428097
153	0x3c8dcce2	0.01730961
154	0xbefb01d5	-0.49024835
155	0xbf847a66	-1.0349853
156	0xbdd2e54b	-0.102976404
157	0x3db5eeb2	0.08883418
158	0x3cf0bad1	0.029385956
159	0x3e0f7316	0.14008746
160	0x3f8e3a94	1.1111627
161	0x3de52928	0.111894906
162	0x3b3f4ce3	0.0029190115
163	0x3d5b53a6	0.05354657
164	0xbdd1f84d	-0.10252438
165	0x3e9b48e9	0.30329064
166	0xbe21d6fa	-0.15804663
167	0xbf9e9fc2	-1.2392504
168	0x3ce53282	0.027978186
169	0xbe569b8d	-0.20957775
170	0xbe32599e	-0.17416999
171	0xbd8dc278	-0.069218576
172	0xbeb74bce	-0.35800022
173	0x3cd1f2c7	0.02562846
174	0x3ef56be3	0.47933874
175	0x3f4d2294	0.8013089
176	0xbe42da48	-0.1902858
177	0x3f53463e	0.82529056
178	0x3dbe05f0	0.09278476
179	0x3c326127	0.010887421
180	0xbe7f58d4	-0.24936229
181	0xbe94af71	-0.290401
182	0x3f199c2a	0.6000391
183	0x3cf5c414	0.030000724
184	0x3eee9bb2	0.4660316
185	0x3cd94bbe	0.026525375
186	0x3dc827cc	0.09773216
187	0x3e2da4c2	0.16957381
188	0x3c4121a6	0.011787808
189	0xbee82b85	-0.45345703
190	0x3dd89898	0.1057598
191	0xbfb99793	-1.4499382
192	0x3a9d9490	0.0012022424
193	0x3e5aa2ce	0.21351168
194	0xbf12e0bc	-0.5737417
195	0xbe1deea9	-0.15423073
196	0x3e558278	0.20850551
197	0xbd850f6b	-0.06497081
198	0x3dcdc3d4	0.10047117
199	0x3eacf232	0.3377853
200	0xbee4ec17	-0.44711372
201	0xbea8549c	-0.32877052
202	0xbfaa4ff5	-1.3305651
203	0x3d2e503f	0.042556997
204	0xbed9cf33	-0.42540893
205	0xbe24fd94	-0.16112357
206	0x3b5e869b	0.0033954743
207	0x3d8cd2e7	0.06876164
208	0xbf216872	-0.63049996
209	0x3f14f4af	0.5818586
210	0xbff20553	-1.8907875
211	0xbd25ba9d	-0.04046117
212	0xbd5078a3	-0.0508963
213	0xbb9968fe	-0.0046817055
214	0xbe91f87a	-0.28509885
215	0x3d983c2a	0.074333504
216	0xbe88309f	-0.26599595
217	0xbeb4a9fb	-0.35285935
218	0xbe93e069	-0.2888215
219	0xbec35c11	-0.3815618
220	0xbdb93e9b	-0.09045144
221	0x3c836e3e	0.016043779
222	0x3e308972	0.17239931
223	0xbce6b04e	-0.02816024
224	0x3e86e1f2	0.26344258
225	0xbd29d095	-0.041458685
226	0xbeb79032	-0.358522
227	0x3e644f30	0.22295833
228	0xbe22efaf	-0.15911745
229	0xbf1a990c	-0.6038978
230	0x3e037962	0.12839273
231	0xbefe5280	-0.49672318
232	0xbee25a95	-0.44209734
233	0x3d7f69cb	0.06235675
234	0xbe89f4a4	-0.26944458
235	0x3d93d33c	0.07218024
236	0x3dc9b4d7	0.098489456
237	0xbc762dc4	-0.01502556
238	0xbe55bd0c	-0.20872897
239	0x3dd090e3	0.10183885
240	0x3ca9ab3c	0.020711534
241	0x3e96e1fe	0.29469293
242	0xbe0adafa	-0.13560095
243	0x3d56e7a2	0.052466996
244	0xbf16e2d6	-0.58939874
245	0xbf9f3d3b	-1.2440561
246	0xbef30d23	-0.4747096
247	0xc01f0c4d	-2.4851258
248	0xbd79f2f9	-0.061022732
249	0x3ede0cde	0.43369192
250	0xbddfdec8	-0.10931164
251	0x3cd922d9	0.026505874
252	0x3c37cdf3	0.011218536
253	0xbf08236b	-0.53179044
254	0x3efa056f	0.4883227
255	0xbe3f002b	-0.18652408

bias f4 [64]
0	0x3c09edde	0.008418528
1	0xbed19599	-0.40934446
2	0x3d69cd1b	0.05708037
3	0x3d3d0313	0.04614551
4	0xbea10ce6	-0.31455153
5	0xbec69be6	-0.38790816
6	0xbdecad20	-0.115564585
7	0xbd504560	-0.05084741
8	0x3e4ab626	0.19796047
9	0xbdae5215	-0.0851175
10	0xbe28bdbd	-0.1647863
11	0xbedf5442	-0.4361897
12	0x3e3a85aa	0.18215051
13	0xbeb45734	-0.3522278
14	0x3dabb134	0.08383408
15	0xbef4a22d	-0.4777998
16	0x3d8c21be	0.06842373
17	0xbc8895bc	-0.016672961
18	0xbe8b9962	-0.2726546
19	0x3d85b16d	0.06527982
20	0xbe0214f8	-0.12703311
21	0xbe23eca2	-0.16008237
22	0xbd9cc511	-0.07654775
23	0xbe4f9dd6	-0.20275053
24	0x3de8385f	0.11338877
25	0xbdef0b4a	-0.11672075
26	0xbde3bd8b	-0.11120137
27	0xbe3ca6c7	-0.18422996
28	0xbd86f96b	-0.065905415
29	0x3d24e493	0.040257048
30	0x3e8027bb	0.25030312
31	0xbdf20b6e	-0.11818586
32	0xbe68e367	-0.22742997
33	0x3b697c6d	0.0035627142
34	0xbe87d9fd	-0.265335
35	0x3d67ffcf	0.056640442
36	0xbd1c0528	-0.038090855
37	0x3e026b06	0.12736139
38	0xbe59c35d	-0.21265931
39	0xbdd39f95	-0.10333172
40	0xbb927e1b	-0.0044705993
41	0x3dd7a495	0.105294384
42	0xbe1fb6cf	-0.1559708
43	0x3ce964af	0.028490392
44	0xbe340542	-0.1758013
45	0xbe1cabee	-0.15299961
46	0x3cd2a596	0.025713723
47	0xbe980e8c	-0.29698598
48	0xbe56d357	-0.20979057
49	0x3cc4a75f	0.02400559
50	0xbdda53fd	-0.10660551
51	0xbe180067	-0.14843903
52	0x3dd5bd0c	0.104364485
53	0xbe1042fd	-0.14088054
54	0xbcfee51a	-0.031115104
55	0x3cffac95	0.031210223
56	0x3deef157	0.11667126
57	0xbd63f640	-0.055654764
58	0xbd90dad1	-0.07072986
59	0x3d68e582	0.0568595
60	0x3e02f649	0.12789263
61	0x3d91c8be	0.07118367
62	0x3dbb5592	0.091471806
63	0x3e0faeb9	0.14031495

weight f4 [9, 64]
0	0xbf50a3a5	-0.814997
1	0xbec2d4e3	-0.38053045
2	0x3f69a6ba	0.9127003
3	0x3f238350	0.6387224
4	0xbf053293	-0.52030295
5	0xbf5b975e	-0.85777843
6	0xbd8200c6	-0.06347804
7	0xbfa2df67	-1.2724427
8	0x3ef195ea	0.47184688
9	0xbf4ffec2	-0.81248105
10	0xbea7334d	-0.32656327
11	0xbd379ad3	-0.044825386
12	0xbee6c1d3	-0.4506975
13	0xbefc2f49	-0.49254826
14	0x3f385522	0.720049
15	0xbe648224	-0.2231527
16	0x3f814f34	1.0102296
17	0xbf3ac186	-0.72951543
18	0xbe250cbc	-0.16118139
19	0x3f4282c7	0.759808
20	0x3ec8e849	0.3923972
21	0x3ecf2b5f	0.40462777
22	0x3fb6d5e4	1.4284024
23	0xbf6b3308	-0.9187474
24	0x3d9d270d	0.07673464
25	0xbf496961	-0.7867642
26	0xbecca880	-0.39972305
27	0xbf7ae052	-0.97998536
28	0x3ea6c822	0.32574564
29	0x3f577665	0.8416503
30	0x3ef86d57	0.4852092
31	0xbf611db3	-0.8793594
32	0x3f194e0d	0.5988472
33	0x3da8c28f	0.08240234
34	0x3f3e1e4d	0.74264985
35	0xbee52b14	-0.44759429
36	0x3efdfd0f	0.4960713
37	0x3e89f746	0.26946467
38	0x3e0844f2	0.1330755
39	0xbd83f126	-0.0644248
40	0x3f357f73	0.708976
41	0x3f873391	1.0562612
42	0x3f31a317	0.6938948
43	0x3e6476d1	0.2231095
44	0x3caf924e	0.021432068
45	0xbeeb02d0	-0.45900583
46	0xbdd75ba7	-0.10515528
47	0xbf3ef112	-0.74586594
48	0xbf1af5c8	-0.6053128
49	0x3f5f543a	0.87237895
50	0xbed2a1d5	-0.41139093
51	0x3bbcfa11	0.005767115
52	0x3f1cda5e	0.612707
53	0xbf432d13	-0.7624065
54	0x3da9d297	0.0829212
55	0x3eef2f22	0.46715647
56	0x3ec85239	0.3912523
57	0xbcab58e7	-0.020916415
58	0xbf06b7b7	-0.52624077
59	0xbe912b0d	-0.28353158
60	0x3ed9b257	0.42518875
61	0x3ea49582	0.32145315
62	0xbe9776ad	-0.2958273
63	0x3f05f998	0.52333975
64	0xbe15dbe1	-0.14634658
65	0x3f4b4526	0.7940239
66	0x3c9236da	0.01784842
67	0xbd8373ca	-0.064185694
68	0xbdb0474c	-0.08607349
69	0x3f7befc8	0.9841275
70	0xbf6ab19c	-0.9167726
71	0xbe833167	-0.25623628
72	0x3f0eb89e	0.55750453
73	0xbe55c2bb	-0.20875065
74	0x3e992e7b	0.29918274
75	0xbed6cf4c	-0.4195503
76	0x3d01b7fe	0.03166961
77	0xbfaa36b0	-1.3297939
78	0x3e32d4ca	0.17463985
79	0xbc210be6	-0.009829497
80	0x3cd2621f	0.025681553
81	0xbdb880b0	-0.0900892
82	0x3ee6ee0d	0.45103493
83	0x3f8c7fc2	1.0976489
84	0x3ec9a3be	0.39382738
85	0xbf52551e	-0.8216113
86	0x3df008a7	0.117204
87	0x3daff098	0.085908115
88	0x3ee1ecda	0.44126016
89	0xbdfd3d98	-0.12365264
90	0x3e1a16fd	0.15047832
91	0x3eeb0387	0.4590113
92	0x3f5683fc	0.8379514
93	0x3d42cfca	0.047561444
94	0xbf01aa27	-0.50650257
95	0xbe64f311	-0.22358347
96	0xbf73f625	-0.9529746
97	0xbeaa38f9	-0.33246592
98	0x3f1fb49c	0.62384963
99	0x3f0f58cd	0.55994874
100	0x3e30ab92	0.17252949
101	0xbc8927a5	-0.016742537
102	0x3e5c41b0	0.21509433
103	0xbe9b53d1	-0.30337384
104	0xbd0f203b	-0.034942847
105	0x3e4977d1	0.19674613
106	0xbd740e84	-0.059584156
107	0xbeebb02e	-0.46032852
108	0x3e41ccd8	0.18925798
109	0xbe88112a	-0.26575595
110	0x3d67d854	0.05660279
111	0xbf5fc51e	-0.8741015
112	0x3d843948	0.06456238
113	0xbc33a55e	-0.01096472
114	0x3d01fd66	0.0317358
115	0xbeaa76f6	-0.33293885
116	0x3c48116d	0.012211186
117	0x3e718039	0.2358407
118	0x3edbaca0	0.4290514
119	0xbecb5028	-0.39709592
120	0xbd46a72b	-0.048499268
121	0xbed25258	-0.41078448
122	0xbf311263	-0.6916868
123	0xbf15d67e	-0.58530414
124	0x3e7e3ae4	0.24827152
125	0x3f506234	0.81399846
126	0x3f0aaa8c	0.54166484
127	0xbd945ba3	-0.07244041
128	0xbe0ec6ec	-0.1394307
129	0xbd6a7ef5	-0.057249982
130	0x3f09cc16	0.53827035
131	0x3e37e54a	0.1795856
132	0x3c6d6563	0.0144895045
133	0xbf066d3e	-0.5251044
134	0xbf071bef	-0.52777
135	0xbef72e52	-0.48277527
136	0x3e0981dc	0.13428444
137	0xbcd3a307	-0.025834573
138	0x3fa252a8	1.2681475
139	0x3e15ac17	0.14616428
140	0xbdcbfe83	-0.09960654
141	0xbed9f705	-0.42571273
142	0x3eafac05	0.34310928
143	0x3f34c3b2	0.7061111
144	0x3f11ec5a	0.5700127
145	0x3e102d20	0.14079714
146	0x3fb43c56	1.4080913
147	0xbdfc7b2f	-0.12328183
148	0xbf355d51	-0.70845515
149	0xbe174f70	-0.14776397
150	0xbf17c984	-0.59291863
151	0x3d863de4	0.065547734
152	0x3da93794	0.08262554
153	0x3ec27659	0.37980917
154	0x3d4acd17	0.049511995
155	0x3e35431f	0.17701386
156	0xbda0dda6	-0.07854776
157	0x3f862cf9	1.0482475
158	0xbd3948e5	-0.045235533
159	0xbd45e3c5	-0.04831292
160	0x3e4581f8	0.1928786
161	0xbf998281	-1.1992952
162	0xbf559dd6	-0.83443964
163	0x3e953ed5	0.291495
164	0xbee98144	-0.45606434
165	0xbe47f9c3	-0.1952887
166	0x3fa2fa95	1.2732722
167	0xbf0eb883	-0.5575029
168	0x3bc3255f	0.0059553827
169	0x3e2bb0fc	0.16766733
170	0x3e1853f3	0.14875774
171	0xbdb4a4ed	-0.088205196
172	0x3fc27ef8	1.5194998
173	0xbe1e5f44	-0.15466028
174	0x3f0d0564	0.5508635
175	0xbf2433a6	-0.6414131
176	0xbdfd50d9	-0.12368936
177	0xbf6ea948	-0.9322705
178	0xbfb6c642	-1.4279253
179	0x3ef303d2	0.47463852
180	0xbe982127	-0.29712793
181	0x3ee65a88	0.44990945
182	0x3f0ece59	0.5578361
183	0x3f650cf7	0.8947291
184	0x3d9717f7	0.07377618
185	0x3ecbc29f	0.39796922
186	0x3f73b244	0.95193887
187	0xbe56161d	-0.20906873
188	0xbedbc833	-0.42926177
189	0xbf65f7d5	-0.89831287
190	0x3e6af12c	0.22943562
191	0xbfadf5ee	-1.3590677
192	0xb4ceddb5	-3.8531803e-07
193	0x355206b1	7.8240834e-07
194	0xb442ecc4	-1.8153793e-07
195	0x350d99af	5.275023e-07
196	0xb4caf1ed	-3.7801456e-07
197	0x351ae995	5.770938e-07
198	0xb5e1fd9d	-1.6837618e-06
199	0xb509c151	-5.131779e-07
200	0xb461b69d	-2.1021192e-07
201	0xb5484d87	-7.4618623e-07
202	0x352b35ea	6.378092e-07
203	0x35034954	4.890801e-07
204	0xb3871bcd	-6.291484e-08
205	0x34fea296	4.7429484e-07
206	0xb3369aaa	-4.2515843e-08
207	0xb33d3de9	-4.40613e-08
208	0xb49fb1d1	-2.9745436e-07
209	0xb48a81b0	-2.5798863e-07
210	0x34f0dc3f	4.4863734e-07
211	0x34b10ff9	3.298044e-07
212	0xb3df2b4f	-1.03921245e-07
213	0x348e72e6	2.653316e-07
214	0xb5b93ac1	-1.3800674e-06
215	0x35073703	5.037147e-07
216	0xb39cb700	-7.2976036e-08
217	0x348e1c9b	2.6470374e-07
218	0xb4428b1b	-1.8118264e-07
219	0xb41b262e	-1.444939e-07
220	0x36033583	1.955167e-06
221	0xb4b6dbb6	-3.4060002e-07
222	0xb2762a97	-1.4328768e-08
223	0xb452808c	-1.9604539e-07
224	0xb59d2eb9	-1.171101e-06
225	0x352ea86d	6.5065143e-07
226	0x34515ab3	1.9497638e-07
227	0x35a0f0e0	1.1991033e-06
228	0xb47cdf96	-2.3550669e-07
229	0xb49b6c61	-2.8949856e-07
230	0xb3aeaf6d	-8.134416e-08
231	0x34397c65	1.7274722e-07
232	0x33054fc2	3.1039015e-08
233	0x351afe46	5.7739487e-07
234	0xb39db0b1	-7.343022e-08
235	0x33e1e3c4	1.0518809e-07
236	0x34e54601	4.2705508e-07
237	0x33e7dfd8	1.0797493e-07
238	0x357ef3c8	9.497712e-07
239	0x33319297	4.1344347e-08
240	0x33da4a6f	1.01649555e-07
241	0xb3a74ee8	-7.7908965e-08
242	0xb526c946	-6.213271e-07
243	0x359caef9	1.167383e-06
244	0xb4a141ac	-3.003637e-07
245	0x3515c29f	5.5790036e-07
246	0xb4029a99	-1.2163436e-07
247	0x348d0af9	2.627128e-07
248	0xb4569a21	-1.9986375e-07
249	0x341fc541	1.487979e-07
250	0xb6022f72	-1.9399126e-06
251	0xb3eb6b81	-1.0962595e-07
252	0xb316bf75	-3.5098726e-08
253	0x35adc744	1.2947498e-06
254	0x32943964	1.7255566e-08
255	0xb407c7e5	-1.2645576e-07

bias f4 [9]
0	0xbdcac6c8	-0.09901196
1	0x3d919eb9	0.07110352
2	0xbcdf5038	-0.027259931
3	0x34fc7478	4.70234e-07
4	0xb5d5d9f7	-1.5933173e-06
5	0xb5bb3886	-1.3949036e-06
6	0xb797d681	-1.8100489e-05
7	0xb5c3c603	-1.4586261e-06
8	0x35f73b50	1.8420196e-06
