onboard_codes/test_realsense/saved_models/old_models/estimator.pth (torch, 66007 bytes, 6 tensors)

weight f4 [128, 53]
-0.12505782 0.55934936 0.2667043 -0.84031135 2.355518 0.0833294 -0.051583935 0.08311124
-0.004535108 -0.13272871 0.026434692 0.58749837 0.7462123 0.7951636 0.060607176 0.15689978
-0.521733 -0.0042495723 0.26959643 0.11072381 -0.19431157 -0.43468907 0.6078933 0.285124
0.196186 -0.07529544 -0.052060474 -0.2091729 0.046791162 -0.10102346 0.015464541 -0.067753665
0.17351943 0.07927876 0.12880759 0.12699823 0.12759611 0.04036822 0.025736365 0.06082698
-0.04350917 -0.014613094 0.05723339 -0.021514947 0.06443983 -0.0067960112 0.040218975 0.1160597
-0.048067104 0.03238387 0.10795475 0.06537071 -0.06214686 -0.14295515 -0.29006076 -0.36666834
0.6809456 0.46301934 0.07415416 -0.20643069 -0.068631 -0.061278656 0.0015143116 -0.24304044
-0.010630017 -0.04509632 -0.26952374 -0.33796883 -0.49759388 0.44879553 0.7236856 1.0320804
0.2785594 0.05615036 0.50071865 -0.4916914 0.120812364 -0.45909038 0.10509536 -0.106385574
0.29506502 -0.096523106 -0.005190395 0.006977815 -0.11687175 -0.006021026 -0.28021067 0.228101
-0.61108667 -0.0135563165 0.08412827 -0.036298454 0.028952517 0.014402418 0.077023916 -0.08264045
0.14792086 0.16528532 0.056620732 0.032683056 -0.18770535 0.010732547 -0.15087606 0.19556011
0.4585557 -0.61656183 0.39214483 -0.855084 0.17811449 -0.14241196 0.23962785 -0.102555655
-0.03971472 -0.031728636 0.057760954 0.01986452 0.17842291 0.2857885 0.29064345 0.11548799
0.06749395 0.08008472 -0.106071025 -0.033652853 -0.023913603 0.22133778 -0.0044518164 0.1693133
-0.15979823 0.036715604 0.02850058 0.046455413 0.01208702 -0.031292237 0.06469408 0.12707187
-0.036237948 1.5637113 -4.4464445 -2.167301 0.040987194 0.08490874 0.018918151 0.015749186
-0.011233552 0.00044552435 -0.0035485832 0.0024669683 0.017569594 0.003979082 -0.015945746 -0.00397547
-0.012376598 -0.001766322 0.017606953 -0.00956941 -0.0077659646 -0.4482998 -0.0066354675 -0.28366733
-0.7271595 -0.4801963 0.017712917 -0.501728 -0.004689079 0.09582403 -0.121542536 -0.08488796
-0.08084913 -0.084408015 -0.46202573 -0.48786387 0.12079014 -0.12784256 0.07666164 0.1723346
-0.05976907 0.16029248 0.22143716 0.025423542 0.14107694 0.8203532 -0.79918694 -0.72674114
-0.2969992 0.20351738 -0.08169689 0.19205463 0.014057571 -0.087714426 -0.0995034 -0.03167254
-0.018328128 -1.8160274 0.44048506 4.84863 -0.023106027 -0.014761565 -0.020229686 0.026216937
-0.010857002 0.018373907 -0.027991224 -0.025770504 -0.007030602 -0.015129566 -0.043975923 0.023566201
-0.014156062 0.022835681 -0.08087979 0.2687157 0.17619324 0.15342128 -0.145994 0.08436568
-0.3276628 -0.090076976 -0.0065288125 0.020908989 -0.0038828235 -0.10246745 -0.23802999 -0.1963125
-0.15431194 0.06420792 -0.0697077 0.16394278 0.08167919 0.07125392 0.05227076 0.036485646
-0.93731207 -0.13532841 0.15433209 -0.046014544 0.03195453 -0.1376841 -0.010068634 -0.08001941
0.0699622 -0.12708636 -0.02579941 0.28534418 3.6320798 3.6999066 0.10361001 -0.042095102
-0.094302654 -0.02438664 0.019885737 -0.010278448 -0.008557931 0.0074640424 -0.01927972 -0.01244793
00000000: 280f 00be 8531 0f3f 778d 883e a51e 57bf
00000010: cfc0 1640 9ba8 aa3d ad49 53bd 3a36 aa3d
00000020: 3e9b 94bb 09ea 07be 918d d83c 4b66 163f
00000030: c507 3f3f d78f 4b3f 3b3f 783d 56aa 203e
00000040: 4b90 05bf ff3f 8bbb 8b08 8a3e 2ac3 e23d
00000050: 9df9 46be 918f debe e59e 1b3f c6fb 913e
00000060: fce4 483e 7f34 9abd 5d3d 55bd 6c31 56be
00000070: 17a8 3f3d 63e5 cebd fc5e 7d3c 6fc2 8abd
00000080: 14af 313e e75c a23d 23e6 033e d30b 023e
00000090: 8ea8 023e 2659 253d 12d5 d23c b625 793d
000000a0: ac36 32bd c26b 6fbc 8f6d 6a3d 1d40 b0bc
000000b0: 08f9 833d 13b1 debb a7bc 243d b5b0 ed3d
000000c0: 03e2 44bd f3a4 043d 6117 dd3d 14e1 853d
000000d0: b58d 7ebd d662 12be d882 94be f4bb bbbe
000000e0: 7352 2e3f df10 ed3e 23de 973d 9162 53be
000000f0: 698e 8cbd 54ff 7abd de7b c63a 98df 78be
00000100: 8629 2ebc ebb6 38bd 04ff 89be 400a adbe
00000110: a0c4 febe 87c8 e53e 7643 393f 361b 843f
00000120: 569f 8e3e ebfd 653d 192f 003f fabe fbbe
00000130: 796c f73d e50d ebbe 3c3c d73d aee0 d9bd
00000140: c312 973e e8ad c5bd 3014 aabb 28a6 e43b
00000150: 755a efbd 074c c5bb c677 8fbe 4f93 693e
00000160: 2d70 1cbf 501b 5ebc 714b ac3d b0ad 14bd
00000170: d42d ed3c 1ff8 6b3c b7be 9d3d 653f a9bd
00000180: 9178 173e 8e40 293e 24eb 673d abde 053d
00000190: d535 40be 91d7 2f3c 417f 1abe e940 483e
000001a0: d0c7 ea3e ffd6 1dbf 35c7 c83e c9e6 5abf
000001b0: a563 363e 71d4 11be 0161 753e b308 d2bd
000001c0: e7ab 22bd e3f5 01bd c096 6c3d ebba a23c
000001d0: 7fb4 363e df52 923e 38cf 943e f884 ec3d
000001e0: 453a 8a3d 7503 a43d c43b d9bd 93d7 09bd
000001f0: 76e6 c3bc 5fa6 623e 8be0 91bb 7760 2d3e
00000200: 26a2 23be 1a63 163d 0c7a e93c 0848 3e3d
00000210: a308 463c 4a2c 00bd 547e 843d 211f 023e
00000220: 3e6e 14bd b127 c83f 4649 8ec0 0fb5 0ac0
00000230: 30e2 273d a2e4 ad3d 3dfa 9a3c 7004 813c
00000240: ef0c 38bc 4495 e939 598f 68bb dcac 213b
00000250: 1cee 8f3c f662 823b a7a0 82bc a944 82bb
00000260: 37c7 4abc ee83 e7ba 753c 903c 04c9 1cbc
00000270: a279 febb 8d87 e5be 566e d9bb d83c 91be
00000280: 2027 3abf 4adc f5be ae1a 913c 3f71 00bf
00000290: d8a6 99bb 643f c43d 4beb f8bd bdd9 adbd
000002a0: 3b94 a5bd 1cde acbd a38e ecbe 4bc9 f9be
000002b0: d260 f73d 29e9 02be c700 9d3d 7b78 303e
000002c0: 6ad0 74bd b623 243e 6cc0 623e 0845 d03c
000002d0: 7976 103e ab02 523f 8497 4cbf b50b 3abf
000002e0: 4710 98be dc66 503e b350 a7bd f8a9 443e
000002f0: ba51 663c 9fa3 b3bd 70c8 cbbd 11bb 01bd
00000300: df24 96bc 9673 e8bf 4287 e13e fa27 9b40
00000310: da48 bdbc 7eda 71bc bab8 a5bc e7c4 d63c
00000320: 91e1 31bc e084 963c da4d e5bc aa1c d3bc
00000330: f760 e6bb 00e2 77bc 1920 34bd e80d c13c
00000340: d4ee 67bc e511 bb3c 4ea4 a5bd 1b95 893e
00000350: 006c 343e 781a 1d3e 737f 15be eac7 ac3d
00000360: 6bc3 a7be 477a b8bd a6ef d5bb 5449 ab3c
00000370: f876 7ebb 74da d1bd 22be 73be 2506 49be
00000380: f303 1ebe 717f 833d e9c2 8ebd 9ee0 273e
00000390: 6b47 a73d 93ed 913d dd19 563d f971 153d
000003a0: aff3 6fbf 8893 0abe 3b09 1e3e bf79 3cbd
000003b0: c1e2 023d 10fd 0cbe e9f6 24bc 37e1 a3bd
000003c0: 5848 8f3d ed22 02be 4959 d3bc a218 923e
000003d0: ff73 6840 45cb 6c40 7c31 d43d ea6b 2cbd
000003e0: c021 c1bd 7ec6 c7bc 6ae7 a23c f066 28bc
000003f0: 9036 0cbc ed94 f43b 81f0 9dbc 67f2 4bbc

bias f4 [128]
0.5171616 -0.049190633 0.22314908 -0.25690767 -0.10199888 -0.13763015 -0.31226286 0.072481774
0.05401801 0.14538975 0.108740285 -0.24864176 -0.26453805 0.045311432 -0.27990153 0.12293506
-0.5229468 -0.32567117 -0.43038514 -0.4290503 0.15758805 0.2236681 0.2729584 -0.41225597
0.09727013 0.10023933 -0.19853798 0.25431162 -0.17909622 -0.19223008 -0.48176837 0.15359876
-0.26021948 0.34045285 0.25973794 0.36329186 0.14569733 -0.20769244 -0.026674742 0.64402944
0.08684253 0.22069965 -0.19276762 0.17014839 0.1633708 0.24705711 0.07983964 -0.34235096
-0.037887894 -0.39875504 0.16438058 0.36414254 -0.091049306 0.25980857 0.935318 -0.110995024
0.09026132 -0.32855144 -0.24694034 -0.01927526 0.7226341 0.5357623 -0.99933875 -0.32584596
-0.5346012 0.12723012 0.24291989 -0.30527562 -0.24092156 -0.09786942 -0.15311624 0.6275139
-0.40722704 -0.3540001 0.23807502 -0.28627634 0.22343484 -0.052368358 -0.3299613 -0.1758413
-0.28182834 0.07429289 -1.3461059 0.2557876 -0.6393757 0.031282455 0.09927491 0.5568639
-0.19532315 0.30066967 0.39551872 -0.3902942 0.049114417 -0.17827135 0.1126281 0.039389543
-0.12186888 0.12700705 -0.4346095 -0.6884694 0.16519666 -0.026896162 0.12948123 0.5107766
0.045666553 -0.5767966 1.0512584 0.2434424 -0.28190917 -0.76442885 -0.2638644 -0.19386864
0.1788082 0.12838106 -0.018858153 0.43394294 -0.049853478 -0.39340815 -0.70969677 0.21825989
0.39275897 -1.2558945 -0.3272992 0.33627012 -0.8217603 -0.16110557 -0.37148306 -0.119169295
00000000: b464 043f 1e7c 49bd 3181 643e 6789 83be
00000010: cae4 d0bd ebee 0cbe ebe0 9fbe 5371 943d
00000020: fd41 5d3d 0de1 143e 3ab3 de3d f29b 7ebe
00000030: 8871 87be 7b98 393d 414f 8fbe 60c5 fb3d
00000040: d7df 05bf 5fbe a6be 715b dcbe 7bac dbbe
00000050: c35e 213e 4009 653e 34c1 8b3e 3713 d3be
00000060: 9035 c73d 474a cd3d 8a4d 4bbe 2235 823e
00000070: 0065 37be f6d7 44be 58aa f6be fe48 1d3e
00000080: 7d3b 85be d64f ae3e 5ffc 843e 6401 ba3e
00000090: ae31 153e 54ad 54be fd84 dabc 1ddf 243f
000000a0: 7fda b13d 17ff 613e e064 45be 613b 2e3e
000000b0: ad4a 273e 8afc 7c3e f782 a33d a048 afbe
000000c0: 5630 1bbd 9f29 ccbe 6253 283e e470 ba3e
000000d0: 0f78 babd a105 853e 0071 6f3f 5c51 e3bd
000000e0: edda b83d e537 a8be eedd 7cbe 26e7 9dbc
000000f0: 8cfe 383f b827 093f aad4 7fbf 48d5 a6be
00000100: a0db 08bf 9d48 023e febf 783e 164d 9cbe
00000110: 24b4 76be c36f c8bd 81ca 1cbe c0a4 203f
00000120: 1080 d0be 803f b5be f0c9 733e d092 92be
00000130: 1acc 643e 3480 56bd b0f0 a8be be0f 34be
00000140: ce4b 90be df26 983d 334d acbf 98f6 823e
00000150: 20ae 23bf 0822 003d a550 cb3d a28e 0e3f
00000160: cb02 48be 60f1 993e 6e81 ca3e a4d4 c7be
00000170: 332c 493d c48c 36be 90a9 e63d ee56 213d
00000180: 6496 f9bd 230e 023e 2385 debe 883f 30bf
00000190: 5029 293e 5755 dcbc ba96 043e 41c2 023f
000001a0: da0c 3b3d f1a8 13bf a38f 863f f748 793e
000001b0: 6656 90be 9cb1 43bf 3c19 87be 8085 46be
000001c0: 7f19 373e 5376 033e 6a7c 9abc c52d de3e
000001d0: 2933 4cbd cb6c c9be b0ae 35bf 857f 5f3e
000001e0: b417 c93e 27c1 a0bf c393 a7be 992b ac3e
000001f0: e25e 52bf dcf8 24be 0733 bebe 080f f4bd

weight f4 [64, 128]
-0.16001472 0.028969554 -0.043763332 0.08031605 -0.10589382 -0.049960382 0.02136182 0.079836704
-0.12966533 0.015237306 -0.06531124 -0.46560594 0.008316289 -0.13649534 -0.11992118 -0.2682149
-0.5740101 0.051232737 0.10133532 0.2321518 -0.037969124 0.31037262 0.12956782 -0.13447198
-0.10251471 -0.02322009 0.19552037 -0.09933574 -0.46335733 0.08751481 -0.24280447 0.15118487
-0.01678069 -0.25832412 -0.2207948 -0.2236462 0.004984295 -0.11587739 0.04340222 -0.016523434
0.17665167 0.062978335 -0.19936857 -0.29500547 0.07406815 0.13164447 -0.13192752 0.38045394
-0.10462905 -0.10711541 0.025471577 0.1476063 -0.035840847 -0.046996135 0.034469686 0.25590837
-0.017992165 -0.23558782 -0.101707585 -0.1839103 0.042128485 0.019038437 0.018777264 -0.08079085
0.31788015 0.020649744 -0.3287109 -0.1484785 -0.2605535 0.053640563 -0.31219426 -0.04836207
0.33204928 -0.2598517 0.034718737 0.059119537 0.20361628 0.18578947 -0.16213767 0.2947234
-0.008354258 -0.27628532 -0.04733649 -0.3613506 -0.099993065 0.049386106 0.16445191 -0.35771376
-0.13751213 -0.016647622 0.013086712 0.09593757 0.24996947 -0.38791308 -0.12754506 -0.3356817
-0.003503819 -0.1062598 0.0066965274 0.018875012 0.1514499 -0.076310344 0.08680304 -0.0075696995
0.24780466 0.10956247 -0.05464625 0.041435163 -0.0118184 -0.006631293 -0.067094386 -0.103747696
-0.039231177 0.065522596 0.036516163 -0.24747786 -0.07628972 -0.016462285 0.047140755 0.11582836
-0.3289688 -0.005276244 0.07442069 0.05416795 -0.009940496 0.07940219 0.030610275 -0.16697347
0.10935755 -0.028780678 0.12286017 -0.10402965 -0.77869475 -0.06816975 0.16073991 0.081457555
0.15347324 -0.102000155 -0.08229522 0.0024403825 -0.025996804 -0.08979278 0.36844942 0.08857265
0.08364417 -0.22827132 -0.0559026 -0.06552255 0.1433907 -0.021269564 -0.092833206 0.24269947
0.14433165 0.14254245 -0.0011106367 -0.08988964 -0.20793304 0.0841496 -0.19392444 -0.30420256
0.06409159 -0.27413395 0.39207685 -0.24593107 -0.1803479 0.50108844 0.1758813 0.061787203
-0.053862218 0.0675535 0.05817418 0.102633044 -0.0290333 0.09040038 0.007853459 0.019480942
-0.060713764 0.025327366 -0.08238755 0.20823458 0.29809514 -0.06324777 0.08772579 -0.14079554
0.59083486 -0.042680316 0.07000794 0.15164538 0.4269532 -0.1862749 -0.030031664 -0.054283977
0.06903247 0.19443323 -0.10721097 0.021062056 -0.042963844 -0.0065195956 0.04221073 0.20325775
0.2535143 -0.035861205 0.056955487 -0.11885664 0.034786064 -0.053103864 -0.23306648 0.18644232
1.0249821 -0.08826167 0.324684 -0.14157322 -0.28925171 0.021579381 -0.07713267 -0.023140011
-0.20645957 0.0046848035 0.28520235 -0.020139646 0.20269881 -0.110763095 -0.07890469 -0.03684761
-0.052437752 0.4640834 0.34679785 0.031153347 0.17099386 -0.12786481 0.0048890957 -0.01321786
0.26624715 0.0389384 -0.08845286 0.18834272 0.03487876 -0.016711405 -0.045365874 0.103468895
0.61248916 -0.12677896 -0.037658267 0.0736572 -0.035070144 -0.045437604 -0.09237016 -0.10433587
0.10484146 -0.04763772 -0.20859778 -0.0032919627 0.58092916 0.053064197 -0.1446321 0.04917865
00000000: e6da 23be 8f51 ed3c 2e41 33bd be7c a43d
00000010: dcde d8bd 42a3 4cbd fcfe ae3c 6d81 a33d
00000020: fdc6 04be e5a5 793c e6c1 85bd e763 eebe
00000030: 0b41 083c 6fc5 0bbe 3c99 f5bd 7753 89be
00000040: 53f2 12bf 6bd9 513d e488 cf3d 34b9 6d3e
00000050: 8385 1bbd 29e9 9e3e 6dad 043e 06b3 09be
00000060: 3bf3 d1bd 0f38 bebc 7e36 483e 8970 cbbd
00000070: 2c3d edbe f73a b33d bca1 78be 35d0 1a3e
00000080: a877 89bc 0f43 84be 0818 62be 8203 65be
00000090: 4c53 a33b 2051 edbd 87c6 313d 275c 87bc
000000a0: 2de4 343e c9fa 803d 4627 4cbe f50a 97be
000000b0: 0bb1 973d cfcd 063e 0218 07be dcca c23e
000000c0: c147 d6bd 535f dbbd c5a9 d03c 1b26 173e
000000d0: dacd 12bd 057f 40bd 1630 0d3d 6c06 833e
000000e0: 4e64 93bc ef3d 71be 114c d0bd fb52 3cbe
000000f0: eb8e 2c3d 7ff6 9b3c c7d2 993c ac75 a5bd
00000100: 30c1 a23e a729 a93c cc4c a8be bf0a 18be
00000110: 4567 85be 35b6 5b3d edd7 9fbe 4e17 46bd
00000120: 5d02 aa3e 480b 85be 3c35 0e3d 5427 723d
00000130: c980 503e 983f 3e3e 6b07 26be fce5 963e
00000140: 4ce0 08bc 4575 8dbe e8e3 41bd f202 b9be
00000150: 2ac9 ccbd 1649 4a3d 1566 283e 4226 b7be
00000160: fbcf 0cbe 9860 88bc a669 563c eb7a c43d
00000170: fff7 7f3e 8b9c c6be 2c9b 02be 79de abbe
00000180: 54a0 65bb bd9e d9bd 8b6e db3b c59f 9a3c
00000190: af15 1b3e 9948 9cbd cbc5 b13d 3e0b f8bb
000001a0: 81c0 7d3e 4a62 e03d bfd4 5fbd ebb7 293d
000001b0: f6a1 41bc 514b d9bb c868 89bd ac79 d4bd
000001c0: dfb0 20bd b630 863d f991 153d d66a 7dbe
000001d0: c93d 9cbd eadb 86bc aa16 413d 6b37 ed3d
000001e0: 996e a8be 58e4 acbb e069 983d 36df 5d3d
000001f0: 76dd 22bc 9e9d a23d 66c2 fa3c 18fb 2abe
00000200: daf6 df3d 75c5 ebbc 1d9e fb3d 7f0d d5bd
00000210: 8a58 47bf 959c 8bbd 0199 243e 38d3 a63d
00000220: 1728 1d3e 75e5 d0bd 658a a8bd d3ee 1f3b
00000230: 40f7 d4bc 47e5 b7bd 67a5 bc3e 9465 b53d
00000240: a24d ab3d f5bf 69be 20fa 64bd b030 86bd
00000250: 03d5 123e 823d aebc 561f bebd 3686 783e
00000260: adcb 133e a6f6 113e c992 91ba 0f18 b8bd
00000270: 66ec 54be a056 ac3d 2194 46be 70c0 9bbe
00000280: 7442 833d 495b 8cbe 4cbe c83e 5bd5 7bbe
00000290: 1fad 38be 5547 003f 3a1a 343e 9414 7d3d
000002a0: a19e 5cbd 7d59 8a3d 0d48 6e3d 4631 d23d
000002b0: 3ed7 edbc d623 b93d cbab 003c 7f96 9f3c
000002c0: ffae 78bd 567b cf3c ceba a8bd 723b 553e
000002d0: ed9f 983e 0c88 81bd 94a9 b33d b52c 10be
000002e0: f440 173f 8ed1 2ebd 5360 8f3d ed48 1b3e
000002f0: 9c99 da3e d9be 3ebe f704 f6bc e058 5ebd
00000300: e560 8d3d 8119 473e 6d91 dbbd 558a ac3c
00000310: dbfa 2fbd 55a2 d5bb 29e5 2c3d cd22 503e
00000320: a0cc 813e 33e3 12bd 284a 693d 1c6b f3bd
00000330: d57b 0e3d 7083 59bd fba8 6ebe bcea 3e3e
00000340: 9d32 833f 89c2 b4bd fb3c a63e 92f8 10be
00000350: cd18 94be 3ec7 b03c bcf7 9dbd 1f90 bdbc
00000360: 236a 53be fb82 993b 0b06 923e e6fb a4bc
00000370: 4790 4f3e c3d7 e2bd c898 a1bd 85ed 16bd
00000380: f8c8 56bd 579c ed3e 7d8f b13e 4e35 ff3c
00000390: 0419 2f3e feee 02be b534 a03b b98f 58bc
000003a0: 8c51 883e df7d 1f3d c626 b5bd eadc 403e
000003b0: 08dd 0e3d 5be6 88bc 91d1 39bd 80e7 d33d
000003c0: 17cc 1c3f 58d2 01be 8e3f 1abd 96d9 963d
000003d0: b6a5 0fbd c81c 3abd 912c bdbd 0bae d5bd
000003e0: 1fb7 d63d c51f 43bd a89a 55be f8bd 57bb
000003f0: c6b7 143f d859 593d 701a 14be 8d6f 493d

bias f4 [64]
0.087938555 -0.052882846 0.09267829 -0.26750985 -0.19841458 -0.22726297 -0.026433405 -0.48435375
-0.06363301 -0.016186005 0.026668929 -0.21847734 0.14814518 0.009317051 -0.04861902 -0.14046663
-0.015682114 -0.1523374 -0.045432985 -0.047489766 -0.1167088 -0.028229572 0.08748393 -0.08657673
-0.28155264 0.18831179 -0.35435984 -0.1612114 0.120817296 0.11285413 -0.07923712 -0.026076183
0.17363834 0.19216284 -0.3079634 -0.12016753 -0.06074934 -0.012042996 -0.3527101 -0.5685655
0.08328169 0.0839587 -0.10813519 -0.12736106 0.09490042 -0.038435183 0.013569145 -0.0625299
-0.16678318 0.08686419 -0.4407501 -0.17906967 -0.20279694 -0.050834727 -0.16342452 -0.062434472
-0.17733562 -0.07096383 0.07794119 -0.1354986 -0.020334458 -0.09206033 0.0048973565 -0.08236773
00000000: 2119 b43d af9b 58bd 1ece bd3d 0df7 88be
00000010: 312d 4bbe a0b7 68be de8a d8bc 37fd f7be
00000020: 0652 82bd 8398 84bc cc78 da3c 86b8 5fbe
00000030: 5fb3 173e 8ba6 183c bd24 47bd 7cd6 0fbe
00000040: c777 80bc 56fe 1bbe f017 3abd a184 42bd
00000050: 0605 efbd b441 e7bc c62a b33d 244f b1bd
00000060: ab27 90be ced4 403e a76e b5be 9a14 25be
00000070: 0f6f f73d 1120 e73d 1247 a2bd b89d d5bc
00000080: 40ce 313e 56c6 443e 61ad 9dbe 651a f6bd
00000090: 4dd4 78bd fc4f 45bc 6b96 b4be 828d 11bf
000000a0: 978f aa3d 8af2 ab3d fc75 ddbd f06a 02be
000000b0: 275b c23d 366e 1dbd 1f51 5e3c ad0f 80bd
000000c0: 36c9 2abe dae5 b13d ffa9 e1be 0a5e 37be
000000d0: 00aa 4fbe 1338 50bd c258 27be 4abb 7fbd
000000e0: 7897 35be 7c55 91bd a19f 9f3d 25c0 0abe
000000f0: 7394 a6bc 208a bcbd 017a a03b 6ab0 a8bd

weight f4 [9, 64]
0.0045393077 -0.8915251 0.34479883 0.12543759 -0.49852893 0.11784961 -0.47300553 -0.7812232
-0.19384514 -0.39646652 -1.0411832 -0.38362247 -0.6628892 0.407819 0.34748337 -0.164043
-0.07958137 -0.94924027 -0.008806516 0.9966681 -0.10880058 -0.07186811 0.88344747 -0.88670737
0.39040187 -0.041541453 -0.04671367 -0.47525018 0.3407346 0.5423439 -0.0215203 -1.0703784
0.7416402 0.8710764 0.39069498 -0.8306512 1.2042638 0.9574565 -0.6474059 0.0068297973
0.18294862 0.37096 0.88087946 -0.20234156 0.38277602 -0.4817302 -0.80244726 0.101816185
0.14473893 0.89854574 -0.4197945 -1.2456552 1.1099354 0.13997886 0.69214755 0.6702986
0.034191497 -0.039328557 -0.1264542 -0.3517084 0.45735517 0.0049990145 0.03618349 0.645628
0.3143471 0.21081424 0.21387476 0.17406814 -0.2471939 -0.30806667 -0.11614405 0.11022043
0.18625751 -0.13156818 -0.31352586 -0.82466304 0.16245042 -0.9609853 -0.054604128 0.25717258
-0.3887484 -0.47797674 0.13712074 -0.03176696 1.3756428 -1.0553862 -0.45483696 -0.29109952
1.0843718 -0.6918223 0.5714501 0.26715767 0.14740953 -0.19730513 -0.5733026 -0.009291007
-0.10570739 -0.32894576 0.3467542 0.33153483 -0.0835437 -0.14234453 -0.0033479633 0.7984036
-0.040187184 0.45787477 -0.2332183 -0.04792146 0.5932142 -0.10919629 0.2608111 -0.29015002
0.74305224 0.043669313 0.85342515 -0.34472945 -0.099308506 0.261258 0.34773177 -0.78362626
-0.091243684 -0.22193174 -0.14407149 -0.4410361 -0.041349094 0.079008676 1.2030334 -0.012938027
-0.7069768 -0.38043576 0.3383721 0.061252486 0.182736 -0.96054775 -0.44149914 -0.37657195
0.64355445 -0.25618988 -0.77019787 -0.326802 -0.10049374 -0.1657154 0.1461108 1.1455297
0.93820596 0.18927266 0.5166928 0.02045687 0.444826 -0.4755914 -0.41577768 -0.10486056
-0.43209285 0.037299823 -0.009697713 0.19172442 -0.33928174 0.09788237 -0.120821156 -0.23164423
0.3592471 -0.1660075 -0.94375515 0.14499709 0.3009308 -0.8314061 0.8549123 -0.081144504
-0.43100935 -0.12462929 0.123021364 -0.7270198 -0.034657218 0.010422155 -0.12555088 -0.9448798
-0.095679656 0.18042858 0.13562424 -0.4223345 0.0074913446 1.2776093 0.47966602 0.51100415
1.4703847 1.2451327 0.87487733 0.122470334 -0.11740796 -0.89894235 0.2575148 -0.7730737
2.2061483e-06 -3.091337e-06 -1.9762151e-06 4.631978e-06 3.1542818e-06 4.9281102e-06 -2.8773874e-07 5.1505868e-08
-2.7291303e-06 -1.955629e-06 2.5241602e-06 4.1875064e-06 2.1800211e-07 1.9916645e-06 -4.8227157e-06 2.8489821e-06
4.8322963e-06 2.6927357e-06 3.063041e-06 2.2015254e-06 2.3188152e-06 2.3290384e-06 -1.2316029e-06 2.5906493e-06
2.8676352e-06 3.3194765e-06 1.508289e-06 -2.1078627e-06 3.1426387e-06 -2.6990856e-06 3.2942085e-06 2.575638e-06
2.9476237e-06 -2.8423988e-06 3.6857007e-06 3.5898468e-06 2.395015e-06 2.9860635e-06 1.5023895e-06 2.4017638e-06
9.687777e-07 -8.360432e-06 1.4870933e-06 2.4192716e-06 3.1905874e-06 -2.9585995e-06 -2.1355754e-06 1.995643e-06
3.2799849e-06 -2.3337543e-06 3.367205e-06 4.189782e-06 4.4056624e-06 3.4386999e-06 8.965189e-06 2.7717413e-06
3.3715016e-06 6.1421247e-07 1.0428342e-06 -5.1249403e-06 4.757532e-06 2.7505941e-06 4.013138e-06 1.8696866e-06
00000000: 79be 943b fd3a 64bf 7989 b03e b672 003e
00000010: 2f3f ffbe 235b f13d c82d f2be 3efe 47bf
00000020: 577f 46be a9fd cabe 7e45 85bf 2a6a c4be
00000030: 1bb3 29bf a7cd d03e 57e9 b13e e3fa 27be
00000040: 8ffb a2bd 6901 73bf 3549 10bc a425 7f3f
00000050: d7d2 debd 962f 93bd 9d29 623f 41ff 62bf
00000060: c1e2 c73e 5f27 2abd d556 3fbd fe53 f3be
00000070: c474 ae3e 0dd7 0a3f 574b b0bc 2902 89bf
00000080: 22dc 3d3f ddfe 5e3f 2c09 c83e 8fa5 54bf
00000090: 5125 9a3f df1b 753f 65bc 25bf 7ecc df3b
000000a0: e256 3b3e 78ee bd3e 5181 613f a032 4fbe
000000b0: 38fb c33e 57a5 f6be 2f6d 4dbf 0185 d03d
000000c0: 7136 143e 1807 663f 4eef d6be a171 9fbf
000000d0: 5d12 8e3f 9e56 0f3e 9530 313f b098 2b3f
000000e0: 620c 0c3d fb16 21bd 367d 01be 2013 b4be
000000f0: 752a ea3e c6ce a33b 2435 143d e047 253f
00000100: 1af2 a03e b0df 573e fc01 5b3e eb3e 323e
00000110: 6620 7dbe eaba 9dbe efdc edbd 40bb e13d
00000120: 4aba 3e3e cfb9 06be 7686 a0be 1e1d 53bf
00000130: 6759 263e 2203 76bf 94a8 5fbd 20ac 833e
00000140: 080a c7be 5eb9 f4be 6169 0c3e 121e 02bd
00000150: 1015 b03f e516 87bf 64e0 e8be ff0a 95be
00000160: b2cc 8a3f 441b 31bf 8e4a 123f e4c8 883e
00000170: 86f2 163e 5b0a 4abe f6c3 12bf 4f39 18bc
00000180: 1e7d d8bd 946b a8be c489 b13e efbe a93e
00000190: f618 abbd c4c2 11be 8169 5bbb 2e64 4c3f
000001a0: 519b 24bd 906e ea3e c7d0 6ebe 4b49 44bd
000001b0: e3dc 173f 4ea2 dfbd 0889 853e 8b8e 94be
000001c0: ac38 3e3f 98de 323d 127a 5a3f 6180 b0be
000001d0: 4262 cbbd 9cc3 853e e609 b23e bb9b 48bf
000001e0: f8dd babd 1342 63be 7a87 13be 7ccf e1be
000001f0: ab5d 29bd 4dcf a13d 00fd 993f 05fa 53bc
00000200: 6efc 34bf 7ac8 c2be 1c3f ad3e e3e3 7a3d
00000210: 251f 3b3e 75e6 75bf 2d0c e2be 0ace c0be
00000220: fcbf 243f 522b 83be b02b 45bf 9752 a7be
00000230: a9cf cdbd 4cb1 29be 129e 153e b8a0 923f
00000240: 442e 703f b1d0 413e fb45 043f 2a95 a73c
00000250: 3cc0 e33e b780 f3be d0e0 d4be 22c1 d6bd
00000260: 463b ddbe b3c7 183d 28e3 1ebc 6853 443e
00000270: 56b6 adbe 8d76 c83d 1571 f7bd 2534 6dbe
00000280: 3cef b73e dffd 29be f099 71bf 1e7a 143e
00000290: 9a13 9a3e 08d7 54bf 88db 5a3f 172f a6bd
000002a0: 42ad dcbe a43d ffbd a0f2 fb3d f81d 3abf
000002b0: baf4 0dbd b0c1 2a3c 6990 00be a4e3 71bf
000002c0: b2f3 c3bd 45c2 383e 15e1 0a3e 3a3c d8be
000002d0: f479 f53b b488 a33f c996 f53e 2bd1 023f
000002e0: 9135 bc3f 8260 9f3f f6f7 5f3f bad1 fa3d
000002f0: 9673 f0bd 1621 66bf fbd8 833e 28e8 45bf
00000300: 570d 1436 c474 4fb6 1e9f 04b6 636c 9b36
00000310: 26ae 5336 255c a536 837a 9ab4 4d37 5d33
00000320: 1a26 37b6 733d 03b6 be64 2936 6882 8c36
00000330: f713 6a34 89a8 0536 d0d2 a1b6 2431 3f36
00000340: 1c25 a236 d9b4 3436 a58e 4d36 ebbd 1336
00000350: f19c 1b36 934c 1c36 8e4d a5b5 04db 2d36
00000360: 9971 4036 2cc4 5e36 6a70 ca35 ce74 0db6
00000370: 1fe6 5236 f021 35b6 1212 5d36 20d9 2c36
00000380: cacf 4536 0ac0 3eb6 db57 7736 19e9 7036
00000390: 0bba 2036 2e64 4836 b6a5 c935 fd2d 2136
000003a0: f306 8235 c843 0cb7 2398 c735 c55a 2236
000003b0: e01d 5636 5a8c 46b6 e850 0fb6 e3ec 0536
000003c0: b61d 5c36 989d 1cb6 24f8 6136 f495 8c36
000003d0: 5ad4 9336 6ac4 6636 3269 1637 2702 3a36
000003e0: f541 6236 5ce0 2435 83f7 8b35 e7f6 abb6
000003f0: e4a2 9f36 d996 3836 98a8 8636 f1f1 fa35

bias f4 [9]
-0.048708588 0.13080814 -0.24432759 -2.61359e-06 -4.837599e-07 9.660597e-07 6.017957e-06 -3.5966964e-06
2.516826e-06
00000000: a882 47bd 92f2 053e 0331 7abe 2265 2fb6
00000010: badb 01b5 8fa9 8135 dbed c936 c65e 71b6
00000020: bee6 2836
