onboard_codes/test_realsense/saved_models/models_ori_terrain/estimator.pth (torch, 66007 bytes, 6 tensors)

weight f4 [128, 53]
000000 87 b5 6b 3d a3 96 cf 3f 6a f8 8b 3d d6 18 25 3f
       0.057546165 1.6217846 0.068344906 0.6449102
000010 be 7e 46 3f 9b a8 aa 3d a2 be 43 bb 64 7c ee 3c
       0.77537143 0.0833294 -0.0029868265 0.029112048
000020 3e 9b 94 bb 09 ea 07 be 59 9c ca 3c 85 09 97 3e
       -0.004535108 -0.13272871 0.024732755 0.2949945
000030 d4 9f c0 3e a4 75 59 be d5 b0 4a 3c 26 e9 78 be
       0.3762194 -0.21236283 0.012371262 -0.24307689
000040 41 bf 44 3f d7 d7 b2 bd 8e 55 76 bd 59 70 1e 3e
       0.7685433 -0.087325744 -0.060140185 0.15472545
000050 41 77 71 3d bc 57 0a bd 7a 0c e2 3e 4e ab f9 3d
       0.05895162 -0.033775076 0.44150144 0.12190877
000060 35 9f a7 bd 9d 91 4c 3e d1 1e df 3e b5 6d f9 3d
       -0.08184663 0.19977422 0.435782 0.12179128
000070 63 f1 58 3e e4 83 2a 3e d0 20 00 3e 97 7c 23 be
       0.21185832 0.16651875 0.12512517 -0.15965496
000080 1d cc b3 3d fd 22 99 3d 6d ae f8 3e 37 c2 c1 3e
       0.08779166 0.074773766 0.48570576 0.37843487
000090 40 0a 4b 3d ca cf a4 bc f9 1a 6e bd f2 07 6c bb
       0.049570322 -0.020118613 -0.058131192 -0.0036015478
0000a0 7c 2c 35 be 48 fb 7e 3d f6 95 c8 3c c4 a8 29 bd
       -0.1769275 0.06225136 0.02448557 -0.041420713
0000b0 11 d3 e8 bb 99 0f 12 3d 38 74 8b bd 6c df ea bb
       -0.007105239 0.035659406 -0.06809276 -0.0071677472
0000c0 65 7d 54 3d 22 f0 63 3d 4a eb 10 3e 80 29 10 3e
       0.051877398 0.05564893 0.14152256 0.14078331
0000d0 00 64 1e 3e 80 06 f6 3f 92 b9 a1 3f 60 50 93 3e
       0.15467834 1.9220734 1.2634757 0.2877226
0000e0 c9 00 46 bf a1 90 a9 bd 23 de 97 3d 75 11 ba 3d
       -0.7734495 -0.08279539 0.07415416 0.09085361
0000f0 68 fa 2f be 54 ff 7a bd de 7b c6 3a d9 73 ce be
       -0.17185366 -0.061278656 0.0015143116 -0.4032276
000100 a6 a9 06 bf 9a 40 ce be 3b d3 8c 3e 2d 48 01 be
       -0.5260261 -0.40283662 0.27504906 -0.12625189
000110 5d 89 e9 3f 5e a0 0e 3d 45 93 2e 3e 81 bf 4c bc
       1.8245045 0.034820907 0.17048366 -0.01249683
000120 00 b9 ed 3d e6 bd 81 be 77 4c e1 3d 5c ab 23 3f
       0.116075516 -0.25340194 0.11000913 0.6393335
000130 f1 33 40 be 85 d1 e6 3d ba f1 14 41 49 4f a3 40
       -0.18769814 0.112704314 9.309015 5.1034284
000140 d5 01 3e 40 36 62 95 bc 25 20 30 3d 21 a7 ef bd
       2.9688618 -0.018235307 0.042999405 -0.11701799
000150 c8 a3 5d bd 4f b5 ac 3d 26 78 90 3c ce 9f 92 be
       -0.054111272 0.08433019 0.017635416 -0.28637546
000160 35 36 f8 3d c7 c2 3f 3c d0 3a ee bd 39 f1 5d 3e
       0.12119714 0.011704153 -0.11632311 0.2167405
000170 5a b5 3f be 97 37 9b bd a2 27 bc bd 87 e8 e3 bc
       -0.18721524 -0.07578962 -0.09187247 -0.027820839
000180 65 3d 38 bd b0 f1 72 3d f5 27 54 bd 9e ae 99 bd
       -0.044980425 0.059312522 -0.05179592 -0.07504009
000190 d9 16 1f 3c 7f e3 40 ba 6a 06 70 3e 80 a8 1c bd
       0.009710037 -0.00073581183 0.23439947 -0.03824663
0001a0 5d 0d ea 3d 8a 88 84 3d 9c 6b b3 be ee 57 8a 3f
       0.1142833 0.06471355 -0.35043037 1.0808084
0001b0 4d d9 8a bf 37 22 97 bf 12 2b 22 bf b3 08 d2 bd
       -1.0847565 -1.1807317 -0.6334697 -0.102555655
0001c0 b2 c2 4d 3d a1 0e 51 bb c0 96 6c 3d eb ba a2 3c
       0.050234504 -0.0031899589 0.057760954 0.01986452
0001d0 0e 5e 18 be 2e 7d 66 be ad 42 1b be 23 0b a6 3e
       -0.14879629 -0.2250869 -0.15162154 0.32430372
0001e0 d2 98 b1 bd c1 5a f1 3c 40 2f f1 3d 9f f2 dc bd
       -0.08671726 0.02946222 0.1177659 -0.10788464
0001f0 1e cd e0 bc b0 70 0b 3e 60 6a 38 be 3c 64 88 bd
       -0.027441557 0.13617206 -0.18009329 -0.06659743
000200 a9 21 93 3e 70 94 86 be 82 39 d3 bd 53 02 fe bd
       0.28736618 -0.26285124 -0.10313703 -0.12402787
000210 28 1c 9d 3c a4 78 87 3d 5a 28 bd bd b1 00 a9 3d
       0.019178465 0.06614807 -0.09236212 0.08252085
000220 4f 8e 41 3d 9f 38 91 bd 45 db dd 3c b9 69 33 3d
       0.047254857 -0.07090878 0.027082095 0.043801997
000230 fd 03 d1 bd 31 fd 8a 3d 19 94 de 3d fa bd 4a 3d
       -0.10205839 0.06786574 0.10868091 0.049497582
000240 82 b7 a6 bb d9 e0 eb bc 34 c2 71 3d 5d 3a a4 bc
       -0.005087794 -0.02879374 0.059023097 -0.020047361
000250 99 5d 06 bd 7a b4 9b 3b 59 f1 a1 3b f5 9c f4 39
       -0.032804105 0.004751739 0.004942101 0.0004665625
000260 91 f2 2d 3d 21 7c d1 ba a1 aa ef bc 1f 51 42 3b
       0.042467657 -0.0015982428 -0.029256167 0.0029650403
000270 cd f3 66 3c d1 0f 04 bd 43 7f e0 3c 04 d1 ae be
       0.014096213 -0.032241646 0.027404433 -0.3414384
000280 ca 7c b9 be 21 c8 25 3e d3 ff 5b bc 8d e6 20 bd
       -0.3622802 0.16189624 -0.013427692 -0.03928237
000290 d8 a6 99 bb bc 01 c0 bc 05 62 dc bb bd d9 ad bd
       -0.004689079 -0.023438327 -0.006725552 -0.08488796
0002a0 3b 94 a5 bd c1 3e ca bd d8 eb e2 be bf 3d cd be
       -0.08084913 -0.098752506 -0.4432056 -0.4008617
0002b0 25 93 a8 bd 9a c0 46 bd 15 fe 09 3e 00 e9 6c 3d
       -0.082311906 -0.048523523 0.13475831 0.057839394
0002c0 21 a0 37 bc 2e f0 4a 3e 46 bf 1a 3c 87 d6 14 3e
       -0.011207611 0.19818184 0.009445017 0.1453496
0002d0 08 d5 ac bd ca 5a 5f 3e 73 10 85 bf 6f 2f 04 bf
       -0.0843907 0.21811977 -1.0395645 -0.5163488
0002e0 2f 29 15 be 0c e8 10 3e 1d 81 fb bd ef ff 88 3d
       -0.14566492 0.14151019 -0.12280486 0.066894405
0002f0 ac f9 a1 bd d9 4d 42 bd 08 2f 55 3c a8 26 2a 3d
       -0.07908949 -0.047437523 0.013011701 0.04154077
000300 c4 04 21 3c 8a 94 04 c0 78 cd 39 40 fb d5 83 40
       0.009827796 -2.071566 2.9031658 4.1198707
000310 1e 41 16 3b 18 14 2a bc 0a c9 92 bc b7 c8 25 3b
       0.0022926996 -0.010380767 -0.017918129 0.0025296637
000320 55 9f 08 bb 10 17 65 bc b4 69 a3 bc d2 1d e2 bc
       -0.0020846922 -0.013982549 -0.019947864 -0.02760211
000330 3d 37 51 3c 97 df 3f ba 7f af 48 bc 55 bf af 3a
       0.0127695175 -0.0007319389 -0.012248873 0.0013408462
000340 1e fb 11 bd 89 2d ea 3b 3c 9e 89 bb a6 60 ed 3d
       -0.035639875 0.0071465415 -0.004199771 0.115907
000350 79 81 cc bf 4b 33 9c be 84 91 c8 3f 3c b4 c9 3f
       -1.5977012 -0.30507883 1.5669408 1.5758128
000360 2d b8 ef bd 47 7a b8 bd 0d 8c 32 be 8b a3 c4 3e
       -0.117050506 -0.090076976 -0.17436238 0.38406023
000370 f8 76 7e bb 74 da d1 bd f6 b0 72 be 9a e8 0e bf
       -0.0038828235 -0.10246745 -0.23700318 -0.5582367
000380 b8 41 07 bf 89 f0 d9 39 ed ab 02 be 38 d5 71 3e
       -0.52834654 0.00041568678 -0.12760897 0.23616493
000390 a7 07 b0 3e 96 7a 9d 3d 87 37 bc 3e 8b 3d 61 3f
       0.34380838 0.07689397 0.36761114 0.8798453
0003a0 7f 6f 9d bf 14 98 b4 be 7f 4d db bd 66 c4 4d 3d
       -1.2299651 -0.35272276 -0.107081406 0.05023613
0003b0 21 89 07 be 70 72 f9 bd 74 cc 54 3d 22 1b 07 be
       -0.13235904 -0.1218003 0.051952794 -0.13193944
0003c0 a2 90 e7 3e 0e 35 17 bd 31 04 34 3e f3 e1 2f c1
       0.45227534 -0.03691583 0.17579724 -10.992663
0003d0 00 66 33 40 0e e8 67 40 dc 2f 3d 3e 79 ae 2f be
       2.8031006 3.6235385 0.18475288 -0.171564
0003e0 0d 24 ee 3b 10 c3 87 3d 18 58 82 bc 3c d8 5d bd
       0.007267481 0.06629002 -0.015911147 -0.054161295
0003f0 ce 44 e5 3d bf 5c 94 3a 4e 25 a9 bd d3 0b 82 3c
       0.11194764 0.0011319144 -0.082590684 0.015874779

bias f4 [128]
000000 99 37 4d 3e 16 20 1e bf f2 7d 98 be 1f 4b 69 be
       0.2004074 -0.6176771 -0.2978359 -0.22782563
000010 a4 e3 00 bf 94 9a 96 bc e3 0c ff 3e 10 af ce be
       -0.5034735 -0.018384255 0.4981452 -0.40367937
000020 a9 83 a9 3b ae d6 87 3e 91 43 fe bd 16 04 d5 bc
       0.005173166 0.26530975 -0.12415231 -0.026002925
000030 fa 24 e1 3e 8b 8e 2b 3e 49 65 41 be ef 17 a7 be
       0.43973523 0.16753595 -0.18886293 -0.32635447
000040 94 6a e3 3d 3e 5c 24 3e 1c 26 03 3e 4f e0 18 be
       0.111043125 0.16050813 0.12807506 -0.14929317
000050 1f e7 d7 3e 2a 6f b2 3e f0 e1 11 bf 7d a0 15 b9
       0.4216852 0.34850436 -0.5698538 -0.00014269534
000060 00 92 46 3e 7d b4 33 3e 2b 47 23 3c 13 5f 5e 3e
       0.19391632 0.1754932 0.009965698 0.21715955
000070 8f 5b c7 be aa b7 83 be 01 64 44 be fd 42 cb 3e
       -0.3893704 -0.25726062 -0.19178773 0.39699546
000080 90 b5 e1 3d 70 2c b6 3d dc c7 94 3e 81 f1 5b be
       0.110209584 0.088951945 0.2905873 -0.21478845
000090 03 f4 03 3e c8 e1 99 be 06 83 90 be 63 03 11 3e
       0.12886052 -0.3005507 -0.28224963 0.14161448
0000a0 61 d3 1b be 98 e1 67 3e 8c 18 22 bd 9d ce 18 bc
       -0.15217353 0.22644651 -0.03957419 -0.009326604
0000b0 ff a8 0e bf 2d b5 9c be d8 65 26 be a7 5d 35 be
       -0.5572662 -0.30606976 -0.16249788 -0.17711507
0000c0 c4 6a 5c be 7d e7 eb be de 73 7e be 3b 15 84 be
       -0.21525103 -0.4607505 -0.24848887 -0.25797448
0000d0 e5 47 22 bf e2 f9 f1 bb fb b1 f6 3e 90 1d b8 be
       -0.6339095 -0.0073845247 0.48182663 -0.35960054
0000e0 29 1b 95 3d a8 97 a4 bd ba ee cc be b3 9d 94 3f
       0.07280571 -0.08036739 -0.40025884 1.1610626
0000f0 4f 7a bc be c7 0e e0 3e 2c fa 1f bf fd 62 bf 3e
       -0.36812064 0.43761274 -0.62491107 0.3738021
000100 bd 4b 8f be e5 8f 93 3e 73 15 9a 3e ca 09 c1 3e
       -0.2798747 0.2882072 0.3009449 0.3770278
000110 e8 43 4e be d1 e7 40 be b8 87 40 be 5a 9a 49 bf
       -0.20143092 -0.18838431 -0.18801773 -0.78751147
000120 e1 52 d2 bd be ff 3b 3e 48 e6 e4 3d dd fb 20 3e
       -0.10269714 0.18359277 0.11176735 0.15721078
000130 95 99 0e 3e fc 54 ab bd 4b 94 06 bf 31 a9 46 be
       0.13925774 -0.08365819 -0.5257003 -0.19400479
000140 98 45 fa 3d 7a 6a 3f 3e 57 73 8f be f1 2f 8d be
       0.12220305 0.18692961 -0.28017685 -0.2757564
000150 d2 28 87 be 54 96 29 bf fc f6 fb 3e 86 eb 9e 3e
       -0.2639833 -0.6624501 0.49211872 0.31039065
000160 18 b2 71 3e 09 28 40 be 0a e0 57 be 36 ad 00 bf
       0.23603094 -0.18765272 -0.21081558 -0.502643
000170 7d 9f ad bd e5 3d 5c be 9c 88 40 bc 58 8f 35 3e
       -0.084776856 -0.21507986 -0.01175132 0.17730463
000180 bd 4e 79 be 3e 5d 2e be 4f 78 66 be a9 92 dc 3d
       -0.24346443 -0.17027757 -0.22506832 0.10770161
000190 e9 a7 89 3d 42 6f d5 3d 8a f9 3c bf 66 53 ee 3e
       0.067214794 0.10421611 -0.73818266 0.46548003
0001a0 0a 57 57 be 67 86 8f be 43 7f 58 3f 6c 5e 22 3e
       -0.21029297 -0.28032228 0.84569186 0.15856332
0001b0 d2 c4 c8 be 4c 7c cd bb 00 e7 e1 be 7a f1 29 3e
       -0.39212662 -0.006270921 -0.44121552 0.16596022
0001c0 0a 7d a7 3e b7 cf 43 3e 17 51 1f be 6b a7 41 3e
       0.32712585 0.19122206 -0.15558277 0.18911521
0001d0 28 e4 1b bf da f8 a5 be 00 e0 e9 be 29 23 09 bd
       -0.60895014 -0.3241642 -0.4567871 -0.033480797
0001e0 12 13 52 3f 20 43 02 3e 74 63 97 be 4f cb b7 3d
       0.8206035 0.12720919 -0.29568064 0.08974325
0001f0 a3 34 07 3f 86 b1 49 3e 97 a0 19 be 9a 0e 61 3e
       0.5281469 0.19696626 -0.15002666 0.21978226

weight f4 [64, 128]
000000 f9 9d f4 bd ec 88 3c 3c f2 fe b6 3b eb ff d4 3b
       -0.119441934 0.011507254 0.005584591 0.0065002344
000010 09 c7 85 bb f9 b8 9b bd e7 42 03 be 05 66 4b 3a
       -0.0040825647 -0.0760364 -0.1281849 0.00077590375
000020 f9 ab a3 bc 71 b8 ca 3c 7b 4b 99 be 75 7a a8 be
       -0.019979464 0.024746152 -0.299404 -0.32905927
000030 93 e2 de bd ac 30 80 bd 2f b6 62 be 9d 23 9c 3c
       -0.10883059 -0.062592834 -0.2213981 0.01905995
000040 fb e0 4b be 39 50 b6 bd db 9d 72 3c 93 51 f6 3c
       -0.19910042 -0.0890202 0.0148081435 0.030068194
000050 01 f7 83 bb 7e 99 bb bd 1c 36 3a bc 97 95 54 be
       -0.004027248 -0.09160136 -0.01136544 -0.20760189
000060 73 49 97 3d e2 1f c3 3d 26 99 04 3e 67 88 9a ba
       0.07387056 0.095275655 0.12949046 -0.0011789919
000070 4e ac 47 be 96 77 3f be 9f 87 85 3e 44 f7 11 be
       -0.19499323 -0.18697962 0.26080033 -0.1425448
000080 80 f9 21 bf db 35 59 bc 4e 65 b3 bd c9 d5 a7 be
       -0.6327133 -0.013257469 -0.08759557 -0.32780293
000090 78 12 0a 3e 61 10 49 3c c2 55 88 3d 56 a9 cc 3d
       0.13483608 0.012271971 0.06656982 0.09993236
0000a0 5b c6 23 3e 97 79 e2 3d 5d 8d e8 bd 50 e7 4b be
       0.15993635 0.11058348 -0.11355088 -0.19912457
0000b0 e0 f0 ae 3d 23 d3 86 bd 38 aa 0b 3e c3 25 50 bd
       0.08542037 -0.0658324 0.13639152 -0.050817262
0000c0 6e bb 51 3d 7b 28 d6 3d e5 1d 8f bd e5 38 00 3d
       0.051204138 0.1045694 -0.06988124 0.03130426
0000d0 94 53 10 be 0b 3e 8e 3d b3 69 7b be d2 8d 39 be
       -0.14094383 0.069454275 -0.2455204 -0.18120506
0000e0 c1 de 76 bc 46 73 3c be 99 6d 72 bd bb 9d 34 be
       -0.015067757 -0.18403348 -0.05918655 -0.17638294
0000f0 52 89 80 3e e8 12 52 bd b8 b6 7d bd 67 45 01 be
       0.25104767 -0.05128756 -0.061941832 -0.12624131
000100 65 6a 1d 39 64 b3 78 3d ec 52 73 bc d3 bf 89 bd
       0.00015012322 0.060717955 -0.014851313 -0.06726041
000110 ea 9a 22 be a8 1a ad 3d d5 f1 b3 be 88 11 77 3c
       -0.15879408 0.0845235 -0.3514544 0.015079863
000120 65 6f a4 3d eb b9 00 be e4 74 b1 3c 76 28 99 be
       0.08029059 -0.12570922 0.021662183 -0.29913682
000130 df 55 31 bd 29 15 a1 3e 42 ec 72 be c7 16 d1 be
       -0.043294784 0.31461456 -0.23722938 -0.4083769
000140 ee 92 2b bc a5 67 65 be c8 2f 0c 3d c9 8f 46 be
       -0.0104720425 -0.22402819 0.034225255 -0.19390787
000150 a5 cd 73 3c 85 cf 51 3c 3c fe 2a be 38 17 4d 3d
       0.014880572 0.012805824 -0.16698545 0.05007097
000160 14 a6 d0 bd f5 fe 96 be 9d 47 45 3d fd db 8f bd
       -0.10187927 -0.29491392 0.048164 -0.07024381
000170 f4 7e 06 be ce 67 1b bd 4b cb 89 3d 0a 77 33 3e
       -0.13134366 -0.037940793 0.06728228 0.17525879
000180 2a d0 1b 3e 73 95 bf bd dc 55 20 be e2 6e 09 be
       0.15216127 -0.09354677 -0.15657753 -0.13421205
000190 89 ad 98 bd e0 8e 6f 3e 2e 4c ef bb c4 11 f8 3d
       -0.07454974 0.23394346 -0.0073027825 0.121127635
0001a0 b6 82 86 3d 5c ed f5 bd d8 9f b2 bd 99 22 b9 3b
       0.065679 -0.12008163 -0.08721894 0.0056498763
0001b0 28 27 1c be 1b 95 e9 bc 07 3d ef bd 06 9e 56 3e
       -0.15249312 -0.028513482 -0.11681562 0.20958719
0001c0 99 55 28 3d a7 46 fc bd 7c 15 e6 3d 0b a1 1e be
       0.041097257 -0.12318163 0.112345666 -0.1549112
0001d0 4e 50 44 3a d1 b7 de 3c 45 e7 36 be 78 49 3b bc
       0.0007488773 0.02718726 -0.1786166 -0.0114310905
0001e0 3f e2 c0 3d f7 c2 c2 3c 8f b6 1a be f6 26 6b bb
       0.09418153 0.023774607 -0.15108703 -0.0035881377
0001f0 93 35 d9 bc 2d c6 c0 bd d7 f5 d6 3d d8 da 84 bc
       -0.026514804 -0.09412799 0.10496109 -0.016217634
000200 bd ff 46 be 00 87 55 bf b1 72 36 bd 13 ad 7f 3d
       -0.19433494 -0.8340912 -0.044542972 0.062420916
000210 93 7c 15 3c 59 9d cb be a5 36 0a be 91 c1 83 bd
       0.009123939 -0.39768484 -0.13497408 -0.06433404
000220 26 37 62 bd ce e8 8e be 0f 3f 20 3e 02 40 ff bc
       -0.055228375 -0.2791199 0.15649055 -0.031158451
000230 61 4f f3 bd c6 c0 ad 3c b5 65 cb be 7f c6 50 3e
       -0.11880375 0.021210086 -0.39726034 0.2038822
000240 98 d9 99 be b7 77 ae bd 1a e3 07 3e a2 4b 69 3d
       -0.30048823 -0.085189275 0.13270226 0.056956895
000250 95 09 4d 3b c8 d6 31 bf 67 dc 3c 3d d3 d7 84 bd
       0.003128623 -0.69468355 0.04610863 -0.06486478
000260 62 4c 58 bd 4f ad 02 3d 87 b8 d1 be 9c 0a 38 be
       -0.05280722 0.03190356 -0.40961096 -0.17972797
000270 94 e8 34 be 86 9e 43 3e 58 2d 12 be 95 ae 54 3d
       -0.17666847 0.1910344 -0.1427511 0.051924307
000280 bd 03 89 be 4d b2 02 3a ae 42 4d 3e f8 b1 0a bd
       -0.26760665 0.00049856753 0.20044968 -0.03386113
000290 01 f3 74 be bb b6 4a 3c e3 c7 83 bd 63 1d 8f 3c
       -0.23920824 0.012372668 -0.0643461 0.017470067
0002a0 b0 20 30 3e 3a 01 48 3d a4 74 15 be b8 82 25 be
       0.1719997 0.048829295 -0.14595276 -0.16163146
0002b0 bc b9 bc 3d a8 4d 6b be e2 ca 39 be b9 39 01 be
       0.092151135 -0.22978842 -0.181438 -0.12619676
0002c0 65 70 78 3d 0c 07 0b bd 99 8c 9c bc 23 d5 2d bd
       0.060654063 -0.033942267 -0.019110011 -0.04243959
0002d0 2b 72 e3 3d b3 88 19 be 37 12 20 bd 4d 01 c7 bd
       0.1110576 -0.14993553 -0.03907987 -0.09717045
0002e0 26 28 27 3b ea b9 1a bd be 03 7f 3c b8 88 06 be
       0.0025506108 -0.037774958 0.015564857 -0.13138092
0002f0 c0 12 f1 bd 9c a4 ed bc 24 22 8d bd c5 f3 a7 bd
       -0.117711544 -0.029009156 -0.068912774 -0.08200792
000300 7c 51 1f bd 0e a2 db bd 43 ee 1d bf 8b ae b7 bb
       -0.03889607 -0.10724269 -0.61691684 -0.005605524
000310 e7 a8 84 3d c1 6b 8f 3d 3c 07 93 bd f9 89 34 be
       0.06477528 0.07002974 -0.07179114 -0.17630757
000320 c6 42 c9 bc a1 21 68 bd e6 02 be bf ce f4 7b be
       -0.024567973 -0.056672696 -1.4844635 -0.24605104
000330 2e 28 4c bc 05 eb 56 be 62 7a 7b bd 57 3e 89 be
       -0.012460751 -0.2098809 -0.06139601 -0.26805374
000340 fe e5 49 bf c3 02 c4 bd f9 92 e4 3c e8 c8 eb 3d
       -0.78866565 -0.09570839 0.027902113 0.11512929
000350 37 ed 2e 3d 66 4c 1d bf 5a 2a 44 be dc d0 a6 bd
       0.042706694 -0.614447 -0.19156781 -0.081453055
000360 bf 40 74 3d c9 82 f1 bc f0 6f d9 3d 97 b9 27 3c
       0.05963206 -0.029481309 0.106170535 0.010237119
000370 7e 0c ba 3d 6b bc 7d 3e 56 97 f4 3d f0 8b 72 bc
       0.09084414 0.24778907 0.119429275 -0.0148038715
000380 a9 ed 16 be e6 f6 af 3d 02 31 e6 3d 24 9d 19 bd
       -0.14739098 0.08592014 0.11239816 -0.037503377
000390 b5 7b 3c be 23 73 28 3d 05 c7 33 3c 29 14 8b bd
       -0.18406565 0.041125428 0.010972743 -0.067909546
0003a0 44 03 2a be 1d 6e 3b 3e ab 69 0b be 1e d1 b2 bd
       -0.16602808 0.18303724 -0.13614528 -0.08731292
0003b0 af 17 06 3d 1f 3c ba 3d 7c c6 28 bd ef ff 62 be
       0.03273743 0.090934984 -0.041204914 -0.22167943
0003c0 8b 88 fb bd a8 f7 4f 3d 29 88 0b 3e 4b 65 5a 3e
       -0.12281903 0.050773293 0.1362616 0.21327703
0003d0 5b c3 1e bf 56 fb 1b 3d 8c cc 23 be f3 86 4f 3d
       -0.6201684 0.03808149 -0.15995997 0.050665807
0003e0 e3 80 5e bd 0d 59 db bd 31 d5 13 3e 1c 45 53 bb
       -0.054322135 -0.107103445 0.14436795 -0.0032237237
0003f0 2d 9e c6 bd 4b 06 e7 bd 73 59 c1 bd 05 eb 35 3d
       -0.096981384 -0.11280497 -0.09440889 0.044413585

bias f4 [64]
000000 01 94 d4 3d db a2 08 3e f1 16 3e 3d 7a 7c 36 3e
       0.10379792 0.13343374 0.046408597 0.17820922
000010 18 d8 06 bf 68 d5 5e be c5 63 2b be 60 bb 6e be
       -0.5267348 -0.21761096 -0.16737278 -0.23313665
000020 c5 72 bb bd dc 15 eb 3c c8 61 9a bd 50 0f 1d bd
       -0.0915275 0.028696947 -0.075381815 -0.03834468
000030 c4 e5 53 3d 9b e0 24 3b 37 48 2d bd 07 8b da bd
       0.051732793 0.002515829 -0.042305198 -0.106710486
000040 7c 8b c1 bd f8 7f be be 11 52 a8 3d fe b3 d4 bd
       -0.09450433 -0.37207007 0.08218778 -0.10385893
000050 db 85 f6 bc e4 25 8d be a9 9d 84 bd 26 df db bd
       -0.030093124 -0.2756797 -0.06475384 -0.107359216
000060 f4 75 be be 28 86 18 bd de 5c d1 3d fd c6 c8 be
       -0.37199366 -0.037237316 0.10222791 -0.39214316
000070 a8 c1 bb 3c 3f 7e 3c 3d 93 72 fd bc f3 e9 02 3d
       0.022919491 0.046018835 -0.030938422 0.031961393
000080 ef 67 01 be 70 9a 58 be 1f a0 21 bc e1 80 db 3d
       -0.12637304 -0.21152663 -0.009864836 0.10717941
000090 0b 01 81 bd 6d e3 fa 3d 40 d1 96 bc 57 67 0d 3b
       -0.06299027 0.12250409 -0.018410325 0.0021576488
0000a0 db 10 01 3e 58 e1 28 be 7b 86 e8 bd cc a0 18 bd
       0.12604086 -0.16492212 -0.11353775 -0.037262723
0000b0 ae d4 c6 bd 4b 92 98 bd 4a 4a 01 be 0d f3 76 be
       -0.09708534 -0.07449778 -0.12625995 -0.24116154
0000c0 93 db b5 bd 7e de 55 bb e5 34 26 be 65 0c 8c 3c
       -0.08879771 -0.0032633836 -0.16231115 0.017095754
0000d0 fb a2 21 be b2 df 40 3d b3 c6 f2 bd 65 1c 1a be
       -0.15784828 0.047088332 -0.11854305 -0.15049894
0000e0 54 df 42 be 7f ee f7 bd 50 27 3c be eb bc 32 be
       -0.19030505 -0.121060364 -0.18374372 -0.17454879
0000f0 36 a8 14 3e 9c ca 09 3a bb d9 63 3d 98 86 29 be
       0.14517292 0.00052563264 0.055627566 -0.1655525

weight f4 [9, 64]
000000 73 67 85 be 42 c2 6c bf 24 f0 f7 3e f1 b4 7f 3f
       -0.26055488 -0.92483914 0.484254 0.9988547
000010 ec da ac bf ee 00 07 3f 53 ed 64 be c0 aa 7e 3e
       -1.350431 0.52735794 -0.22356157 0.24869823
000020 b1 0d 97 be 6b 6f 9e be e7 22 53 bf 0b 9a 97 be
       -0.29502633 -0.3094438 -0.8247513 -0.29609713
000030 2b 86 15 bf 7c b8 9c bd d4 c0 12 3f 53 f5 30 3e
       -0.5840785 -0.07652375 0.5732548 0.17281084
000040 56 00 65 3f 71 e4 4e bf 25 7b 13 bf 5e 85 50 3f
       0.8945364 -0.80817324 -0.5760978 0.814535
000050 6e 05 32 bf 76 95 63 be ac 2f 38 3f 3c 5b 10 bf
       -0.69539535 -0.22224984 0.7194774 -0.5638921
000060 83 5d bb bd 9d 42 b3 be 0b dd 06 3d e6 aa dc be
       -0.09148695 -0.3501176 0.032925647 -0.43099135
000070 3e 4e 9e 3e 4b 7b 0c 3f e7 b1 27 3f 6c de aa be
       0.3091907 0.5487563 0.6550583 -0.3337282
000080 ad 11 0b 3f ba e7 b4 3e 3e be 64 3e 3c bc 51 bf
       0.54323846 0.35333043 0.22338197 -0.8192785
000090 fe 8e 27 3f cb a7 dd 3e b9 91 cb be 4d 53 19 3f
       0.65452564 0.43292078 -0.39759615 0.5989273
0000a0 ce b5 21 3f b3 4a 16 3f a3 6f 69 3f 9e 67 cc 3e
       0.63168037 0.5870773 0.9118597 0.39922804
0000b0 5f dc 71 3f f6 c8 06 bf 04 7c f6 be aa e4 05 bf
       0.94476885 -0.5265039 -0.4814149 -0.5230204
0000c0 ca de 4d bf ff f3 54 3f e4 2a 22 3c 2e d6 b1 be
       -0.80418074 0.8318481 0.009897921 -0.3473372
0000d0 c3 6b f0 3e 0a f6 6d bf 12 11 a7 3e 1b 8d 7f bd
       0.46957216 -0.9295355 0.3263021 -0.062390428
0000e0 27 70 18 3f 07 93 79 3e 6a 36 17 bc 9d 5e 69 bf
       0.5954613 0.24372493 -0.009229282 -0.91159993
0000f0 0b dd 31 3f 2c 76 8d bd e3 43 9b be cf c6 a7 3f
       0.6947791 -0.06907305 -0.3032523 1.3107547
000100 c2 a9 ce 3d f6 35 65 3e bd 48 98 3e 1d 0b 62 bd
       0.100909725 0.22383866 0.29742995 -0.05518638
000110 fb ff 54 3d b0 4e e4 be e0 c5 a0 bd 3c ec 11 3f
       0.052001934 -0.44591284 -0.07850242 0.5700109
000120 4c 13 3a 3f 34 6e 82 3d d5 aa 6a 3f dc ee b9 3d
       0.72685695 0.06368676 0.9166692 0.09078762
000130 ef 14 96 bc a2 b0 43 be 04 d3 25 3c 10 1f 93 be
       -0.018320529 -0.19110349 0.010121111 -0.28734636
000140 93 dd 74 be f9 6d 82 bf f8 40 25 be 39 dd 4c 3f
       -0.23912649 -1.0189811 -0.16138065 0.8002506
000150 8d 8a f8 3e 66 cf 5c bf 65 cd a8 bc 39 57 b8 be
       0.48543206 -0.86253965 -0.020605752 -0.36004046
000160 1e 8d 1f 3f 73 66 8d bf 11 c7 bd 3e db d1 72 3e
       0.623247 -1.104689 0.37065938 0.23712866
000170 e7 ee 56 3f a3 e4 2e 3d 11 c1 97 bf c7 2f 20 be
       0.83958286 0.042698514 -1.1855794 -0.15643226
000180 35 a0 bc be fa 4f ab 3d eb 8c 1c be 0a 61 97 3e
       -0.36840978 0.08364864 -0.15288131 0.29566222
000190 51 15 a3 3d 8b 11 a8 3e 91 9e 51 3c 6c 23 dc 3e
       0.0796305 0.32825884 0.012794153 0.42995775
0001a0 56 c4 f8 be 20 4c da be 79 72 d6 bb 35 d7 1c bf
       -0.48587292 -0.42636204 -0.006544408 -0.6126588
0001b0 de 14 7f 3e 2a 92 2e bd a6 51 a9 3d f2 c6 82 be
       0.24910304 -0.04261986 0.08267526 -0.25542408
0001c0 8b 83 37 3d 22 23 4c bc 5f 9f 84 3f 88 bd 0a 3e
       0.044803184 -0.012459548 1.0361136 0.13548863
0001d0 54 36 51 be ad de 60 bd 5b ed 75 3e 23 1e 57 bf
       -0.20430881 -0.05489986 0.24016325 -0.8403036
0001e0 73 16 26 3e f0 b0 b6 be 48 81 60 bf b9 97 b1 bd
       0.16219501 -0.35681868 -0.8769727 -0.08671517
0001f0 9d 61 3e bd 1d 9a dd 3d aa fe e4 3e 52 f4 78 3e
       -0.04647981 0.108204104 0.44725543 0.24311951
000200 08 a3 3a bf 6f 6b 0b be f2 62 e9 3e 9d a6 de bc
       -0.72905016 -0.13615201 0.45583302 -0.027179057
000210 c9 27 f9 3d 5c 8b 90 bf 4b d6 a4 bf 90 65 81 bf
       0.121657915 -1.1292529 -1.2877897 -1.010912
000220 6c 16 78 3f 3a 24 7b bc 2c a8 60 3e 4c 3d 1a bf
       0.96909213 -0.015328461 0.21939152 -0.6024978
000230 1d c0 96 bd e6 6d 9b be 0d a7 a4 3e 84 32 69 3f
       -0.073608615 -0.30357283 0.321587 0.91092706
000240 8c 3b 1b 3e 76 83 4a 3e e0 9a 20 3e a0 9e 27 be
       0.15159434 0.19776711 0.1568408 -0.16369104
000250 0c 72 bf 3b 20 39 a1 be 8a 93 3c bf 28 39 a4 3c
       0.005842453 -0.31488895 -0.73662627 0.020046785
000260 5c 94 bd bd 55 43 9b be 97 c6 dd be 35 c9 9c 3e
       -0.09256813 -0.30324808 -0.43315575 0.3062226
000270 08 75 31 be c9 ff a7 3e 66 3f 77 3e 70 9d b3 3d
       -0.173298 0.32812336 0.24145278 0.08770263
000280 b1 6d 36 3f b1 40 a2 bf 3c cc 0e bf 11 74 90 be
       0.71261126 -1.2675992 -0.55780387 -0.28213552
000290 fa 67 4d be b5 23 20 3f 5c ea cc 3e ed fe 51 be
       -0.20059195 0.62554485 0.40022552 -0.20507403
0002a0 9e 83 28 be 39 34 9a 3f c2 29 62 3d de 7f aa be
       -0.16456458 1.2047187 0.055215605 -0.3330068
0002b0 8e fd 69 3f d1 f0 a6 3e 29 4c e6 3e 48 0d 47 bf
       0.9140252 0.32605603 0.4497998 -0.7775464
0002c0 f4 19 cc 3b 9c c1 eb 3d 8e 90 c7 be d2 14 8c 3e
       0.00622868 0.115115374 -0.38977474 0.27359635
0002d0 2c 3d 29 3d d4 c4 98 3e 94 3f 0e 3f 7c 6d 3f 3f
       0.041318104 0.29837668 0.5556576 0.74776435
0002e0 95 38 0b 3f 98 7d 30 3f 3b 75 a6 3e 7d d1 05 3f
       0.5438321 0.6894164 0.32511315 0.5227278
0002f0 ff d9 bc be 92 62 40 bf a4 11 83 3e 40 2c 65 3f
       -0.36885068 -0.75150406 0.25599396 0.89520645
000300 91 a0 f2 33 5f 02 ca b5 66 d0 8f b3 c9 e7 1d b3
       1.129821e-07 -1.5050863e-06 -6.696864e-08 -3.676522e-08
000310 9e e0 79 34 68 48 80 34 0d 09 af 33 f0 88 d9 b3
       2.3271647e-07 2.389454e-07 8.150719e-08 -1.0129759e-07
000320 6a 5a 03 b4 51 dc de 32 e5 4b a0 b4 db 2b 45 b4
       -1.2233218e-07 2.594439e-08 -2.9857543e-07 -1.8363009e-07
000330 b7 74 f1 b3 e2 2a d6 33 36 dd 8f 32 37 1b d0 b4
       -1.1243667e-07 9.972952e-08 1.6747986e-08 -3.876282e-07
000340 54 e4 a7 35 04 3f f1 b4 ea 6c 3b b3 0a 6f 06 b4
       1.2508922e-06 -4.4935598e-07 -4.3638387e-08 -1.2520118e-07
000350 69 4b 37 b2 b1 f7 4e b4 9d 3b 87 35 ac 95 4c b4
       -1.0669148e-08 -1.9275355e-07 1.0075634e-06 -1.9053431e-07
000360 8f fc d8 33 0e 20 82 34 e4 cb bc b3 1b f1 5c b4
       1.0104224e-07 2.423771e-07 -8.79152e-08 -2.057681e-07
000370 a7 80 f4 34 16 a2 01 b4 fe 22 ef b4 11 e2 15 33
       4.5542149e-07 -1.2073028e-07 -4.454268e-07 3.4897372e-08
000380 95 7e 39 b3 28 07 44 34 2c 33 8b 34 05 59 df b3
       -4.3188795e-08 1.8256526e-07 2.5928e-07 -1.0400439e-07
000390 e0 5e d5 33 d9 03 d6 b4 e8 a2 fc 33 88 4e 36 b5
       9.935843e-08 -3.9863406e-07 1.1764297e-07 -6.791456e-07
0003a0 ea bd ee 33 6b ef 73 b5 cf aa 35 34 f3 35 d6 b4
       1.1117284e-07 -9.0872953e-07 1.6919078e-07 -3.989986e-07
0003b0 60 56 e4 34 68 8a 92 b2 fb 41 7d 34 92 ae e3 34
       4.2531155e-07 -1.7059577e-08 2.3586465e-07 4.2409062e-07
0003c0 c7 7d 18 33 77 eb 81 b4 98 e0 dc b4 f3 5c 0b b4
       3.550465e-08 -2.4199446e-07 -4.1141607e-07 -1.2979199e-07
0003d0 23 5a 7c 35 20 89 09 b5 52 31 1a 30 79 d2 81 b3
       9.400848e-07 -5.123602e-07 5.609496e-10 -6.0453154e-08
0003e0 80 ec 20 34 98 06 d9 b4 ae b3 cd 34 79 e5 bb 32
       1.49872e-07 -4.0424197e-07 3.831496e-07 2.1874017e-08
0003f0 52 2a 6b 34 5d 0d 10 35 06 1d cf 33 17 dd dc 34
       2.1901477e-07 5.3663626e-07 9.644468e-08 4.1139057e-07

bias f4 [9]
000000 78 72 9a 3c 36 e4 15 3e 6e 66 37 bd cb a3 3d 34
       0.018853411 0.14637837 -0.04477542 1.7661584e-07
000010 14 a1 8f 36 b5 e1 43 b4 44 88 e4 b4 1f 86 52 35
       4.280484e-06 -1.8242902e-07 -4.2567456e-07 7.842627e-07
000020 26 bd 26 b5
       -6.2115066e-07
